adam_model_999.pth (torch, 35543 bytes, 5 tensors)

weight f4 [64, 1, 9, 9]
0	0xbd83240f	-0.06403362
1	0xbd09963b	-0.033590537
2	0x3d2d4e25	0.042310853
3	0xbd6dfcfb	-0.05810259
4	0xbd8c0d37	-0.06838458
5	0xbd5b802c	-0.05358903
6	0x3dd99785	0.10624603
7	0x3dd05d02	0.1017399
8	0xbda5c290	-0.080937505
9	0xbd174251	-0.03692848
10	0x3daf999a	0.08574219
11	0x3da55a7a	0.08073898
12	0x3de76c0e	0.11299907
13	0x3b7578e4	0.003745609
14	0xbd28863c	-0.04114364
15	0x3e03cedd	0.12871881
16	0x3ca24a5b	0.019810846
17	0x3d46750a	0.04845146
18	0x3b83ba67	0.0040200236
19	0xbd373921	-0.044732217
20	0xbd5a604a	-0.053314485
21	0x3dd1324c	0.102146715
22	0x3ca2e973	0.019886708
23	0x3de22121	0.11041475
24	0xbdc847d5	-0.09779326
25	0xbd8f6987	-0.070025496
26	0x3d8b0f6f	0.06790053
27	0x3e009a1c	0.12558788
28	0xbd09b2cc	-0.03361778
29	0xbdb2232d	-0.086981155
30	0x3defc3a0	0.117072344
31	0xbd01e25f	-0.031710025
32	0xbd4356f5	-0.04769035
33	0x3daabfef	0.0833739
34	0xbd11c51d	-0.035588372
35	0xbc9cecbb	-0.01915585
36	0x3ca139be	0.019680854
37	0x3d8d3603	0.068950675
38	0xbdcec179	-0.10095496
39	0x3c8ecf02	0.017432693
40	0x3e2f9a01	0.17148592
41	0x3df55b76	0.119803354
42	0x3d63e8ea	0.055642046
43	0xbb772caf	-0.0037715842
44	0xbd93cc9b	-0.0721676
45	0x3cf8be8b	0.030364295
46	0xbd2343eb	-0.039859693
47	0xbdc7d49e	-0.097573504
48	0x3d2698bf	0.040673014
49	0x3e2042b0	0.1565044
50	0x3be453bf	0.006967991
51	0x3db46198	0.08807677
52	0x3d882dba	0.06649347
53	0xbd454a2a	-0.04816643
54	0xbc7e7291	-0.015530244
55	0x3c758582	0.014985444
56	0xbdbbe67d	-0.091748215
57	0x3dbd9dbd	0.09258602
58	0x3d3a5f16	0.045500837
59	0x3d9824f6	0.07428925
60	0xbc45db9e	-0.012076287
61	0xbd48bb7c	-0.049006924
62	0x3db8df5f	0.0902698
63	0x3cd2b4e7	0.025721027
64	0xbc2696ac	-0.010167759
65	0xbd426926	-0.04746356
66	0x3d61cadb	0.0551251
67	0xbd7dd3f9	-0.06196973
68	0x3def1ede	0.11675809
69	0x3d7fe7ee	0.062477045
70	0x3d4daafb	0.050211888
71	0x3dc7df03	0.09759333
72	0x3da53596	0.08066861
73	0x3da3f39d	0.0800545
74	0xbcb2029d	-0.021729762
75	0xbd962742	-0.073317066
76	0x3dbf2f66	0.093352124
77	0x3df8ce05	0.1214867
78	0x3ce6d7b6	0.02817903
79	0x3d8f8bfd	0.070091225
80	0xbba215e4	-0.004946457
81	0xbda87b8c	-0.0822669
82	0x3c5d52f2	0.013508545
83	0x3d88886c	0.066666454
84	0xbb00d358	-0.001965722
85	0x3dab98cb	0.08378752
86	0xbb319747	-0.0027098225
87	0x3cfd82ca	0.030946154
88	0x3e0034b7	0.12520109
89	0xbd81bb68	-0.06334573
90	0xbdd77353	-0.10520043
91	0x3db2f611	0.0873834
92	0x3d6a0418	0.05713281
93	0x3d2116b0	0.039328277
94	0xbd30011f	-0.04296982
95	0xbdbe1bc4	-0.092826396
96	0xbcd45b32	-0.025922392
97	0x3d43d258	0.04780802
98	0x3d05b381	0.03264189
99	0x3d6ecc1c	0.058300123
100	0xbd5c2070	-0.053741872
101	0xbda4ecc4	-0.08052972
102	0xbceea61d	-0.029131943
103	0xbe110d11	-0.1416514
104	0xbc1181a8	-0.00888101
105	0x3d5c53b3	0.05379076
106	0xbd8ba667	-0.06818848
107	0xbd979350	-0.074011445
108	0xbd4a84f7	-0.04944321
109	0x3d42491b	0.047433
110	0xbe03910b	-0.12848298
111	0x3cdf4a80	0.027257204
112	0x3d4b5b96	0.04964789
113	0xbe0ae65a	-0.13564435
114	0x3c661601	0.014043332
115	0x3bb938a8	0.005652506
116	0xbdaaac29	-0.08333618
117	0xbbdaaae9	-0.006673206
118	0x3d541b63	0.05178393
119	0xbca4163f	-0.020030139
120	0x3d8c866e	0.06861578
121	0x3e0f5d25	0.14000376
122	0xba57647e	-0.00082165736
123	0xbc847108	-0.016167179
124	0x3c5f6a3b	0.013636167
125	0x3d2d8058	0.042358726
126	0x3d57054a	0.05249528
127	0xbd2d86c1	-0.04236484
128	0xbd36611c	-0.044526204
129	0x3d929039	0.071564145
130	0x3d6478af	0.055779155
131	0xbdd36423	-0.10321834
132	0xbcb11ca5	-0.021620104
133	0x3d95e3d4	0.073188454
134	0xbd0daa71	-0.034586374
135	0x3d86c8d6	0.06581275
136	0x3dfea237	0.12433284
137	0xbdb46c7d	-0.08809755
138	0xbc41412b	-0.011795322
139	0x3d6fd86c	0.058556005
140	0x3d34f24a	0.044176377
141	0xbd2b6c78	-0.04185149
142	0x3d9b6dd8	0.075893104
143	0x3cb1d012	0.021705661
144	0xbb8fb8d0	-0.004386045
145	0x3d8979ff	0.06712722
146	0xbd92a1d5	-0.07159773
147	0xbcb5877c	-0.02215933
148	0xbd10c693	-0.035345625
149	0x3c330863	0.0109272925
150	0x3dd7e4ab	0.10541662
151	0xbdbcd197	-0.092196636
152	0x3deabc17	0.114616565
153	0x3bea8f9a	0.007158232
154	0x3c8d07be	0.017215606
155	0xbcc4e1e2	-0.02403349
156	0xbdac057d	-0.08399484
157	0x3d1f2f28	0.03886333
158	0x3d004883	0.031319153
159	0x3d0b3ee9	0.033995543
160	0x3c98cda9	0.018652754
161	0xbda199e3	-0.0789068
162	0x3d03e09c	0.032196626
163	0x3d855082	0.06509496
164	0x3d9fb7bd	0.07798717
165	0x3d4dc8b8	0.05024025
166	0xbd42c670	-0.047552526
167	0xbda402c7	-0.08008342
168	0xbdc27ec7	-0.09496837
169	0x3dda3503	0.106546424
170	0xbcb1c16f	-0.021698682
171	0x3d26e32c	0.04074399
172	0x3d985586	0.07438187
173	0xbdd7cf5a	-0.10537596
174	0xbd781718	-0.0605689
175	0xbcfa682e	-0.030567255
176	0xbdd07f0f	-0.101804845
177	0xbdcac15f	-0.09900164
178	0x3d40e619	0.04709444
179	0x3da8e39b	0.08246537
180	0xbccc7b0e	-0.02496102
181	0x3d214796	0.03937491
182	0xbcd136ec	-0.025538884
183	0x3dd3688c	0.10322675
184	0x3de8ea8b	0.113728605
185	0xbd8927a8	-0.06697017
186	0x3d0895ab	0.03334586
187	0xbbbc91bb	-0.005754677
188	0x3dd246fc	0.102674454
189	0x3cac8d4e	0.021063473
190	0x3d9ebdbf	0.07751035
191	0xbd0ea267	-0.034822848
192	0xbd1b1299	-0.037859533
193	0x3ded3af2	0.115835086
194	0xbdb58b4c	-0.088644594
195	0xbcb8a921	-0.022541584
196	0x3d2ab27b	0.04167412
197	0xbb095035	-0.0020952348
198	0x3d817eda	0.06323023
199	0x37c58bb9	2.3549293e-05
200	0x3b25ff4d	0.0025329173
201	0x3db9431a	0.09046002
202	0x3c9c51e0	0.01908201
203	0x3d3ae0df	0.04562461
204	0x3bda79e3	0.006667362
205	0x3d99aea3	0.075040124
206	0xbd30ee72	-0.04319615
207	0xbdb3c70d	-0.087782
208	0x3cafce65	0.021460721
209	0xbcecb7ed	-0.028896296
210	0x3dbeb71d	0.0931227
211	0xbbb3864d	-0.0054786564
212	0xbdb74a1f	-0.08949684
213	0x3cc17602	0.02361584
214	0x3d074163	0.033021342
215	0xbdbaaaac	-0.09114584
216	0x3dd60ff0	0.104522586
217	0x3dd34e3b	0.10317656
218	0xbc9f2148	-0.01942505
219	0xbdb2e9c9	-0.08735997
220	0x3d3942d0	0.045229733
221	0xbc1f0098	-0.009704731
222	0x3d25738c	0.040393397
223	0xbd9c9181	-0.0764494
224	0x3d34ad73	0.044110727
225	0x3d2aa5ac	0.041661903
226	0xbd9ed4cc	-0.077554315
227	0x3d95272a	0.072828606
228	0xbd758728	-0.05994335
229	0xbc63c52a	-0.013901988
230	0xbd00fb25	-0.03148951
231	0x3d7d4a2b	0.06183831
232	0x3cc3430f	0.023835687
233	0xbd53667e	-0.051611416
234	0x3d87113e	0.065950856
235	0xbc571ae0	-0.013128966
236	0xbd741250	-0.059587777
237	0x3c9e4b9d	0.019323165
238	0x3cb64e23	0.022254055
239	0x3da08bab	0.078391396
240	0xbd3251c1	-0.043534998
241	0x3de40663	0.11134031
242	0xbda57069	-0.08078081
243	0xbd905a66	-0.07048492
244	0xbd333716	-0.043753706
245	0xbcf9b749	-0.030482905
246	0xbd15ffc0	-0.036620855
247	0x3d23a45d	0.03995167
248	0x3d548f81	0.05189467
249	0x3b906424	0.004406469
250	0xbd8a7102	-0.06759836
251	0x3d13dd65	0.03609981
252	0xbd28ef3e	-0.041243784
253	0x3c0aa2c7	0.008461661
254	0x3cd1d769	0.02561541
255	0xbd8354d7	-0.06412666

bias f4 [64]
0	0xbc5d9e38	-0.013526492
1	0x3dd19ed6	0.10235374
2	0x3d788744	0.060675874
3	0x3d641f3e	0.055693857
4	0x3db92e4e	0.09042035
5	0x3cae235d	0.021257097
6	0xbc119cb7	-0.008887461
7	0xbdceb9eb	-0.10094055
8	0x3d9b8f11	0.07595647
9	0x3cbeaf66	0.023276996
10	0x3d1cbbde	0.0382651
11	0x3da8d1f6	0.08243172
12	0x3d842c65	0.0645378
13	0x3c0277b8	0.0079631135
14	0xbc29535f	-0.010334819
15	0xbbe89cd9	-0.007098776
16	0xbd0f68b8	-0.035011977
17	0x3da8fb5c	0.08251068
18	0x3d1b139f	0.03786051
19	0x3ddd5c10	0.10808575
20	0xbdc92ff5	-0.098236
21	0x3d147c9e	0.036251657
22	0xbc32e729	-0.010919371
23	0xbcb5ff6e	-0.022216525
24	0xbc7a6fcf	-0.015285446
25	0x3e041007	0.12896739
26	0x3c6130d3	0.013744551
27	0x3d75e8b4	0.060036376
28	0xbc28be50	-0.01029928
29	0x3d42b788	0.04753831
30	0x3d740e19	0.059583757
31	0xbd2952a7	-0.04133859
32	0xbc55efd9	-0.013057672
33	0xbcb40917	-0.02197699
34	0xbaa0d8c6	-0.0012271635
35	0x3c3703fc	0.011170384
36	0xbd56b61f	-0.052419778
37	0xbc3f4227	-0.011673487
38	0x3d387f21	0.045043115
39	0xbdac7993	-0.08421626
40	0x3dbd2add	0.09236691
41	0xbc907783	-0.017635113
42	0xbc83fa97	-0.016110701
43	0x3b995a85	0.00467998
44	0x3d3f8eb0	0.046766937
45	0x3c760662	0.01501617
46	0xbd9dca0a	-0.077045515
47	0xbbd8ce08	-0.0066163577
48	0x3c92d581	0.017924072
49	0x3ce821e8	0.02833648
50	0x3cc119b0	0.023571819
51	0xbd065eb9	-0.03280518
52	0x3dca0ab5	0.098653235
53	0xbc4bd76a	-0.012441495
54	0x3d0ea14e	0.0348218
55	0x3d763e73	0.06011815
56	0xbd4b3762	-0.049613364
57	0x3b517916	0.0031963042
58	0xbcc15ec5	-0.02360476
59	0xbd3223fc	-0.04349135
60	0x3c3772c2	0.011196794
61	0x3d1bfaad	0.03808086
62	0xbc15c372	-0.009140836
63	0xbd8a2606	-0.06745534

weight f4 [32, 64, 1, 1]
0	0x3e10f6fe	0.1415672
1	0x3d92c47e	0.07166384
2	0xbd7de626	-0.061987065
3	0x3e0899cb	0.13339917
4	0xbd13f079	-0.036118004
5	0x3e4da48d	0.20082302
6	0x3e399814	0.1812442
7	0xbddb43a2	-0.10706259
8	0x3df4309b	0.11923333
9	0xbde22a52	-0.11043228
10	0x3ebdaf67	0.37047884
11	0x3f0d3372	0.55156624
12	0x3afbd445	0.0019213042
13	0xbbbaa9a9	-0.0056964946
14	0x3e6d47e3	0.23171954
15	0xbee66c55	-0.45004526
16	0x3d5245e0	0.05133617
17	0x3e204b6e	0.15653774
18	0x3eff1088	0.498173
19	0x3d030bc5	0.031993646
20	0x3c1bad6c	0.009501796
21	0xbda538af	-0.08067452
22	0x3e0b0bfe	0.13578793
23	0x3e8b1356	0.2716319
24	0x3e7ad4a9	0.24495186
25	0xbe175b99	-0.14781035
26	0x3e827731	0.2548156
27	0x3e3b7061	0.18304588
28	0x3b0922be	0.002092525
29	0x3dd01329	0.101599045
30	0xbef61b13	-0.4806753
31	0xbbedc08b	-0.007255619
32	0xbebf4118	-0.3735435
33	0xbdbc7a9f	-0.092030756
34	0xbe824906	-0.25446337
35	0x3f599213	0.84988517
36	0x3edf2472	0.43582493
37	0x3e42c988	0.1902219
38	0x3db2b197	0.08725279
39	0x3ea8c3c7	0.32961866
40	0xbd43e22b	-0.047823112
41	0xbe01b9cf	-0.12668537
42	0x3dd18181	0.10229779
43	0x3e3000df	0.17187832
44	0xbda17110	-0.07882893
45	0x3cf63ec9	0.030059235
46	0xbd0c6115	-0.034272272
47	0xba867cdb	-0.0010260599
48	0x3e919a7a	0.2843817
49	0x3ebe48df	0.3716497
50	0xbd24a7c5	-0.04019906
51	0x3e1b64a9	0.15175118
52	0x3df671ce	0.12033425
53	0x3d8c7cd5	0.06859747
54	0xbdac9119	-0.08426113
55	0xbdac7eb3	-0.084226035
56	0xbedff0f3	-0.43738517
57	0xbe70b3a3	-0.23506026
58	0x3f402895	0.75061923
59	0x3e1f4207	0.15552531
60	0x3df5f58a	0.120097235
61	0x3e9021fc	0.28150928
62	0x3dc62e19	0.09676761
63	0xbdb084bb	-0.08619066
64	0xbe8aa4e6	-0.27078933
65	0xbe11a662	-0.14223626
66	0x3d5500ef	0.052002843
67	0xbd9229d5	-0.07136885
68	0x3e889fba	0.26684362
69	0xbeb4b1ed	-0.35291997
70	0x3dae9bc4	0.08525804
71	0x3da85217	0.082187824
72	0x3de16da2	0.11007239
73	0xbea722c8	-0.32643723
74	0x3ee306b2	0.44341046
75	0x3eaeb883	0.34125146
76	0xbd4eb5aa	-0.050466217
77	0x3ddd86f3	0.10816755
78	0x3f05feae	0.52341735
79	0x3d2327b9	0.039832804
80	0xbe19f1ca	-0.15033641
81	0x3e97151d	0.29508296
82	0x3e27e9b1	0.1639774
83	0x3d949eb6	0.07256834
84	0xbcc6ace0	-0.024252355
85	0x3eaaa788	0.3333094
86	0xbe0f747f	-0.14009283
87	0x3def249c	0.116769046
88	0x3ce5eba0	0.028066456
89	0x3e64c099	0.22339095
90	0x3dda8e08	0.106716216
91	0xbd20e5e7	-0.039281752
92	0x3e16266d	0.14663096
93	0xbaecc174	-0.0018063025
94	0xbca44f60	-0.02005738
95	0x3de8540f	0.11344158
96	0x3e45de9b	0.19323198
97	0x3d0ab693	0.033865523
98	0x3f072c9c	0.52802444
99	0x3f493379	0.78594166
100	0x3e8fbbc8	0.28072953
101	0x3dab9fd0	0.08380091
102	0xbe3a6d56	-0.18205771
103	0x3cd09ae4	0.025464483
104	0xbd8afb75	-0.06786243
105	0x3ea001fa	0.31251508
106	0xbe094536	-0.13405308
107	0x3c44160a	0.011968145
108	0xbcb14b14	-0.021642245
109	0x3c6ea821	0.014566452
110	0x3d949185	0.07254318
111	0xbe10e5e8	-0.14150202
112	0x3e6b1caa	0.22960153
113	0x3e79802e	0.24365303
114	0xbc719395	-0.014744659
115	0xbdc490a4	-0.095979005
116	0xbc059391	-0.008152858
117	0xbe626916	-0.221104
118	0x3d966fec	0.07345566
119	0x3d1e2aba	0.038614966
120	0x3e5102b7	0.20411192
121	0x3dcfddf5	0.10149757
122	0x3f336d8c	0.7008903
123	0x3e4ab755	0.19796498
124	0x3de45ac3	0.11150124
125	0xbe3e71b1	-0.18598057
126	0xbc3fdca6	-0.0117103215
127	0xbc7073ec	-0.014676075
128	0x3e0fa21b	0.14026682
129	0xbafed177	-0.0019441087
130	0x3ddf95a0	0.109172106
131	0xbced9fc9	-0.029006856
132	0xbde84ee6	-0.11343174
133	0xbe10b634	-0.14132005
134	0x3e90e44a	0.2829917
135	0xbda9b8c2	-0.08287193
136	0x3dc8a6a5	0.0979741
137	0xbe186044	-0.14880472
138	0x3c1fc319	0.009751105
139	0xbecb26fe	-0.39678186
140	0xbd880059	-0.06640691
141	0xbbc583fe	-0.0060276976
142	0x3e3c8ecc	0.18413848
143	0xbf66f883	-0.9022295
144	0x3d76d1b6	0.06025859
145	0xbcb1dd3b	-0.021711936
146	0x3bd86de5	0.0066048973
147	0xbd500089	-0.05078176
148	0x3d956465	0.07294539
149	0xbe568ffe	-0.20953366
150	0x3d7898e2	0.060692675
151	0x3e38eb8d	0.18058605
152	0xbcd693f4	-0.026193596
153	0xbeae8aec	-0.34090364
154	0xbd43666c	-0.0477051
155	0x3d36635d	0.044528354
156	0xbda06f42	-0.07833721
157	0x3d4c4567	0.049870875
158	0x3c393421	0.011303932
159	0x3e723435	0.23652728
160	0xbe4565f7	-0.19277178
161	0x3d86f608	0.065898955
162	0x3e09b1e2	0.13446763
163	0x3d0e8c30	0.034801662
164	0x3c94b7fe	0.01815414
165	0x3ce471e9	0.027886348
166	0x3dfb59de	0.12273
167	0xbd85fb71	-0.06542099
168	0x3e0bec8b	0.13664453
169	0xbe36fe04	-0.17870337
170	0x3e6fd296	0.23420176
171	0x3e9748bf	0.29547688
172	0x3d0f1362	0.034930594
173	0x3de3e729	0.11128075
174	0x3ddd3855	0.1080176
175	0x3e17dde1	0.14830734
176	0xbe50c35a	-0.2038702
177	0xbe2037a9	-0.15646233
178	0x3dae8b52	0.08522667
179	0x3dfac20f	0.12244045
180	0xbc8854af	-0.016641943
181	0xbc93cd4a	-0.018042225
182	0xbda4a338	-0.08038944
183	0xbd8dc11c	-0.06921598
184	0xbedd9f1d	-0.43285456
185	0x3e35e09a	0.1776146
186	0x3de2cf74	0.11074725
187	0x3e70b906	0.23508081
188	0x3d82913b	0.06375357
189	0x3dee1102	0.11624338
190	0x3d4b7c26	0.049678944
191	0xbbd9bdec	-0.006644955
192	0x3cc9bbcf	0.024625687
193	0xbe017f6a	-0.12646261
194	0xbd404605	-0.046941776
195	0x3db14cb2	0.086572066
196	0xbdb14379	-0.086554475
197	0x3d0fd9c0	0.035119772
198	0xbcbb740a	-0.02288248
199	0xbd7068ad	-0.058693577
200	0x3d3004cc	0.042973325
201	0xbd4517e4	-0.048118487
202	0xbd5e23d6	-0.054233395
203	0x3dc4a680	0.0960207
204	0xbdcf379b	-0.10118028
205	0xbb4720f4	-0.0030384632
206	0x3d402815	0.046913225
207	0x3dc0a468	0.09406358
208	0x3dbd9292	0.09256472
209	0xbc01dc1c	-0.007926013
210	0xbc4d7059	-0.012538993
211	0x3d087e50	0.033323586
212	0xbdcc81f6	-0.099857256
213	0x3cdb4a5d	0.026768858
214	0xbd647d40	-0.05578351
215	0x3baa18bc	0.005190937
216	0x3ddc533a	0.10758062
217	0x3b76815c	0.0037613725
218	0xbcc73f49	-0.024322169
219	0x3db59847	0.08866935
220	0xbe099360	-0.13435125
221	0xbdb0ca00	-0.086322784
222	0x3d7c1007	0.061538722
223	0xbdf10d20	-0.117700815
224	0x3d133798	0.03594169
225	0xbceeb605	-0.029139528
226	0xbce1821d	-0.027527863
227	0x3cf488aa	0.029850323
228	0xbe02460a	-0.1272203
229	0x3bb61fef	0.005558006
230	0x3cb559ac	0.022137485
231	0xbd5c6f4f	-0.05381709
232	0x3cea7bd4	0.028623499
233	0xbd9ee539	-0.077585645
234	0xbdd86851	-0.10566772
235	0xbd716a3d	-0.058939207
236	0xbda606f1	-0.08106793
237	0xbcf57ac5	-0.029965768
238	0xbd9a1dae	-0.07525192
239	0xbde11feb	-0.10992416
240	0xbda061db	-0.078311644
241	0xbdd278ff	-0.102769844
242	0xbde84df5	-0.11342994
243	0xbcf69366	-0.030099582
244	0xbdadc8b9	-0.084855504
245	0xbbc99864	-0.0061521996
246	0x3cf75313	0.03019098
247	0x3dd01508	0.101602614
248	0x3d31b538	0.043385714
249	0xbc00f214	-0.007870216
250	0xbdad38da	-0.08458109
251	0xbd79059f	-0.060796376
252	0xbc2b75a6	-0.010465061
253	0xbdf77886	-0.12083535
254	0x3b210d4a	0.0024574571
255	0x3d82c7dd	0.06385777

bias f4 [32]
0	0xbd5cfc55	-0.05395158
1	0x3e400e5a	0.18755475
2	0x3df81626	0.121135995
3	0xbb2b2224	-0.0026112879
4	0x3e463e1b	0.19359629
5	0x3e87410c	0.26416814
6	0x3e1181e2	0.14209703
7	0xba48765b	-0.0007647031
8	0x3dba81dc	0.091068
9	0x3d12408c	0.035706088
10	0xbd61b559	-0.055104587
11	0x3d97ce7c	0.07412431
12	0xbe650d87	-0.22368442
13	0xbe64c619	-0.22341193
14	0x3df1cb55	0.11806361
15	0x3b50aa7b	0.0031839896
16	0xbd1d706e	-0.0384373
17	0x3c8c2666	0.017108154
18	0x3d97ff8d	0.07421789
19	0xbdcd0703	-0.10011103
20	0xbc839979	-0.016064392
21	0x3df7e0a4	0.12103394
22	0x3d212cdf	0.039349433
23	0x3e0ab62f	0.1354606
24	0xbd967830	-0.07347143
25	0xbd185c6f	-0.037197527
26	0xbe5be4f3	-0.21474056
27	0x3d921484	0.07132819
28	0x3d2527ab	0.040321033
29	0xbe27366a	-0.16329351
30	0xbdddc45c	-0.10828468
31	0xbd3c2188	-0.045930415

weight f4 [1, 32, 5, 5]
0	0x3d01f10e	0.03172403
1	0xbc87c643	-0.01657403
2	0x3cd21c16	0.025648158
3	0x3c8e7c31	0.017393203
4	0x3cd376e6	0.025813531
5	0x3d058339	0.032595847
6	0xbcb995e8	-0.022654489
7	0xbcd37dfd	-0.025816912
8	0x3cbec418	0.023286864
9	0xbd05c57f	-0.03265905
10	0x3c4413b8	0.011967592
11	0x3bff68b6	0.007794465
12	0x3d04f8bc	0.032463774
13	0xbccc231b	-0.024919083
14	0x3d08c603	0.033391964
15	0xbcef9e29	-0.029250221
16	0x3d02b024	0.031906262
17	0x3cae1962	0.021252338
18	0xbc812f70	-0.01576969
19	0xbc8b6a27	-0.01701839
20	0x3cc870b4	0.024467804
21	0xbd0ce293	-0.034395766
22	0xbce354f8	-0.027750477
23	0x3ccf6f95	0.025321761
24	0xbc85f3a1	-0.016351523
25	0xb8344ae7	-4.2985102e-05
26	0x3cb97fbd	0.022643918
27	0xbcb3f5f9	-0.021967875
28	0x3ccd733f	0.025079368
29	0x3cc2a0a1	0.023758234
30	0xbc642eec	-0.013927203
31	0xbca70d60	-0.02039212
32	0xbc9e0886	-0.019291174
33	0xbce379df	-0.027768074
34	0x3cc66387	0.02421738
35	0x3ca20db1	0.01978192
36	0xbc92846b	-0.017885407
37	0x3d03d320	0.032183766
38	0xbc93c381	-0.01803756
39	0xbb9cba9d	-0.004782988
40	0x3c966125	0.018356869
41	0xbcf41857	-0.029796762
42	0xbca294fb	-0.01984643
43	0xbd062522	-0.032750256
44	0xbc7e5445	-0.015523021
45	0x3cb84b6d	0.022496903
46	0xbcb36939	-0.02190076
47	0xbbb86aa2	-0.005627946
48	0xbc09819f	-0.0083927205
49	0xbc80d1b5	-0.015724996
50	0x3cc0bae1	0.02352661
51	0x3ccfc8f8	0.025364384
52	0x3c7044e9	0.014664867
53	0x3c0ec0d7	0.008712969
54	0x3ce2a67d	0.027667278
55	0xbce4f5d4	-0.027949251
56	0xbbf47def	-0.0074613015
57	0x3c7b9135	0.015354444
58	0x3c7b77ce	0.015348388
59	0x3bf4c83c	0.007470159
60	0xbc8dfdfd	-0.017333025
61	0xbc4e9962	-0.0126098115
62	0xbcafeb13	-0.021474397
63	0x3cf0ae03	0.02937985
64	0xbbbaa235	-0.005695606
65	0x3c0443ac	0.008072775
66	0xbcea82ba	-0.028626788
67	0x3cfcd57c	0.030863516
68	0xbc685fb1	-0.014182971
69	0x3c140b4b	0.009035896
70	0x3ce65c26	0.028120112
71	0xbbb49534	-0.0055109505
72	0x3c862301	0.016374113
73	0xbc55a477	-0.0130397
74	0x3cc05888	0.023479715
75	0x3ca8772a	0.020564634
76	0xbcd749da	-0.026280332
77	0xbb04915f	-0.002022825
78	0xbcca5815	-0.024700204
79	0xba88bdbe	-0.0010432524
80	0xbcc410f6	-0.023933869
81	0x3be92a07	0.0071156058
82	0xbd0388fe	-0.032113068
83	0xb9aa8e39	-0.0003253089
84	0xbcf559d4	-0.02995006
85	0x3c85de9b	0.016341498
86	0x3cf8bdf7	0.03036402
87	0x3b29e93b	0.002592637
88	0xbcd85c92	-0.026411328
89	0x3c2320b4	0.0099565275
90	0xbd03d0bc	-0.032181486
91	0x3d01ef17	0.031722154
92	0xbc899c72	-0.016798232
93	0x3cb87768	0.022517875
94	0x3c891c09	0.016737001
95	0xbc32694b	-0.010889362
96	0xbb22d2c1	-0.0024844857
97	0xbc8339d7	-0.016018791
98	0x3d08f561	0.033437137
99	0x3c2dd387	0.010609514
100	0x3d03d8da	0.032189228
101	0x3c92f727	0.017940117
102	0x3c6c8af1	0.014437423
103	0xbcd69de4	-0.026198335
104	0x3d09a15e	0.033601157
105	0x3c797a7b	0.0152269555
106	0x3cebd22c	0.028786741
107	0x3ca830e8	0.020531133
108	0xbceb2a4b	-0.02870669
109	0xbc638c78	-0.013888471
110	0xbca9265e	-0.020648178
111	0xbca58c29	-0.020208435
112	0xbb04aea5	-0.0020245698
113	0xbcda6735	-0.026660541
114	0x3c849705	0.016185293
115	0x3b6a34af	0.0035736968
116	0xbd04834d	-0.03235178
117	0xbc821552	-0.015879307
118	0xbca136db	-0.019679477
119	0xbd091dd2	-0.033475704
120	0xbd074511	-0.03302485
121	0xbc463a43	-0.012098852
122	0xbabda878	-0.0014469763
123	0x3c61970b	0.013768922
124	0x3d08bf94	0.03338583
125	0xbcc15708	-0.02360107
126	0xbd3bc5f3	-0.045843076
127	0xbc3fe826	-0.011713063
128	0xba0eed4b	-0.00054522295
129	0x3bf94d90	0.007608123
130	0xbbf2a5da	-0.007405025
131	0x3da9938a	0.08280094
132	0x3cb4a3a3	0.022050684
133	0xbd09f00a	-0.033676185
134	0x3cd7ef9e	0.026359376
135	0xbd4e1af8	-0.05031869
136	0x3d6fe451	0.05856735
137	0xbd128d43	-0.03577925
138	0xbca286d2	-0.019839678
139	0x3c37b505	0.011212592
140	0xbc7f346e	-0.015576465
141	0xbcd1037e	-0.02551436
142	0x3c026d4f	0.0079606315
143	0x3c4a2b59	0.012339436
144	0x3c6d6488	0.014489301
145	0x3b2b8c3a	0.002617611
146	0x3c6ec8cf	0.014574244
147	0x3c6cf8c1	0.014463604
148	0xbcbb9df0	-0.022902459
149	0xbc989af7	-0.01862858
150	0xbcf2a154	-0.029617943
151	0x3c548906	0.012972122
152	0xbcaeb620	-0.021327078
153	0x3d0c60ab	0.034271877
154	0x39d1f1ad	0.0004004365
155	0xbce823df	-0.028337417
156	0xbcf11465	-0.02942867
157	0x3c8e9277	0.017403824
158	0xbbcdf2f4	-0.006285066
159	0xbc34ab81	-0.011027218
160	0x3cb7934e	0.022409108
161	0xbc927d04	-0.017881878
162	0xbce2da02	-0.027691845
163	0x3c95d6ab	0.018290838
164	0xbc8a2498	-0.016863152
165	0xbcdfb84a	-0.027309556
166	0xbcad19b5	-0.021130422
167	0x3c1e7631	0.009671734
168	0xbc32e118	-0.010917924
169	0xbcf4a2b0	-0.029862732
170	0xbca95a7b	-0.020673027
171	0x3d0ae5fc	0.033910736
172	0x3d09bfcf	0.03363019
173	0x3d0b773d	0.03404926
174	0xbc881ba6	-0.016614746
175	0xbbb2da24	-0.0054581333
176	0xbd0a6641	-0.033788923
177	0xbcd61df1	-0.026137324
178	0xbb06f302	-0.0020591621
179	0xbb636c5f	-0.0034702045
180	0x3c883739	0.016627895
181	0x3cb36de2	0.021902982
182	0xbc434db4	-0.011920381
183	0x3b355614	0.0027669715
184	0x3c741456	0.014897427
185	0x3bef73e4	0.0073075164
186	0x3d0dd9bf	0.034631487
187	0xbcf75dc3	-0.030196076
188	0x3c95ba69	0.018277364
189	0xbd0d268d	-0.034460593
190	0x3cb9411b	0.022614053
191	0xbafbf6e4	-0.0019223359
192	0x3d09c177	0.033631768
193	0x3d0c6317	0.034274187
194	0x3ce2ae54	0.027671017
195	0x3d0cc3f5	0.034366567
196	0xbb964f47	-0.0045870873
197	0x39d046e1	0.0003972566
198	0x3c6c27d7	0.014413795
199	0xbc9b4df6	-0.018958073
200	0x3be16410	0.0068783835
201	0xbd0e3a61	-0.034723643
202	0x3d0f0577	0.03491732
203	0xbc785531	-0.01515703
204	0xbca6ad59	-0.02034633
205	0x3b98861b	0.0046546585
206	0x3b6fa904	0.0036569247
207	0x3c078211	0.008270756
208	0x3c7b5779	0.015340679
209	0x3cf9885f	0.030460535
210	0x3cad3b79	0.021146523
211	0xbd03e8f9	-0.032204602
212	0xbcbb2a30	-0.022847265
213	0x3cb526d6	0.022113245
214	0xbbd8b672	-0.006613546
215	0x3cd1ca13	0.025609052
216	0x3c466407	0.012108809
217	0xbc09a31b	-0.008400704
218	0x3d07449c	0.033024415
219	0xbbc74180	-0.0060808063
220	0x3ce4d766	0.027934741
221	0xbb9274c8	-0.004469488
222	0xbc165674	-0.0091758855
223	0x3cd16ed5	0.025565544
224	0x3ce11b91	0.027478965
225	0x3c29e2c8	0.01036901
226	0x3cf44403	0.029817587
227	0x3d120417	0.03564843
228	0xbc6a5d4d	-0.014304471
229	0xbcd476e7	-0.025935603
230	0xbd0f7dd3	-0.035032105
231	0xbc6381a3	-0.013885888
232	0x3d045452	0.032306977
233	0xbc8d18d3	-0.017223751
234	0xbd127495	-0.035755713
235	0x3cbd62d9	0.023118423
236	0x3cd07e03	0.025450712
237	0xbc2267b5	-0.009912421
238	0xbc66b4a5	-0.014081155
239	0x3ae23240	0.0017257407
240	0xbcd16d02	-0.025564674
241	0xbc941474	-0.018076159
242	0xbbb2503e	-0.0054416945
243	0xbb87b43d	-0.004141359
244	0x3bc7046e	0.006073526
245	0x3c12fddc	0.008971658
246	0xbc96302d	-0.018333519
247	0xb8b71947	-8.730828e-05
248	0x3c74fd41	0.014952959
249	0x3c46c348	0.01213152
250	0xbd01dc38	-0.031704158
251	0x3c86371a	0.016383696
252	0x3c3f23d9	0.011666262
253	0xbcea495f	-0.02859944
254	0xbba12cdd	-0.004918678
255	0x3c82896a	0.015934665
