Saved Models/adam_model_99.pth (torch, 61600 bytes, 22 tensors)

weight f4 [56, 1, 5, 5]
0	0xbc966e90	-0.018363267
1	0x3d317a5c	0.04332958
2	0xbce154b7	-0.027506215
3	0x3bfedde6	0.007777917
4	0x3d1a3281	0.03764582
5	0x3b7f5196	0.003895854
6	0xbd2b4e2d	-0.0418226
7	0xbc91969f	-0.017772017
8	0x3d34c124	0.044129506
9	0xbb729722	-0.0037016352
10	0x3cc945df	0.02456945
11	0xbd2c5dd5	-0.042081673
12	0x3ce06f22	0.027396742
13	0xbd324938	-0.043526858
14	0xbd169cbc	-0.036770567
15	0x3c8db717	0.017299218
16	0x3cdf9e21	0.027297081
17	0x3d6b4960	0.057443023
18	0xbcf24093	-0.029571807
19	0x3e03b358	0.12861383
20	0xbd49547f	-0.049152847
21	0xbcf61c93	-0.030042922
22	0xbd43905d	-0.047745097
23	0x3ceb717b	0.028740635
24	0xbd3ec41a	-0.046573736
25	0x3cd110ff	0.0255208
26	0xbdab4226	-0.08362226
27	0x3cd7b309	0.026330488
28	0xbd114e00	-0.035474777
29	0x3ca2d058	0.019874737
30	0xbc9a727a	-0.018853415
31	0x3d4ed8fb	0.050499897
32	0xbd426d1a	-0.04746733
33	0x3cb14b11	0.02164224
34	0xbbf70797	-0.0075387466
35	0xbcb377b2	-0.021907661
36	0xbd8392de	-0.06424497
37	0x3d93c5ba	0.07215448
38	0xbc592cdc	-0.013255324
39	0xbccff593	-0.025385654
40	0x3d60c9b8	0.054879874
41	0xbc059bf4	-0.008154858
42	0xbbbdb957	-0.0057899165
43	0xbd34330a	-0.043993987
44	0x3c9174d2	0.0177559
45	0x3c6a5219	0.0143018
46	0x3d7519d8	0.0598391
47	0x3d266e32	0.040632434
48	0x3d4dcf23	0.05024637
49	0x3d28af17	0.041182604
50	0x3d7a7df2	0.061155267
51	0xbbcfb5e5	-0.006338822
52	0xbba6bb85	-0.005088272
53	0x3bd6b4ee	0.00655233
54	0x3becc757	0.0072259116
55	0x3d305fad	0.043059994
56	0xbb743875	-0.0037265096
57	0x3d2c7642	0.042104967
58	0x3b90c8b3	0.0044184565
59	0x3bcebced	0.006309143
60	0xb9cb2d98	-0.00038753147
61	0x3c60ac6d	0.0137129845
62	0x3d3c0a87	0.045908477
63	0xbc96fb95	-0.01843051
64	0x3ce5ae4f	0.028037218
65	0xbcd6862d	-0.026187027
66	0x3d6ae620	0.05734837
67	0x3b85b3da	0.004080278
68	0xbd39e21f	-0.04538166
69	0x3c79a53c	0.015237149
70	0x3d18fc80	0.037350178
71	0xbdb62601	-0.088939674
72	0x3c5e7125	0.01357678
73	0x3c676654	0.014123518
74	0x3cc38022	0.02386481
75	0xbd560144	-0.0522473
76	0x3be551d2	0.006998279
77	0xbca445a4	-0.020052738
78	0x3d12e82a	0.03586594
79	0xbcc969ce	-0.024586584
80	0x3ce96a46	0.028493058
81	0x3c6ef27d	0.014584181
82	0x3d9890dc	0.07449505
83	0x3bc2e81e	0.0059480807
84	0xbbe8ee35	-0.0071084746
85	0x3d6b428f	0.057436522
86	0xbbd08bbc	-0.006364314
87	0xbcbe75f9	-0.023249613
88	0xbd20bb39	-0.03924105
89	0xbcaf0050	-0.021362454
90	0xbd4cf55f	-0.05003869
91	0x3c09a353	0.008400756
92	0x3ce28e56	0.027655762
93	0x3d6842ce	0.056704335
94	0x3c545a5e	0.012960998
95	0xbdcf7626	-0.10129957
96	0xbd085603	-0.033285152
97	0x3cb333c7	0.021875275
98	0xbdeb47d5	-0.1148831
99	0xbd3e8be4	-0.04652013
100	0x3d32c56b	0.043645304
101	0xbd0d67fa	-0.034522988
102	0x3b464e12	0.0030258936
103	0x3d4dd40d	0.050251056
104	0xbd62014d	-0.05517702
105	0x3d5634d0	0.05229646
106	0xbccc9e76	-0.024977904
107	0x3dfd6d88	0.12374407
108	0x3e00c2a7	0.12574254
109	0x3c4d6f49	0.0125387395
110	0xbd49e84f	-0.049293812
111	0xbd81dc8d	-0.06340895
112	0x3d7b9181	0.06141806
113	0x3ccfd18e	0.025368478
114	0x3d6ff7c1	0.058585886
115	0x3a6dd9ad	0.0009073269
116	0x3d3dfba1	0.04638255
117	0x3ceec55b	0.02914684
118	0xbb2b564a	-0.0026143962
119	0xbc99a188	-0.018753782
120	0xbd416daf	-0.047223743
121	0x3d18a091	0.037262503
122	0xbc0c5112	-0.008564251
123	0x3c906df2	0.017630551
124	0x3d015b09	0.03158096
125	0x3c832d98	0.016012952
126	0x3aa1accb	0.0012334822
127	0xbcc9dbcb	-0.024640938
128	0x3c12097a	0.008913392
129	0x3d29a066	0.041412733
130	0xbc448348	-0.0119941905
131	0x3d4b8c21	0.049694184
132	0x3b142722	0.0022606333
133	0x3bb21a54	0.0054352675
134	0xbb715c84	-0.0036828825
135	0xbce361d5	-0.02775661
136	0xbb123091	-0.002230678
137	0x3df5ebeb	0.120078884
138	0xbbcaa13c	-0.0061837714
139	0x3d0b376c	0.0339884
140	0x3ce7c418	0.028291747
141	0x3db6ca87	0.08925348
142	0x3ca3791f	0.019955216
143	0xbbd9a155	-0.0066415467
144	0xbcb72f62	-0.022361461
145	0xbb883c33	-0.004157567
146	0x3cd3b710	0.025844127
147	0x3db64e5d	0.08901665
148	0x3b81a455	0.0039563575
149	0x3d225342	0.039630182
150	0x3c2fb54c	0.010724377
151	0x3d24689b	0.040138822
152	0x3d8acac4	0.06776956
153	0xbd449fa3	-0.048003804
154	0xbbbb04bd	-0.005707352
155	0xbbbcc5c0	-0.0057608783
156	0x3c0fbd44	0.008773152
157	0x3b323c98	0.0027196761
158	0xbb61a7e1	-0.003443234
159	0x3ca56da3	0.02019388
160	0x3cd4c2f0	0.02597186
161	0xbd75806d	-0.05993693
162	0x3d4deaa9	0.050272617
163	0x3cc88358	0.024476692
164	0x3cbf9755	0.02338759
165	0xbda49bc2	-0.08037521
166	0xbbe98fb4	-0.0071277265
167	0xbd9a301e	-0.07528709
168	0xbdd64807	-0.10462957
169	0xbc62bd58	-0.013839088
170	0x3db21126	0.08694677
171	0x3c880793	0.016605174
172	0x3c9f0c5b	0.019415071
173	0x3c93ad17	0.018026872
174	0x3c36b979	0.011152619
175	0xbc4438aa	-0.0119764
176	0xbd712689	-0.05887464
177	0x3c178b7b	0.009249563
178	0x3d6c3042	0.05766321
179	0x3c4b49dc	0.012407746
180	0xbc39955e	-0.011327116
181	0x3dc28dc3	0.09499695
182	0xbd392ae2	-0.04520691
183	0xbcc97844	-0.02459348
184	0xbcc02b69	-0.0234582
185	0x3d1fd6e9	0.039023314
186	0xbdc50e2e	-0.09621845
187	0x3e18345a	0.1486372
188	0x3c20cf68	0.0098150745
189	0x3c057b00	0.008147001
190	0x3cf27c73	0.029600358
191	0x36fd2378	7.5441167e-06
192	0x3cd3f196	0.025872033
193	0xbd896e33	-0.06710472
194	0x3d523c5b	0.05132709
195	0xbd14f78a	-0.036368884
196	0xbcbe9250	-0.023263127
197	0x3c8f292f	0.017475693
198	0x3b6b5607	0.003590943
199	0x3afbfce3	0.0019225146
200	0xbd9836d5	-0.074323334
201	0x3c93c80b	0.018039724
202	0xbd092888	-0.03348592
203	0xbd080fae	-0.03321808
204	0xbdb1409d	-0.08654902
205	0x3c43b444	0.011944834
206	0xbde0d81b	-0.10978719
207	0xbb07c2df	-0.0020715517
208	0xbd6d308e	-0.057907633
209	0xbd9fd366	-0.07803993
210	0x3d374a11	0.04474837
211	0xbcda7d9c	-0.026671223
212	0x3d6e4b1b	0.058177095
213	0xbb3cf7b2	-0.0028834161
214	0xbd3b3732	-0.045706935
215	0xbba12097	-0.004917215
216	0xbd1146c6	-0.035467885
217	0x3c84d3c3	0.016214257
218	0x3d0571d8	0.032579273
219	0x3d4ca9e2	0.0499667
220	0xbc26a2e1	-0.010170669
221	0xbd93d151	-0.07217658
222	0x3b4aedb0	0.0030964427
223	0xbd9b36a9	-0.07578785
224	0xbb9491ad	-0.0045339675
225	0x3cfcf379	0.030877816
226	0xbc2f9675	-0.010717024
227	0x3ce62735	0.028094867
228	0xbc14de4a	-0.009086201
229	0xbcfafeb0	-0.030639023
230	0xbd97e917	-0.07417505
231	0xbdc10fce	-0.09426843
232	0x3cc1d746	0.02366222
233	0x3d5640a3	0.052307736
234	0xbceb3423	-0.028711384
235	0x3c7029c7	0.014658398
236	0x3d3bb4ce	0.045826726
237	0xbdb18ef7	-0.086698465
238	0x3c1c480e	0.009538664
239	0x3d2f9395	0.042865355
240	0x3c3d53c5	0.011555617
241	0xbc6fbddc	-0.014632668
242	0x3dc998b1	0.09843577
243	0xbd90ec86	-0.07076363
244	0xbd95425f	-0.0728805
245	0xbc1823ae	-0.00928585
246	0xbc2ad04b	-0.0104256375
247	0xbc4d6f15	-0.012538691
248	0x3c9d8785	0.01922966
249	0x3d3762f1	0.044772092
250	0x3d33e00b	0.043914836
251	0x3d31145c	0.043232307
252	0x3cf934e7	0.030420734
253	0xbd7eb538	-0.062184542
254	0xbd40806c	-0.046997473
255	0x3b400828	0.0029301737

bias f4 [56]
0	0x3bce53f5	0.0062966296
1	0x3bec18af	0.007205091
2	0xbc17e021	-0.009269745
3	0xbbec179f	-0.0072049643
4	0x3c94b455	0.018152395
5	0xbc31c799	-0.01085081
6	0x3b002ae9	0.0019556826
7	0x3ca9b87a	0.020717848
8	0xbc25a998	-0.010111235
9	0x3b2c42d2	0.0026284945
10	0x3d0c293e	0.03421902
11	0xbb864c05	-0.0040984177
12	0x3b18599f	0.0023246778
13	0x3c19a04e	0.0093765985
14	0x3d15bdef	0.036558088
15	0xbbf179d3	-0.007369259
16	0xbbd77daf	-0.006576262
17	0x3c658c19	0.014010453
18	0xbcc29d1d	-0.023756558
19	0x3b520f88	0.0032052714
20	0x3cf97878	0.030452952
21	0x3c3854a4	0.011250649
22	0x3c988086	0.018615972
23	0x3cae3df2	0.021269772
24	0x3bc1ca7b	0.00591403
25	0xbc53dfdf	-0.012931793
26	0xbc61aa9d	-0.0137735875
27	0x38be5a10	9.0766815e-05
28	0xbcd5492d	-0.02603587
29	0x3cb18b6f	0.021672932
30	0xbcb8147b	-0.022470703
31	0x3cab80f3	0.020935511
32	0x3c5e8ee7	0.013583875
33	0x3bd4de5f	0.0064962353
34	0xbc81ebce	-0.01585951
35	0x3b357de2	0.002769344
36	0xbcd78985	-0.026310692
37	0xbb827bb4	-0.0039820317
38	0x3a17cd65	0.0005790799
39	0x3b61bd66	0.0034445166
40	0x3c8c1fcc	0.017105006
41	0xbcd5ee54	-0.02611462
42	0xbae80e1e	-0.0017704403
43	0x3b0993f0	0.0020992719
44	0xbc744a19	-0.014910244
45	0xbc6501c2	-0.01397747
46	0x3b5c059c	0.003357268
47	0x3c4d25ed	0.012521249
48	0x3c036d36	0.008021643
49	0x3c51b537	0.012799553
50	0x3b638013	0.003471379
51	0xbb9aea5b	-0.0047276444
52	0x3c93c772	0.018039439
53	0x3c150bef	0.0090970835
54	0xbc307cda	-0.010771954
55	0x3c6c1ad8	0.014410697

weight f4 [56]
0	0x3ecdc415	0.4018866
1	0x3ec5f1c1	0.38661006
2	0x3ebdbea4	0.3705951
3	0x3e3ff0e6	0.18744239
4	0x3ef863f6	0.48513764
5	0x3f0d3e8e	0.55173576
6	0x3e8b1a4c	0.271685
7	0x3f371ecc	0.7153137
8	0x3e816636	0.25273293
9	0x3eabce84	0.33555996
10	0x3e5c4bf2	0.21513346
11	0x3e8c01f8	0.27345252
12	0x3e914acb	0.28377375
13	0x3f3ed75b	0.74547356
14	0x3ed4ac02	0.41537482
15	0x3e7cf1b8	0.24701583
16	0x3e7fea64	0.24991757
17	0x3eaad845	0.33368126
18	0x3e7c6cd8	0.24650896
19	0x3f0cc367	0.5498566
20	0x3ebe7412	0.3719793
21	0x3f32bdf7	0.69821113
22	0x3f5e6d0c	0.8688514
23	0x3e7907b0	0.24319339
24	0x3f1ebf37	0.6201052
25	0x3f282c8c	0.65692973
26	0x3e844254	0.25831854
27	0x3e60b92d	0.21945639
28	0x3e599178	0.21246898
29	0x3f2251fd	0.63406354
30	0x3eadec39	0.33969286
31	0x3ef1b8b1	0.4721122
32	0x3e743b2b	0.23850696
33	0x3ee16134	0.44019473
34	0x3ea78b6a	0.32723552
35	0x3e756822	0.23965505
36	0x3e603dc4	0.21898562
37	0x3ec0cb90	0.37655306
38	0x3e80516d	0.25062123
39	0x3eabdb6b	0.3356584
40	0x3e412acc	0.18863982
41	0x3e869e1d	0.26292506
42	0x3f046b87	0.51726574
43	0x3f453de4	0.7704756
44	0x3ea8c9a4	0.3296634
45	0x3e86b433	0.26309356
46	0x3e82559b	0.25455937
47	0x3e8796a4	0.26482117
48	0x3e88a4b7	0.26688167
49	0x3e97dcd3	0.29660663
50	0x3f38b4d8	0.72150946
51	0x3ebe66ad	0.3718771
52	0x3ef8ec2b	0.48617682
53	0x3ef2a236	0.47389382
54	0x3e77a19b	0.24182741
55	0x3e604a7f	0.21903418

weight f4 [12, 56, 1, 1]
0	0xbf105b84	-0.5638964
1	0xbf73b1e3	-0.9519331
2	0x3ca87e21	0.020567955
3	0x3dd54a22	0.1041453
4	0xbc8daaab	-0.017293295
5	0xbe578ef6	-0.21050629
6	0x3f92da59	1.1472884
7	0xbecb1097	-0.39661095
8	0xbe88eb21	-0.2674189
9	0xbf053a4b	-0.52042073
10	0xbe11b643	-0.14229684
11	0xbc18b744	-0.009321038
12	0x3d9a70d8	0.075410545
13	0xbd160730	-0.03662795
14	0xbed7125e	-0.420062
15	0xbea4a55e	-0.32157415
16	0xbe245ae2	-0.16050294
17	0xbedb4265	-0.42824093
18	0xbdab8235	-0.083744444
19	0xbe9fd058	-0.3121364
20	0xbed8554b	-0.42252573
21	0x3e06d2ae	0.13166305
22	0xbe872581	-0.263958
23	0xbebd99c6	-0.37031382
24	0xbe86608b	-0.2624553
25	0xbd7c2b48	-0.061564714
26	0x3e87d0db	0.26526532
27	0x3f92bb6b	1.1463445
28	0x3e84893c	0.25885952
29	0x3cd54534	0.026033975
30	0xbea08f30	-0.31359243
31	0xbcd1c27e	-0.025605436
32	0x3e955898	0.29169154
33	0x3ed55190	0.4166379
34	0xbe4a8548	-0.19777405
35	0x3e858b50	0.2608285
36	0x3e935b9d	0.28780833
37	0x3e2d1a49	0.16904558
38	0x3e0c286f	0.13687299
39	0x3e1c2abf	0.15250681
40	0xbe3307a5	-0.17483385
41	0x3e893a57	0.26802322
42	0xbeb2568c	-0.34831655
43	0xbeae53a6	-0.34048194
44	0xbdf20dbf	-0.11819028
45	0x3ea05ac9	0.31319264
46	0xbefafaf9	-0.49019602
47	0x3f242c4c	0.6413009
48	0xbee1a6f8	-0.440727
49	0x3ea7949b	0.32730564
50	0xbdbe3369	-0.092871495
51	0xbf075cb3	-0.5287582
52	0xbf28fe6b	-0.6601321
53	0x3f256c10	0.64618015
54	0x3e0fd86a	0.14047399
55	0xbf083ef2	-0.53221047
56	0xbf11f0b0	-0.57007885
57	0xbc06b56d	-0.008221966
58	0x3e672987	0.22574435
59	0xbe424b49	-0.18974032
60	0x3f01b29f	0.5066318
61	0x3f047a0e	0.5174874
62	0xbedcd23e	-0.43129152
63	0xbd5c802b	-0.053833168
64	0x3e308449	0.17237963
65	0x3ed523e6	0.4162895
66	0x3eba15a5	0.36344638
67	0x3d17cdc5	0.03706147
68	0x3eeab818	0.45843577
69	0xbdd5652e	-0.10419689
70	0x3ea03d81	0.31296924
71	0x3f40a5a0	0.75252724
72	0x3ecab73f	0.3959293
73	0xbe8e962d	-0.2784895
74	0xbe5cf644	-0.21578318
75	0x3f1c3b55	0.61028033
76	0xbf012038	-0.50439787
77	0xbe43719e	-0.1908631
78	0x3e93cc57	0.28866836
79	0xbe9d8c0f	-0.3077092
80	0xbdb12a68	-0.086506665
81	0x3ea3049e	0.3183946
82	0x3e90bf06	0.2827074
83	0xbf927733	-1.1442627
84	0xbf492cce	-0.7858399
85	0xbf1a2e67	-0.60227054
86	0x3c949daa	0.018141586
87	0xbeb27f57	-0.34862778
88	0xbe884071	-0.26611665
89	0x3e6cad7c	0.23113054
90	0x3ee2231a	0.44167405
91	0xbba221aa	-0.0049478607
92	0x3ec746bf	0.38921162
93	0x3f037303	0.5134737
94	0x3ef6e191	0.4821897
95	0xbeb5b8b2	-0.35492474
96	0x3f692536	0.91072404
97	0xbf6b3c25	-0.9188865
98	0xbe5884d4	-0.2114442
99	0xbee03b57	-0.43795273
100	0x3dd828a9	0.1055463
101	0x3f0db468	0.55353403
102	0xbf1ea7d2	-0.61974823
103	0xbe106aaa	-0.14103189
104	0x3ecccdea	0.4000085
105	0x3d5865f9	0.052831624
106	0xbdf5ddca	-0.120051935
107	0xbe8846c4	-0.2661649
108	0xbf1b903a	-0.6076695
109	0xbeac69db	-0.3367451
110	0x3ddb02ff	0.10693931
111	0x3ee517a4	0.447446
112	0x3f01cec3	0.5070612
113	0xbe934a09	-0.28767422
114	0xbe658547	-0.22414123
115	0xbda73997	-0.08165281
116	0x3e81f269	0.25380257
117	0x3daf2dd8	0.08553666
118	0x3e693439	0.22773828
119	0xbf1e365d	-0.618017
120	0x3ec56b72	0.38558537
121	0x3f186711	0.59532267
122	0xbebbb4ac	-0.3666128
123	0xbe5ba742	-0.21450523
124	0x3c96f07e	0.018425222
125	0x3f075550	0.5286455
126	0x3e38c566	0.18044052
127	0x3ee787ca	0.45220786
128	0xbe6072ab	-0.21918742
129	0x3ede4f16	0.43419713
130	0x3d6172b2	0.055041023
131	0x3e8bed69	0.27329567
132	0xbec0e508	-0.37674737
133	0xbf0273c0	-0.5095787
134	0x3e993aab	0.29927573
135	0xbf11a204	-0.5688784
136	0xbe0edbcc	-0.13951033
137	0x3ed14a32	0.4087692
138	0x3cdf7b5d	0.027280504
139	0x3e770f26	0.24126872
140	0x3e03f320	0.12885714
141	0xbb027563	-0.0019906394
142	0xbd897a3b	-0.06712767
143	0xbc31704f	-0.010829999
144	0xbd00c7ee	-0.031440668
145	0xbe9c52c5	-0.30531898
146	0xbf045b33	-0.5170166
147	0xbeab1765	-0.33416286
148	0xbed0d757	-0.4078929
149	0xbdc8f992	-0.09813227
150	0xbf1164a0	-0.56794167
151	0x3e4ff1c9	0.20307077
152	0xbde09bee	-0.10967241
153	0xbefe32ac	-0.49648035
154	0x3eaa39a7	0.3324711
155	0x3f835420	1.0260048
156	0xbf4dc85a	-0.8038384
157	0x3e821116	0.2540366
158	0x3edc36f0	0.43010664
159	0x3e043bcb	0.12913434
160	0x3df78e94	0.120877415
161	0xbe066943	-0.13126092
162	0x3daa5737	0.08317416
163	0x3f18c1d8	0.5967078
164	0x3dac2299	0.084050365
165	0x3d0bb7e9	0.034110937
166	0xbcfec552	-0.031099949
167	0x3e913474	0.2836033
168	0x3e8b4f2d	0.27208844
169	0xbe46d513	-0.19417219
170	0xbf020bec	-0.5079944
171	0x3e443757	0.19161735
172	0xbe80ded7	-0.25170013
173	0xbe3c9cf8	-0.18419254
174	0x3e8b6371	0.27224305
175	0x3ea77713	0.32708034
176	0x3f09f600	0.5389099
177	0x3f1a7af8	0.60343885
178	0x3ea74b6a	0.32674724
179	0x3daca33b	0.08429571
180	0x3e88123d	0.26576415
181	0xbe7ad23c	-0.2449426
182	0x3e29b4b8	0.16572845
183	0x3e5d82c8	0.2163192
184	0xbdc9a12e	-0.09845196
185	0xbddf6913	-0.10908713
186	0x3e373f26	0.17895183
187	0xbf6f2e64	-0.9343016
188	0x3e9a3479	0.30118158
189	0x3ea40365	0.3203384
190	0x3eda8810	0.42681932
191	0xbee2ab4d	-0.44271317
192	0xbc3cd33d	-0.0115249725
193	0x3f406906	0.75160253
194	0x3f12848d	0.57233506
195	0x3e394a4b	0.18094747
196	0x3e986d0d	0.297707
197	0xbf001aa4	-0.5004065
198	0xbef64bbc	-0.48104656
199	0xbe8327cd	-0.25616303
200	0x3e449fa9	0.1920153
201	0x3e1db26e	0.15400097
202	0x3e5f2107	0.21789943
203	0x3ec65790	0.3873868
204	0xbfac6728	-1.3468981
205	0x3adec4d6	0.0016995918
206	0x3cee46e5	0.02908654
207	0x3e4b63a4	0.19862229
208	0xbdd6031d	-0.104498126
209	0xbeaf75c5	-0.3426954
210	0x3f515c4e	0.8178147
211	0x3d3ffa2a	0.046869434
212	0x3f081448	0.53155947
213	0xbf5f3cef	-0.8720235
214	0xbe731909	-0.23740019
215	0xbdecc41c	-0.115608424
216	0x3eb736dc	0.35784042
217	0x3eb7e8bb	0.35919747
218	0x3ef19f70	0.47191954
219	0x3f1e519b	0.6184327
220	0x3cdce943	0.026966697
221	0x3ece688f	0.40314147
222	0xbc5c3215	-0.013439675
223	0xbdb17042	-0.086639896
224	0xbd060677	-0.03272101
225	0xbed1e0fb	-0.4099196
226	0xbe395548	-0.18098938
227	0x3f0b3e08	0.5439153
228	0x3cfde1b1	0.030991407
229	0x3f0a2f6e	0.5397862
230	0xbf04a828	-0.51819086
231	0xbebb373b	-0.36565575
232	0x3e77adb7	0.2418736
233	0x3e8a776b	0.27044234
234	0x3eed5265	0.46351925
235	0xbed815e2	-0.42204195
236	0x3f3c3fd7	0.7353491
237	0x3e826a05	0.2547151
238	0xbc718d1a	-0.014743114
239	0x3dd8940d	0.105751134
240	0xbf0db96b	-0.5536105
241	0xbe9d891d	-0.30768672
242	0x3ec109a7	0.37702677
243	0xbf256fe5	-0.6462386
244	0x3e39cfdb	0.18145697
245	0x3da0c239	0.07849545
246	0x3eab17cf	0.33416602
247	0xbe337458	-0.1752485
248	0x3ce736ac	0.028224312
249	0xbec11b02	-0.37715918
250	0xbf8acd44	-1.0843892
251	0x3b17bca6	0.0023153215
252	0xbc5da9a3	-0.013529214
253	0xbf0c60ad	-0.54835016
254	0x3df0574a	0.11735399
255	0x3e9dd477	0.3082616

bias f4 [12]
0	0xbc7fe287	-0.015617973
1	0xbc2141fd	-0.009842393
2	0xbc97bca5	-0.01852257
3	0xbc1a1aa2	-0.009405764
4	0x3bca7e4b	0.006179606
5	0xba4f7ed5	-0.0007915323
6	0xbb84c882	-0.0040522227
7	0x3b4a56f4	0.0030874582
8	0xbcb0f3f8	-0.021600708
9	0xbb4be226	-0.0031110137
10	0x3cca08a5	0.024662325
11	0xbc3f1bd7	-0.011664352

weight f4 [12]
0	0x3e8a7301	0.27040866
1	0x3e8edd1d	0.2790307
2	0x3f2c096a	0.67201865
3	0x3f3b192f	0.730853
4	0x3e4236dc	0.1896624
5	0x3f3b8100	0.73243713
6	0x3f4378d0	0.7635622
7	0x3e80bae0	0.25142574
8	0x3e80e0f9	0.2517164
9	0x3ebc46cb	0.3677276
10	0x3e974d81	0.29551318
11	0x3f1f89ff	0.6231994

weight f4 [12, 12, 3, 3]
0	0x3d03951f	0.032124635
1	0x3ea498d5	0.32147852
2	0xbdf5b47e	-0.11997317
3	0xbe284ef0	-0.16436362
4	0x3e575a33	0.21030502
5	0xbe909305	-0.28237167
6	0x3e59e790	0.2127974
7	0x3dea450b	0.1143895
8	0x3e8f1c50	0.27951288
9	0xbdb2dc21	-0.087333925
10	0xbd22eae4	-0.03977479
11	0xbe52b957	-0.20578514
12	0x3d4443a0	0.047916055
13	0x3d0ab73a	0.033866145
14	0x3e2f2e4e	0.17107508
15	0xbd86b237	-0.065769605
16	0xbe9af13a	-0.30262166
17	0xbe6366c5	-0.22207172
18	0x3e8ad909	0.2711871
19	0xbe14e4f8	-0.1454047
20	0xbd160e93	-0.036634993
21	0x3dc3264f	0.09528791
22	0xbc789320	-0.015171796
23	0x3dbf2e54	0.09335008
24	0xbdae0ae0	-0.08498168
25	0xbd36b612	-0.04460723
26	0x3e1b0879	0.15139951
27	0xbe4aecdb	-0.19816916
28	0xbc80235d	-0.015641863
29	0xbd6ebee9	-0.058287535
30	0x3e9926c6	0.29912394
31	0xbd50c43e	-0.0509684
32	0x3a2306fa	0.0006218996
33	0xbdf9975c	-0.12187073
34	0x3e824cf2	0.2544933
35	0xbdcf12d6	-0.101110145
36	0x3e2e78c4	0.17038256
37	0x3de4eead	0.11178336
38	0x3cd78c62	0.026312057
39	0x3ce98179	0.02850412
40	0xbdcbf93c	-0.09959647
41	0x3c511566	0.012761449
42	0x3d39a543	0.04532362
43	0xbbcd9b87	-0.006274644
44	0xbe289949	-0.16464724
45	0x3bbd1ef5	0.0057715126
46	0x3e2ad667	0.1668335
47	0x3d5f806d	0.054565836
48	0x3e8816fc	0.26580036
49	0xbc50e69a	-0.012750292
50	0xbe24d968	-0.16098559
51	0xbbee62ea	-0.007274975
52	0x3cd59de6	0.026076268
53	0xbead6e67	-0.33873293
54	0x3b4e4fd5	0.003148069
55	0xbda83def	-0.08214938
56	0xbcd735b2	-0.026270721
57	0xbce804ea	-0.028322656
58	0xbc782b8c	-0.015147101
59	0xbcea5caa	-0.028608639
60	0xbb0e999e	-0.0021759043
61	0xbd9416c4	-0.07230905
62	0xbda87fbe	-0.0822749
63	0xbe6b3d83	-0.22972684
64	0xbd12c415	-0.03583153
65	0x3d6e8e42	0.058241136
66	0x3d04ab6b	0.03239004
67	0xbe1d113e	-0.15338609
68	0xbd31bcc0	-0.043392897
69	0x3da6375f	0.0811603
70	0x3df6dad9	0.12053461
71	0xbd9cd0a6	-0.07656984
72	0x3dee51f6	0.116367266
73	0xbdae1cf2	-0.08501615
74	0x3c637c31	0.01388459
75	0x3de0f2e7	0.1098383
76	0x3e186be2	0.14884904
77	0xbd9964a4	-0.07489899
78	0xbd932f60	-0.071867704
79	0x3d06a5f9	0.032873128
80	0x3ddc8cf9	0.10769076
81	0xbce5fb5c	-0.028073959
82	0xbe57c43c	-0.21070951
83	0x3c5e4259	0.013565623
84	0x3db2a3d8	0.08722657
85	0xbe9ab847	-0.30218717
86	0x3e0f2791	0.13979937
87	0x3da782fe	0.08179282
88	0xbd524123	-0.05133165
89	0x3e89f0bb	0.26941475
90	0xbd46dc03	-0.048549663
91	0xbdd01e5a	-0.10162039
92	0xbdd698ad	-0.10478339
93	0xbe520a83	-0.20511822
94	0x3ef8785e	0.48529333
95	0xbd8638cc	-0.06553802
96	0x3c5bb2eb	0.013409357
97	0xbeabc81e	-0.33551115
98	0xbe0d4e72	-0.13799456
99	0xbde2e79f	-0.110793345
100	0x3d8492fc	0.064733475
101	0xbc2e4f3d	-0.010639009
102	0xbe019d63	-0.12657695
103	0xbddba733	-0.1072525
104	0xbe704b1f	-0.23466156
105	0x3d1555dd	0.03645884
106	0x3d64a5c1	0.055822138
107	0x3c12b061	0.008953185
108	0xbd431b6d	-0.047633577
109	0xbe40d8fd	-0.18832774
110	0xbd1c9c95	-0.038235266
111	0xbc6c1527	-0.01440934
112	0xbdaddb4d	-0.08489094
113	0x3de6ba96	0.11266057
114	0xbd912de0	-0.07088828
115	0xbe00efe2	-0.12591508
116	0xbda4deb7	-0.08050292
117	0x3eca3c82	0.3949929
118	0x3e232cc9	0.15935053
119	0x3e2d7b59	0.16941585
120	0xbe15b9b1	-0.14621617
121	0xbe6aa854	-0.22915775
122	0x3d27ccbd	0.040966738
123	0x3e8550d9	0.26038244
124	0x3d9b1be7	0.07573681
125	0xbe810ec9	-0.25206593
126	0x3d978c30	0.073997855
127	0xbd601d0b	-0.054715198
128	0x3dbd72b8	0.092503965
129	0xbe408bcf	-0.18803333
130	0x3c9a5a39	0.01884185
131	0xbcfa0edd	-0.030524665
132	0x3d630008	0.05541995
133	0x3c396710	0.011316076
134	0x3e0c731e	0.13715789
135	0x3d082092	0.033234186
136	0x3ea09b14	0.31368315
137	0x3d897812	0.06712355
138	0x3e4a6c9d	0.19767995
139	0xbeb43604	-0.3519746
140	0xbdace5fd	-0.08442304
141	0xbe9df9d6	-0.30854672
142	0x3e3021e1	0.17200424
143	0xbe2475fc	-0.16060632
144	0xbcaf0812	-0.021366153
145	0xbd8288b6	-0.06373732
146	0xbe1f1980	-0.15537071
147	0x3ba1c914	0.0049373005
148	0xbc7ac75f	-0.015306323
149	0x3b581509	0.0032971522
150	0x3e194901	0.14969255
151	0xbc19512c	-0.009357732
152	0xbdc91591	-0.098185666
153	0x3e10ad71	0.14128663
154	0xbe509c6d	-0.20372172
155	0x3e457d45	0.19286068
156	0x3e1e0458	0.15431345
157	0x3cf4b988	0.029873624
158	0x3df7d5a1	0.12101293
159	0xbcfeac73	-0.03108809
160	0xbb10fadf	-0.0022122187
161	0x3ddf5e98	0.10906714
162	0xbdfd41fe	-0.12366103
163	0xbe55d8e7	-0.20883523
164	0x3cf866de	0.030322488
165	0xbcffe059	-0.031234907
166	0x3d7c6917	0.06162366
167	0x3c2035bd	0.009778437
168	0xbdbb5896	-0.09147756
169	0x3e3f32f0	0.18671775
170	0xbdc7675d	-0.09736512
171	0x3d9090ec	0.07058892
172	0x3e631e26	0.2217947
173	0xbc6401a3	-0.013916406
174	0x3bfb0ec6	0.0076616732
175	0xbdb6c6d2	-0.08924641
176	0x3d93dc34	0.07219735
177	0x3e426290	0.18982911
178	0xbda392eb	-0.07987007
179	0x3e05d7e7	0.13070641
180	0xbe1601f1	-0.14649178
181	0x3d4cb851	0.049980465
182	0x3d8a048f	0.06739151
183	0x3eae025a	0.3398617
184	0xbe81bd27	-0.25339624
185	0xbdd1d4bf	-0.10245656
186	0xbe158a8f	-0.14603637
187	0x3dde35a7	0.10850077
188	0x3e383332	0.1798828
189	0xbe1dbe7c	-0.15404695
190	0xbc44db64	-0.012015197
191	0xbe930301	-0.2871323
192	0x3caf39e2	0.021389905
193	0x3e140b48	0.14457428
194	0xbe8a2025	-0.2697765
195	0xbd4750ac	-0.04866092
196	0xbc5ccb6c	-0.013476234
197	0xbee1d919	-0.44110945
198	0x3dc2c623	0.09510448
199	0x3e80dc22	0.25167948
200	0x3dc7b854	0.09751955
201	0x3dcbc08a	0.09948833
202	0xbda67e92	-0.0812961
203	0x3bc6c6ef	0.006066195
204	0x3ca4abec	0.02010151
205	0x3e48a58c	0.19594401
206	0xbe061106	-0.13092431
207	0xbe27d7e5	-0.16390951
208	0xbe730426	-0.23732051
209	0x3e5ef2d5	0.2177232
210	0x3dea3ad2	0.11437
211	0xbd0a87ae	-0.0338208
212	0x3d90dcf6	0.07073395
213	0xbd9e2a22	-0.0772288
214	0x3e728cc9	0.23686518
215	0xbe3f605b	-0.186891
216	0x3cffd8a9	0.031231241
217	0x3db99720	0.09062028
218	0xbe4fb7ea	-0.20285001
219	0x3c6ea444	0.014565531
220	0x3a9833c8	0.0011612112
221	0xbd4d32bf	-0.050097223
222	0x3d8fffc7	0.070312075
223	0xbda8fce6	-0.082513615
224	0xbe4d897e	-0.2007198
225	0x3ccbc2d1	0.02487317
226	0x3d842ec5	0.06454233
227	0x3cd932ec	0.02651354
228	0x3e886c54	0.26645148
229	0x3df8fcd6	0.121576
230	0xbe01b01a	-0.12664834
231	0xbdf08ec1	-0.11745978
232	0x3dd9c2b4	0.1063284
233	0x3d4719eb	0.0486087
234	0x3eaba7e3	0.33526525
235	0x3d3ed4ba	0.04658959
236	0x3e6b29c7	0.22965156
237	0xbdec88d1	-0.11549533
238	0xbe5886f5	-0.21145232
239	0x3d26c7a6	0.040717743
240	0x3cc968f1	0.024586173
241	0xbe4380f4	-0.1909216
242	0x3da492e3	0.08035829
243	0x3e6829fd	0.22672267
244	0xbe321721	-0.17391635
245	0x3cf58346	0.029969823
246	0x3e7389b7	0.23783003
247	0x3e24b0e9	0.16083111
248	0x3e116c26	0.14201412
249	0xbdfee538	-0.12446064
250	0xbe21c69c	-0.1579842
251	0x3d6c2eb3	0.057661723
252	0xbe0b9313	-0.13630323
253	0xbebc9d06	-0.3683855
254	0x3c2ae99a	0.0104316715
255	0x3e55dbfc	0.20884699

bias f4 [12]
0	0x3c81450e	0.015779998
1	0x3d0d568e	0.034506373
2	0xbafd9c8a	-0.001934902
3	0x3cba954d	0.02277627
4	0x3aa15856	0.0012309651
5	0x3cca2593	0.02467612
6	0xbbb3f5de	-0.005491956
7	0x3cbd0483	0.02307344
8	0x3c48bd3e	0.01225215
9	0x3c02f836	0.007993748
10	0x3c3f71c4	0.011684839
11	0xbb5494b2	-0.0032437262

weight f4 [12]
0	0x3f02fa75	0.5116342
1	0x3e830a2b	0.25593695
2	0x3f5b8946	0.8575634
3	0x3f48c55a	0.78426135
4	0x3e8a63af	0.27029178
5	0x3f15ae5e	0.5846919
6	0x3f516cad	0.8180645
7	0x3f45a6cf	0.77207655
8	0x3e86d509	0.26334408
9	0x3ed817c1	0.42205623
10	0x3f3621ea	0.711455
11	0x3f4d6c76	0.80243623

weight f4 [12, 12, 3, 3]
0	0x3e2c240f	0.1681063
1	0x3ce423e2	0.027849142
2	0x3cc3c9ab	0.023899874
3	0xbdba93fa	-0.091102555
4	0x3da017f5	0.078170694
5	0x3e241052	0.1602185
6	0xbda58e4f	-0.08083784
7	0xbdc5b38c	-0.096533865
8	0xbcf63c8b	-0.030058166
9	0x3e169f9a	0.1470932
10	0x3de1baa4	0.11021927
11	0x3cb63c70	0.022245616
12	0xbe0dfbac	-0.13865536
13	0x3e90559b	0.28190312
14	0xbdf929dc	-0.12166187
15	0x3de9ba0d	0.114124395
16	0xbdec152d	-0.115274765
17	0x3d046251	0.032320324
18	0xbd4cfb47	-0.050044324
19	0xbdbdf181	-0.09274579
20	0xbe4c3c60	-0.19944906
21	0x3e279e2b	0.1636893
22	0xbe79ee89	-0.244074
23	0xbe46c6ca	-0.1941177
24	0xbdd32047	-0.10308891
25	0xbade4be3	-0.0016959872
26	0xbe98a8d7	-0.29816315
27	0x3e60aa48	0.21939957
28	0xbd8d97fc	-0.06913754
29	0x3e09a4a5	0.13441713
30	0x3dd09151	0.10183967
31	0xbd340757	-0.043952312
32	0xbe5f351f	-0.21797608
33	0xbe82d49a	-0.25552827
34	0x3d44ad5b	0.048016887
35	0xbe1f0fe8	-0.15533412
36	0x3ead14ae	0.3380484
37	0x3d84d945	0.064867534
38	0x3e1404f3	0.14455013
39	0x3e1ac43d	0.15113921
40	0xbe8baec3	-0.2728177
41	0xbe1c25f2	-0.1524885
42	0x3d57c923	0.052682053
43	0x3a1680e1	0.00057412504
44	0x3d1d5a18	0.038416
45	0x3e60f3b3	0.21967964
46	0xbe16e981	-0.14737512
47	0x3d560fb3	0.052261066
48	0x3e0031b7	0.12518965
49	0x3e8357dc	0.2565297
50	0xbdd52538	-0.104074895
51	0xbca1f533	-0.01977024
52	0x3e125212	0.1428912
53	0xbd0ed600	-0.034872055
54	0x3e9a9575	0.30192152
55	0x3d59c5a1	0.05316699
56	0xbda4ef04	-0.08053401
57	0x3e74c09e	0.23901603
58	0xbe185435	-0.14875872
59	0x3d22a2ed	0.03970616
60	0xbca4edd8	-0.020132944
61	0xbd9beef7	-0.07613938
62	0xbd666290	-0.05624634
63	0x3ec3a8ad	0.38214627
64	0x3d98cfc0	0.074615
65	0xbe11aad5	-0.14225323
66	0xbd263877	-0.040581193
67	0x3de2a885	0.11067299
68	0xbe4a4289	-0.19751944
69	0xbd9b92a7	-0.07596331
70	0xbcc6bf0b	-0.024261018
71	0xbd83eb0f	-0.06441318
72	0x3dfb78c3	0.12278893
73	0xbe47686b	-0.19473426
74	0xbd79da91	-0.060999457
75	0x3db1d2e5	0.08682803
76	0xbdc844ed	-0.097787715
77	0xbd9948a6	-0.0748456
78	0xbe1c56d6	-0.152675
79	0x3c6bb5f1	0.01438664
80	0xbdc2eb5a	-0.09517546
81	0xbddbdc50	-0.10735381
82	0xbd375ac0	-0.04476428
83	0xbe414f36	-0.18877873
84	0xbcd44117	-0.025909944
85	0xbd7cbd17	-0.061703768
86	0x3c92ef19	0.017936276
87	0x3e54b4fc	0.20772165
88	0xbd86980c	-0.065719694
89	0x3eb9e15c	0.36304748
90	0x3ce0d045	0.02744306
91	0xbe1ae77d	-0.15127368
92	0x3cac5bcc	0.021039866
93	0xbd0f4012	-0.03497321
94	0xbdd03633	-0.10166588
95	0xbdc134b7	-0.09433883
96	0x3d206871	0.039162103
97	0x3d351e9d	0.04421865
98	0x3cb2c7a5	0.021823714
99	0xbe14ddc7	-0.14537726
100	0xbd793e71	-0.060850564
101	0xbe3380da	-0.17529622
102	0x3dc40f92	0.09573282
103	0x3dc5570f	0.09635746
104	0x3e6add3d	0.22935958
105	0xbe270dbd	-0.16313834
106	0xbdc1e2fd	-0.09467123
107	0xbd98279e	-0.074294314
108	0x3cfa2316	0.030534308
109	0x3de22c99	0.110436626
110	0x3c14e982	0.009088876
111	0xbda74d87	-0.08169084
112	0xbd4d490a	-0.050118484
113	0x3dae652f	0.08515393
114	0x3ce7b31f	0.028283654
115	0x3e38292e	0.17984459
116	0xbd9bdaa6	-0.07610063
117	0x3d525421	0.051349763
118	0x3e73fc89	0.23826803
119	0xbdd8f444	-0.10593465
120	0x3d41f8fe	0.047356598
121	0x3d629c53	0.055324864
122	0x3e54c1b2	0.20777014
123	0x3da08867	0.07838517
124	0x3da85055	0.08218447
125	0xbe0aedfd	-0.13567348
126	0x3dc2f281	0.0951891
127	0x3d350dfc	0.04420279
128	0x3c06f2a1	0.008236558
129	0x3ed0f902	0.40814978
130	0x3e8167cc	0.25274503
131	0xbb31d451	-0.0027134607
132	0xbd803830	-0.06260717
133	0x3dd71f7b	0.10504051
134	0x3e347ee5	0.17626531
135	0x3d358ae6	0.044321917
136	0x3e7afa56	0.24509558
137	0xbe072002	-0.13195804
138	0xbd43ee50	-0.047834694
139	0x3dcec1b8	0.10095543
140	0xbcd07de3	-0.025450652
141	0x3ca46688	0.020068422
142	0xbd996e48	-0.074917376
143	0x3da2afe8	0.07943708
144	0xbe4263e5	-0.18983419
145	0x3d71481d	0.058906663
146	0xbdf897cd	-0.12138329
147	0xbd8a16a8	-0.067426026
148	0x3dfc1372	0.123083964
149	0x3dc73b1e	0.097280726
150	0x3dee086d	0.11622701
151	0xbdfa1826	-0.12211637
152	0x3dc3c649	0.09559304
153	0xbcf707a6	-0.030155014
154	0xbe6d65c5	-0.23183353
155	0xbd481173	-0.048844766
156	0x3de4813b	0.11157461
157	0xbd91b1ce	-0.07113992
158	0xbc9f2fb4	-0.019431926
159	0x3e1acea9	0.15117897
160	0xbe59338f	-0.21211074
161	0x3d4fcc3d	0.050731886
162	0x3e4f82c3	0.20264725
163	0xbe2b78d7	-0.16745315
164	0x3e7eaefb	0.24871437
165	0x3e32e215	0.17469056
166	0xbe17122d	-0.14753027
167	0xbe2716f7	-0.16317354
168	0x3e4b351d	0.1984448
169	0xbd33bc15	-0.04388054
170	0x3d896619	0.06708927
171	0xbba79af1	-0.005114906
172	0x3e080e73	0.13286762
173	0x3e1e7146	0.15472898
174	0x3c837c07	0.016050352
175	0x3d6f7b22	0.058467038
176	0xbeb8fcfe	-0.36130518
177	0xbdd0668b	-0.101758085
178	0x3d41c11a	0.047303297
179	0xbd215465	-0.039387126
180	0x3e005528	0.12532485
181	0x3d885cdd	0.06658337
182	0xbc8b52c3	-0.017007237
183	0x3ca29f46	0.019851338
184	0xbe473634	-0.1945427
185	0x3da6fe20	0.08153939
186	0x3e5beb90	0.21476579
187	0xbda08948	-0.07838684
188	0x3e342333	0.17591552
189	0x3d254079	0.04034469
190	0xbe1a3476	-0.15059075
191	0xbd8837d3	-0.066512726
192	0xbe19fea7	-0.15038548
193	0xbe955f55	-0.29174295
194	0x3dfbf331	0.123022445
195	0x3e42cc53	0.19023256
196	0x3c9c2f22	0.019065443
197	0xbce960f8	-0.028488621
198	0x3d90eeb8	0.07076782
199	0x3de3b4ec	0.111184925
200	0x3cd037c8	0.025417224
201	0xbd8b01b8	-0.06787437
202	0xbd41b73f	-0.047293898
203	0x3d20be37	0.039243903
204	0xbdfa0e1b	-0.12209722
205	0x3cb8ce47	0.022559298
206	0xbe17f249	-0.14838518
207	0xbe9da653	-0.30790958
208	0xbd97fd61	-0.07421375
209	0x3e2cc486	0.16871843
210	0x3d225bb6	0.039638244
211	0xbd021cba	-0.031765677
212	0x3e808bc1	0.25106624
213	0x3d958f3d	0.07302711
214	0x3dfdfb4e	0.12401448
215	0x3e15399c	0.14572757
216	0xbd7c4253	-0.06158669
217	0x3e26b012	0.16278103
218	0x3dab3ded	0.08361421
219	0xbe98a1b3	-0.29810867
220	0x3eacf805	0.33782974
221	0x3d4fc38a	0.05072359
222	0xbdaa2fe1	-0.083099134
223	0x3a895309	0.0010477017
224	0xbb5cff2e	-0.0033721435
225	0x3e620919	0.22073783
226	0x3dfa9f60	0.122374296
227	0x3ca79e3d	0.020461196
228	0xbeb2d034	-0.3492447
229	0x3dae3a66	0.08507232
230	0x3df45d71	0.11931885
231	0x3d4b14b7	0.049580302
232	0x3e1577b7	0.14596449
233	0xbe0615cf	-0.13094257
234	0xbbaa9656	-0.0052059097
235	0xbdd7d023	-0.10537746
236	0x3ccf4b27	0.02530439
237	0xbd4edc3a	-0.050502993
238	0x3e935e95	0.28783098
239	0x3d9cdcda	0.076593116
240	0x3e87ccb0	0.26523352
241	0xbe215ccf	-0.1575806
242	0x3e5537e6	0.20822105
243	0x3d12dd42	0.03585554
244	0x3e19f7b5	0.15035899
245	0x3db58e26	0.08865003
246	0xbdaebf98	-0.08532637
247	0x3b8dbf40	0.0043257773
248	0xbdb46626	-0.08808546
249	0xbe005c07	-0.12535106
250	0x3e40639d	0.18788
251	0xbd95684e	-0.07295285
252	0xbe92acfe	-0.28647608
253	0xbca1e450	-0.019762188
254	0x3e0a97ba	0.13534442
255	0x3da319dd	0.079639174

bias f4 [12]
0	0x3cb9477d	0.022617096
1	0x3c85f7cb	0.016353508
2	0x3c880b63	0.016606992
3	0x3b0296eb	0.001992638
4	0xbb716450	-0.0036833473
5	0x3c41da5b	0.011831845
6	0x3c7c3e39	0.015395694
7	0x3d2698e2	0.040673144
8	0x3c8d2811	0.01723102
9	0x3cc534ee	0.02407309
10	0x3bbcbd7f	0.0057598944
11	0xbb76bd9b	-0.0037649635

weight f4 [12]
0	0x3e8246a9	0.25444534
1	0x3f3bcf5f	0.733633
2	0x3f45f64b	0.7732894
3	0x3e7fddfb	0.24987023
4	0x3f5e4b81	0.8683396
5	0x3f5cb22f	0.86209387
6	0x3f7ac742	0.97960293
7	0x3f4aa7bb	0.79162186
8	0x3edbc8f4	0.42926753
9	0x3f360427	0.71100086
10	0x3f208b6a	0.6271273
11	0x3edc13b4	0.42983782

weight f4 [12, 12, 3, 3]
0	0x3e589ffe	0.21154782
1	0xbb258e74	-0.002526191
2	0xbe0fd271	-0.14045121
3	0x3d19560b	0.037435573
4	0x3d980735	0.0742325
5	0xbca0b43b	-0.01961719
6	0xbcf324f9	-0.029680716
7	0xbe76f1f4	-0.24115735
8	0xbe159eac	-0.1461131
9	0xbbccacc8	-0.006246183
10	0xbd80188c	-0.06254682
11	0xbddd98d2	-0.10820164
12	0x3e455cf7	0.19273745
13	0xbe2efa42	-0.17087653
14	0xbd68677f	-0.056739327
15	0xbd5530c1	-0.05204845
16	0x3e382ab6	0.17985043
17	0x3e38b1dc	0.18036598
18	0xbd34282f	-0.043983635
19	0xbcce0b20	-0.02515179
20	0x3dd85ff9	0.1056518
21	0x3d912b9d	0.07088397
22	0xbeaa98a2	-0.33319575
23	0x3e266e3c	0.16252989
24	0xbdb37cf1	-0.08764065
25	0x3e22166c	0.15828866
26	0x3dab0b37	0.083517484
27	0xbde0cc2d	-0.109764434
28	0xbc548204	-0.012970451
29	0xbd96553f	-0.07340478
30	0xbca64e3b	-0.020300975
31	0x3dbecf1e	0.09316848
32	0x3d12a23a	0.035799243
33	0xbc80401c	-0.01565557
34	0x3ba875ce	0.0051409965
35	0xb9d3f65c	-0.00040428608
36	0x3e7209b8	0.2363652
37	0x3e33f8a2	0.17575315
38	0x3d11d3a5	0.03560223
39	0x3d6cee1a	0.05784426
40	0xbe05cc18	-0.13066137
41	0x3ddcd14f	0.1078211
42	0xbe0ad020	-0.13555956
43	0x3e027206	0.12738809
44	0x3e5c52bf	0.2151594
45	0xbd6a816b	-0.05725233
46	0x3d8b352b	0.0679725
47	0xbbac6fd2	-0.0052623535
48	0xbc66d18c	-0.014088046
49	0x3b54f12f	0.003249239
50	0x3e2d94b0	0.16951251
51	0x3ded77f4	0.11595145
52	0x3df694ec	0.12040123
53	0xbe660074	-0.2246111
54	0x3c22ab96	0.009928605
55	0xbde211b8	-0.11038536
56	0xbc925c28	-0.01786621
57	0xbc0e0b00	-0.008669615
58	0xbdac71b1	-0.084201224
59	0x3e9b050b	0.30277285
60	0xbd9749c4	-0.073871166
61	0xbea07110	-0.3133626
62	0xbd1477d8	-0.036247104
63	0x3e84e558	0.25956225
64	0x3c7354cf	0.014851763
65	0x3d01dcc2	0.03170467
66	0xbe27f701	-0.16402818
67	0x3d076526	0.033055447
68	0xbe664dc8	-0.22490609
69	0x3df90151	0.12158454
70	0x3d89a1d4	0.067203194
71	0xbd90fa7e	-0.070790276
72	0x3c757414	0.014981288
73	0xbd456246	-0.048189424
74	0xbe06b0b0	-0.13153338
75	0xbe3f2529	-0.18666519
76	0x3d3530bb	0.044235926
77	0x3dad00e6	0.08447437
78	0x3e5256e8	0.20540965
79	0x3e6a474d	0.22878762
80	0x3dda9a4e	0.106739625
81	0x3e15492c	0.14578694
82	0xbe2524a4	-0.16127259
83	0x3d61ad2d	0.055096794
84	0xbd80b5e7	-0.06284695
85	0x3d7c69de	0.0616244
86	0xbc880d41	-0.016607882
87	0xbd54029d	-0.051760305
88	0x3d88e6ce	0.066846475
89	0xbe00e16a	-0.12585989
90	0x3df9b065	0.12191848
91	0x3e5d3a80	0.21604347
92	0xba417c9c	-0.0007380934
93	0x3db2e5ae	0.08735214
94	0xbd0e1f33	-0.034697723
95	0x3e5bb9e5	0.21457632
96	0x3e628f8d	0.22125073
97	0x3dbd8237	0.09253352
98	0xbe267a01	-0.16257478
99	0x3b3029c3	0.002688036
100	0xbdd19402	-0.102333084
101	0x3e0268de	0.12735316
102	0xbdd49dcd	-0.103816606
103	0x3ea3fb68	0.32027745
104	0x3ddc7cc7	0.10765987
105	0xbc3a6013	-0.011375445
106	0xbd00bda6	-0.031430863
107	0xbda383d3	-0.07984128
108	0x3e15d771	0.14632966
109	0xbdf0ba93	-0.11754336
110	0x3d1cf55d	0.038319934
111	0x3e50ba24	0.20383507
112	0x3d84f03b	0.06491133
113	0xbe2f5c65	-0.1712509
114	0xbe57c8ae	-0.21072647
115	0x3b9e3b93	0.004828879
116	0x3e070f0f	0.13189338
117	0x3df41d60	0.11919665
118	0x3d10865b	0.03528438
119	0xbba6e676	-0.005093391
120	0x3e7bff51	0.24609114
121	0x3e76e2e4	0.2410999
122	0x3e885847	0.2662985
123	0xbc72da5a	-0.014822567
124	0x3e74291d	0.23843808
125	0xbe059a03	-0.13047032
126	0x3e2de72f	0.16982721
127	0x3e4d063d	0.20021911
128	0x3ce561de	0.028000768
129	0xbda7cb70	-0.081930995
130	0x3e143ff1	0.14477517
131	0xbe680018	-0.22656286
132	0x3e11ddb2	0.14244726
133	0x3dd9022b	0.10596117
134	0xbd950ff1	-0.07278431
135	0x3d343637	0.043997016
136	0xbcab659d	-0.020922476
137	0x3d3ee7c3	0.046607744
138	0x3ad4fb62	0.0016249234
139	0xbe1355af	-0.14388154
140	0x3dc83d67	0.097773366
141	0xbdc41642	-0.09574558
142	0x3dc816a4	0.09769943
143	0x3e9ad112	0.30237633
144	0x3e298b03	0.16556935
145	0xbe3b8b9a	-0.18314973
146	0x3c60ba2f	0.013716265
147	0x3e165a61	0.14682914
148	0xbd7a473d	-0.061103094
149	0xbc9052d1	-0.017617615
150	0x3df1580c	0.11784372
151	0x3e149862	0.14511254
152	0x3e00a527	0.12563
153	0xbd0cfbc1	-0.03441978
154	0xbdae53de	-0.0851209
155	0xbcbb8bd0	-0.022893816
156	0x3be83d98	0.0070874207
157	0xb89f7a59	-7.6045e-05
158	0x3de9a8e8	0.114091694
159	0x3e3d91c6	0.1851264
160	0x3e186903	0.14883809
161	0xbd10f967	-0.0353941
162	0xbe0ec34f	-0.13941692
163	0x3d2708d7	0.040779915
164	0xbe511f76	-0.20422158
165	0xbe066c8c	-0.13127345
166	0x3d29faf2	0.041499086
167	0x3e49ed2d	0.19719382
168	0x3e0c3325	0.13691385
169	0xbd2e4484	-0.04254581
170	0x3e149c56	0.14512762
171	0x3df691d9	0.12039537
172	0xbd742a5f	-0.05961072
173	0xbdaf3c07	-0.08556371
174	0x3d0017fb	0.03127287
175	0x3cb1be24	0.021697111
176	0xbe06fda0	-0.13182688
177	0x3df4ba63	0.11949613
178	0xbdb9bdfa	-0.09069438
179	0xbe19bd9a	-0.15013734
180	0xbe0544c2	-0.1301451
181	0x3e230541	0.15919973
182	0x3cc0fd5f	0.023558317
183	0xbdaa5eac	-0.083188385
184	0x3d33010b	0.043702167
185	0x3eae8a18	0.34089732
186	0xbd7086f6	-0.05872246
187	0xbe2345d2	-0.15944603
188	0xbe1ca696	-0.15297922
189	0xbdb75d93	-0.08953395
190	0xbdc512f3	-0.09622755
191	0xbc90003d	-0.017578239
192	0xbe02e849	-0.12783922
193	0x3dad7d5e	0.084711775
194	0xbe35ffde	-0.17773387
195	0xbc8cde00	-0.017195702
196	0xbd9bdce0	-0.07610488
197	0xbe17bcb8	-0.14818084
198	0xbdd0d2d0	-0.10196459
199	0xbdbe7e9a	-0.09301491
200	0x3ecfedc4	0.40611088
201	0x3e11029a	0.14161149
202	0x3d630a1c	0.055429563
203	0xbdb8bcba	-0.09020372
204	0xbdb0b5f9	-0.086284585
205	0x3d4eca85	0.050486106
206	0x3e9bfa6b	0.3046449
207	0xbe0342b7	-0.12818418
208	0xbdef9151	-0.11697639
209	0x3e66b4a5	0.22529848
210	0x3d8c0727	0.06837302
211	0x3cd8ee9a	0.026480962
212	0x3d56d297	0.052446928
213	0xbcfbbd7f	-0.030730007
214	0xbdd6ccc8	-0.10488278
215	0x3cd39a02	0.025830273
216	0x3dbba7a7	0.091628365
217	0xbe8678cf	-0.26264045
218	0x3e205fc4	0.15661532
219	0x3cb36ea4	0.021903343
220	0x3d0b2b08	0.033976585
221	0xbe6b0b6b	-0.22953574
222	0x3e11ffae	0.1425769
223	0x3e051112	0.12994793
224	0xbe164a79	-0.14676847
225	0xbdd5749b	-0.10422631
226	0xbc68946c	-0.014195543
227	0x3dc4581d	0.09587119
228	0x3e22da25	0.15903528
229	0xbd078a5f	-0.033090945
230	0xbe2530fb	-0.16131966
231	0xbe200dfb	-0.15630333
232	0x3e3ac4b8	0.18239105
233	0x3e805541	0.25065044
234	0xbbb5325d	-0.0055296854
235	0x3dc555cf	0.09635507
236	0x3e3a18c2	0.18173507
237	0xbb513fd6	-0.0031928918
238	0xbe0b64ab	-0.1361262
239	0x3e853c8a	0.2602275
240	0x3db8e483	0.0902796
241	0x3b769701	0.0037626626
242	0x3dda121a	0.10647984
243	0xbddc8b2d	-0.10768733
244	0x3dd03fcb	0.101684175
245	0xbe2857b1	-0.16439702
246	0xbe2ca8e9	-0.16861309
247	0x3dbc2723	0.09187152
248	0x3d497e4c	0.04919271
249	0x3e2aa644	0.16664988
250	0x3d880f0c	0.06643495
251	0x3e2feb3b	0.17179577
252	0xbe589d17	-0.21153675
253	0x3ccbc715	0.024875203
254	0x3e17ea5a	0.14835492
255	0x3c55a095	0.013038774

bias f4 [12]
0	0x3d0757a4	0.033042565
1	0xbaf1e096	-0.0018453773
2	0x3ca35648	0.019938603
3	0x3d16762d	0.036733795
4	0xbc44ea82	-0.012018802
5	0x3d2a23e1	0.041538123
6	0x3beb33fd	0.0071778283
7	0x3b744e43	0.0037278093
8	0x3cd50b3e	0.026006337
9	0x3c92ed84	0.017935522
10	0xbc872330	-0.01649627
11	0xbb93e823	-0.004513757

weight f4 [12]
0	0x3f4e8658	0.8067374
1	0x3efc31d7	0.49256775
2	0x3eac5ab2	0.33662945
3	0x3f796e26	0.974337
4	0x3f0bd544	0.5462229
5	0x3f8921b0	1.0713406
6	0x3e97ca58	0.29646564
7	0x3ecd7ed2	0.4013582
8	0x3f66a9e6	0.90102994
9	0x3f39e5c2	0.7261621
10	0x3e78d98b	0.24301736
11	0x3e87cad3	0.2652193

weight f4 [12, 12, 3, 3]
0	0xbe3be5c7	-0.18349372
1	0x3cd18b74	0.025579192
2	0x3d83eaf4	0.06441298
3	0xbc8f88da	-0.01752131
4	0x3e5e67b9	0.21719255
5	0xbe94231b	-0.28933033
6	0x3aaa4c42	0.0012992697
7	0xbccff2d1	-0.025384339
8	0x3d101f3b	0.035186034
9	0x3d58a57a	0.052892186
10	0x3e4a0071	0.19726731
11	0x3b833ac5	0.0040048086
12	0x3ccb9042	0.02484906
13	0xbe0cb4eb	-0.1374089
14	0xbd69cbb7	-0.057079043
15	0xbdea074b	-0.11427172
16	0xbdf86fb4	-0.12130681
17	0x3d6bb508	0.05754569
18	0xbe50ec1a	-0.20402566
19	0x3e3cc06b	0.18432777
20	0xbe6aa56f	-0.2291467
21	0x3e071323	0.13190894
22	0x3d4c0d6d	0.04981749
23	0xbe85b764	-0.26116478
24	0xbdf8521a	-0.12125035
25	0xbd268930	-0.040658176
26	0xbe2f2151	-0.17102553
27	0x3dd862eb	0.10565742
28	0xbdd1750c	-0.10227403
29	0x3ddb50b1	0.1070875
30	0x3d15d6ea	0.03658191
31	0xbe155bb1	-0.14585759
32	0x3e5a18ce	0.21298525
33	0xbdd4d938	-0.10392994
34	0xbc23d759	-0.010000073
35	0x3d97cba2	0.07411887
36	0xbd38a74a	-0.045081414
37	0xbc710e74	-0.014712919
38	0x3d0a672e	0.033789806
39	0x3e602416	0.21888766
40	0xbc564b46	-0.01307947
41	0xb99b6c16	-0.00029644434
42	0x3e94f5b1	0.29093698
43	0xbe2ec255	-0.1706632
44	0xbe8ec593	-0.27885112
45	0xbea6a7b7	-0.3254983
46	0xbd386d4a	-0.0450261
47	0xbbc2a63d	-0.0059402273
48	0xbd989943	-0.07451107
49	0x3e694c50	0.22783017
50	0xbdf4253e	-0.11921166
51	0x3dc76e3d	0.09737823
52	0xbda2fe2f	-0.07958638
53	0xbdbde5ba	-0.092723325
54	0xbd70d4d3	-0.058796715
55	0x3dac04f0	0.08399379
56	0x3cfc09a0	0.030766308
57	0x3d981475	0.07425777
58	0xbc30aef2	-0.010783898
59	0x3e89a272	0.26881748
60	0x3e103794	0.14083701
61	0x3ca26e2d	0.019827927
62	0xbc75e6c4	-0.015008632
63	0xbe131762	-0.14364389
64	0x3e04a6db	0.12954275
65	0x3cafc209	0.021454828
66	0xbcdadad3	-0.026715672
67	0xbe28acf7	-0.16472231
68	0x3df422b2	0.1192068
69	0xbde78a12	-0.11305632
70	0xbdbaaaeb	-0.09114631
71	0xbdf72c23	-0.12068965
72	0xbe08cc3e	-0.13359162
73	0xbcefa2de	-0.029252466
74	0xbdd5d9b9	-0.10441918
75	0x3e0066d3	0.12539224
76	0xbc4d73ef	-0.012539848
77	0xbe1be2c9	-0.1522323
78	0xbe11c6c6	-0.14235982
79	0xbd043572	-0.032277532
80	0xbec565fc	-0.3855437
81	0x3d168037	0.03674337
82	0x3c954f1d	0.0182262
83	0x3d17b794	0.037040308
84	0xbe33b1e0	-0.17548323
85	0x3bda4591	0.006661125
86	0xbe98dbd8	-0.29855227
87	0xbc48124f	-0.012211396
88	0xbd886eb1	-0.06661738
89	0xbd157a4c	-0.036493585
90	0x3e60094c	0.21878546
91	0x3ccea901	0.025227072
92	0x3bd2b78c	0.006430572
93	0x3dc33d8b	0.09533223
94	0xbc2f0902	-0.0106833
95	0xbda74879	-0.0816812
96	0x3e50fbb7	0.20408522
97	0x3deaeddf	0.114711516
98	0x3d23a4d2	0.039952107
99	0xbc6b0051	-0.014343337
100	0x3de161f8	0.11005014
101	0xb93d9bf1	-0.00018082537
102	0x3e0047d7	0.12527405
103	0x3e018639	0.12648858
104	0xbd2999db	-0.041406494
105	0xbdb12a85	-0.08650688
106	0xbe1db379	-0.15400495
107	0x3db5e28f	0.08881103
108	0x3e9408f6	0.28913087
109	0xbe2fb601	-0.17159273
110	0xbca42c81	-0.020040752
111	0x3e170afd	0.14750285
112	0xbe5c7d0d	-0.21532078
113	0x3cf5fb4b	0.030027052
114	0x3e83da7e	0.25752634
115	0xbe0b9388	-0.13630497
116	0xbe4358cf	-0.19076847
117	0x3da2116c	0.07913479
118	0x3da277ff	0.07933044
119	0xbe8e6145	-0.27808586
120	0xbc73ddc2	-0.014884414
121	0x3dd06bf3	0.1017684
122	0x3c99e40f	0.018785505
123	0xbcdfd8f7	-0.027325137
124	0x3c0795e2	0.008275481
125	0xbc557a72	-0.0130296815
126	0x3c39465e	0.011308281
127	0xbdeebcbb	-0.11657091
128	0xbe1b4a79	-0.15165128
129	0x3e112e6e	0.14177868
130	0x3de2a16e	0.110659465
131	0x3e2fd033	0.17169265
132	0x3e6a84c3	0.22902207
133	0x3c2c50c6	0.010517305
134	0x3c5f9488	0.013646252
135	0x3e437948	0.19089234
136	0x3d9e7f70	0.077391505
137	0x3e4881df	0.19580792
138	0xbb838647	-0.00401381
139	0xbd36ca65	-0.044626612
140	0xbb857eaa	-0.0040739374
141	0x3e216e90	0.15764832
142	0xbd8fbffb	-0.07019039
143	0x3daaed33	0.083460234
144	0xbe1325d7	-0.14369904
145	0x3e558d3e	0.20854661
146	0xbc7deaa1	-0.015497834
147	0x3e63a84c	0.22232169
148	0xbdabf072	-0.08395471
149	0xbd0cf521	-0.03441346
150	0xbe1e7c27	-0.15477048
151	0x3d96feee	0.07372843
152	0x3e84743b	0.25869927
153	0xbea9e79d	-0.3318452
154	0xbe96b8c5	-0.29437843
155	0x3d236c3e	0.03989815
156	0x3db9b441	0.09067584
157	0x3e58f55c	0.21187347
158	0x3e269cad	0.16270705
159	0xbe5522d1	-0.20814063
160	0x3e129280	0.14313698
161	0x3d6f895b	0.0584806
162	0xbcfeb26b	-0.031090936
163	0x3c98c24d	0.018647337
164	0x3e4c437b	0.19947617
165	0x3dea7310	0.11447728
166	0x3e054ad2	0.13016823
167	0x3dbbd1bd	0.09170864
168	0x3b353fa8	0.002765635
169	0xbd693eb5	-0.056944568
170	0xbdb8e5fd	-0.09028242
171	0xbe3ea979	-0.18619336
172	0x3e4fad67	0.20280991
173	0x3c1a16f4	0.0094048865
174	0x3cedbeec	0.029021703
175	0xbe376f95	-0.17913659
176	0xbe34b842	-0.17648414
177	0x3dfe8d04	0.1242924
178	0x3e6b94dd	0.23006006
179	0x3dbc9bad	0.0920938
180	0x3d0eb196	0.034837328
181	0xbddcf0b3	-0.10788097
182	0xbea7531d	-0.32680598
183	0xbe40ed3f	-0.18840502
184	0x3dbdb597	0.09263151
185	0xbd8fbc77	-0.07018369
186	0x3e7d5d19	0.24742545
187	0x3e19af70	0.1500833
188	0x3da9d795	0.08293072
189	0xbe9cb7e5	-0.3060905
190	0x3e2ed1b8	0.17072189
191	0xbe4f304c	-0.20233268
192	0xbe3b83b9	-0.18311967
193	0xbd7a1b4c	-0.06106119
194	0xbe9b1f3a	-0.3029726
195	0x3d4e6fc1	0.050399546
196	0xbc9c5dcd	-0.019087696
197	0xbe08461c	-0.13307995
198	0x3e276609	0.16347517
199	0x3d5bb1ea	0.05363647
200	0xbdd4865a	-0.10377188
201	0x3e006da5	0.12541826
202	0x3e07f84d	0.13278313
203	0x3d944b99	0.072409816
204	0xbc9e2b61	-0.019307794
205	0xbe199c22	-0.15000966
206	0xbe08bde3	-0.13353686
207	0x3d03a5b9	0.032140467
208	0x3e193c87	0.14964496
209	0xbdb32606	-0.08747487
210	0x3ddd9f08	0.108213484
211	0x3e030295	0.12793954
212	0xbd855a31	-0.06511343
213	0xbe277417	-0.16352879
214	0x3e86b557	0.26310226
215	0x3d021e2f	0.031767067
216	0x3e42571b	0.1897854
217	0xbde37285	-0.11105827
218	0xbdcf4d54	-0.10122171
219	0xbde5fe6d	-0.112301685
220	0x3c50b712	0.01273896
221	0x3cc681a0	0.024231732
222	0x3d8888f9	0.066667505
223	0xbdb9c4af	-0.090707175
224	0xbe0bba9f	-0.13645409
225	0xbe12f1c4	-0.14350039
226	0xbdccee0f	-0.100063436
227	0x3d9d6bb0	0.076865554
228	0x3e0c245a	0.13685742
229	0xbd39548a	-0.04524664
230	0x3d573b5a	0.052546836
231	0x3d069e72	0.03286595
232	0x3c628344	0.0138252415
233	0xbe53138e	-0.20612928
234	0x3e32b51a	0.17451897
235	0x3da42ac8	0.080159724
236	0x3e3c3dee	0.18383
237	0xbd9330ea	-0.07187064
238	0xbed54f90	-0.41662264
239	0x3d6693b3	0.0562932
240	0x3e77e6e1	0.24209167
241	0xbda05ac3	-0.078298114
242	0xbdee06ee	-0.116224155
243	0xbd1dfea3	-0.03857292
244	0x3bf8353a	0.0075747045
245	0xbe18a9c1	-0.14908506
246	0x3d7cfba9	0.06176344
247	0xbd88e83c	-0.0668492
248	0xbeaefa85	-0.34175506
249	0x3c2844c8	0.010270305
250	0x3d709794	0.058738306
251	0x3d353f4a	0.04424981
252	0xbe688df1	-0.22710396
253	0x3dd8a3b1	0.10578097
254	0xbcb0ea3d	-0.021596069
255	0x3a87e907	0.001036913

bias f4 [12]
0	0xbd1a0889	-0.037605796
1	0x3ad270bb	0.0016055325
2	0xbd1b6c24	-0.037944928
3	0x3d475657	0.048666324
4	0xbc991af0	-0.018689603
5	0x3cf76969	0.03020163
6	0x3c71c4a5	0.014756356
7	0xbc1bbfe5	-0.0095062
8	0xbd03b537	-0.03215524
9	0x3c2fb6f8	0.0107247755
10	0x3ac72eea	0.0015196477
11	0x3c8b5a9a	0.017010976

weight f4 [12]
0	0x3e735563	0.23763041
1	0x3f2b5bd0	0.6693697
2	0x3e7bc041	0.24585058
3	0x3eb7f2e6	0.35927504
4	0x3f85b20c	1.044496
5	0x3e8f413e	0.27979463
6	0x3f8017c0	1.0007248
7	0x3ea6317f	0.32459638
8	0x3e86ba1a	0.2631386
9	0x3e6a027a	0.22852507
10	0x3f8e6a8f	1.1126269
11	0x3f753139	0.9577823
