Saved Models/adam_model_109.pth (torch, 61600 bytes, 22 tensors)

weight f4 [56, 1, 5, 5]
0.08914787 -0.08344044 0.04179206 -0.02401858 0.038737535 -0.008336363 -0.04690843 0.062104113
-0.039441723 0.035235167 -0.02920734 0.039626725 0.018729202 0.0051860646 0.03275133 0.013593803
0.011683146 -0.0237792 -0.02198275 0.027961742 -0.005898782 0.01811524 -0.0116383275 0.05280704
0.024857491 0.01212171 -0.0057743196 0.065120555 -0.021416133 -0.029799359 0.043104768 -0.019376153
0.03606519 -0.018579789 0.020047776 0.014401389 -0.038864158 -0.053957645 0.013826682 -0.018573692
0.02332508 0.00539828 0.08155681 -0.014089871 0.040192936 0.03600516 0.03243188 -0.017400796
0.027244998 0.024764834 0.05477603 -0.008408978 -0.06304319 0.0046427734 -0.024739385 -0.046786107
-0.016713051 -0.011703865 0.043133542 0.03056176 -0.08825283 -0.016492398 -0.026749374 -0.044672888
0.031131553 -0.02265301 -0.08546176 -0.05001028 0.013425516 0.012611822 -0.013115328 -0.026164439
0.016789047 -0.024967328 -0.042485233 0.021063158 -0.0024905899 -0.032193713 -0.013689065 -0.007353385
-0.06969904 0.099846944 0.046948228 -0.012017719 -0.061289012 0.037771653 0.051310133 0.013078067
0.012545125 0.04659401 0.0013331084 -0.056167826 0.00954907 -0.009841459 0.0026482993 0.046385895
0.04396797 0.072681166 0.056738995 0.027490918 0.06254485 -0.025058594 -0.07483955 0.10657009
-0.04816201 -0.05457883 0.06242763 0.07988056 0.043975238 -0.0009795191 0.093365 -0.035146646
0.03939698 0.051006075 0.034357693 -0.03146332 0.050472762 0.02409637 -0.033861738 -0.0018129651
0.03409331 0.024640804 -0.07690341 -0.0011640888 0.07689789 0.015077865 0.013969119 0.00059599685
0.035301626 0.02647696 -0.019594489 0.03169531 -0.041192632 -0.038402125 0.07008612 -0.046797745
0.03441381 0.044949092 0.048457347 -0.027061542 0.06299907 -0.083271205 0.039906777 0.027712356
-0.013931249 0.032965567 0.00084989675 -0.004416284 0.04349582 0.0014152201 0.0016198041 0.10755483
-0.03906271 0.0075428225 0.023922494 -0.065316 -0.041357737 -0.01570849 0.010898728 -0.019955527
-0.022603195 0.11651758 -0.04278386 0.025999775 0.016567465 -0.017214647 0.034988474 0.053298246
-0.039077394 -0.018318992 0.04995924 -0.01423006 -0.0065467046 -0.049955677 0.061305977 -0.027499607
0.0005977166 -0.0071412907 0.019260911 -0.0046811216 0.05379558 -0.04181197 -0.0581988 0.011217322
-0.026888194 0.07027662 -0.035830688 0.023507774 -0.016648687 -0.011781652 -0.032426134 0.07010179
-0.009758754 -0.022733038 0.0010235567 -0.0389643 -0.008610171 -0.051628962 0.0026580514 0.01947403
0.0420787 -0.021284454 -0.03708866 0.006741775 0.016760003 -0.012437139 -0.005071819 -0.026272483
-0.029055223 0.028729735 -0.013078771 0.031826723 -0.045428433 -0.027972512 -0.028653394 -0.037025534
-0.045117386 -0.045057386 0.03153044 0.019900925 -0.063352324 -0.023262851 0.033757456 -0.012467529
0.029420393 0.060918886 0.03913508 -0.03658279 -0.03656086 0.044072278 -0.008804936 0.06491995
-0.08095746 -0.002290593 -0.057903703 -0.0014094567 0.0018488979 -0.06786222 -0.009170551 0.0007544027
0.016286653 -0.04404931 -0.037894435 -0.0090971105 -0.02642706 -0.006723888 0.015010578 -0.047002148
0.030884327 -0.057783384 0.00097573904 -0.04352748 0.030946614 -0.013418353 0.025808606 -0.002740169
00000000: 2993 b63d d2e2 aabd 272e 2b3d 9dc2 c4bc
00000010: 40ab 1e3d 3e95 08bc 0e23 40bd e260 7e3d
00000020: a58d 21bd c052 103d 3b44 efbc a24f 223d
00000030: fc6d 993c ddef a93b 4226 063d 8bb8 5e3c
00000040: aa6a 3f3c 99cc c2bc 2b15 b4bc 0610 e53c
00000050: 924a c1bb 6966 943c afae 3ebc 324c 583d
00000060: f0a1 cb3c 239a 463c 8136 bdbb ed5d 853d
00000070: e370 afbc c91d f4bc a08e 303d bdba 9ebc
00000080: 18b9 133d a434 98bc 3c3b a43c cef3 6b3c
00000090: 0630 1fbd b102 5dbd 4f89 623c db27 98bc
000000a0: 3d14 bf3c 0ee4 b03b 4207 a73d 34d9 66bc
000000b0: 59a1 243d 267a 133d 4ad7 043d 1d8c 8ebc
000000c0: e730 df3c 9fdf ca3c d55c 603d cfc5 09bc
000000d0: ca1c 81bd 6822 983b 40aa cabc caa2 3fbd
000000e0: cfe9 88bc 91c1 3fbc ccac 303d a85c fa3c
000000f0: e6bd b4bd 111b 87bc 8121 dbbc ebfa 36bd
00000100: 9907 ff3c ce92 b9bc 9306 afbd 94d7 4cbd
00000110: b2f6 5b3c d1a1 4e3c ace1 56bc ce56 d6bc
00000120: 2f89 893c 4888 ccbc ff04 2ebd a58c ac3c
00000130: 2a39 23bb 8edd 03bd 1a48 60bc aaf4 f0bb
00000140: 5fbe 8ebd 8e7c cc3d c94c 403d f8e5 44bc
00000150: 300a 7bbd 73b6 1a3d 932a 523d 6445 563c
00000160: 118a 4d3c 5cd9 3e3d b2bb ae3a 3c10 66bd
00000170: b473 1c3c 123e 21bc 178f 2d3b 23ff 3d3d
00000180: c217 343d ddd9 943d 2667 683d a234 e13c
00000190: 8417 803d ae47 cdbc 7a45 99bd 6b41 da3d
000001a0: 8745 45bd 0d8e 5fbd 1db4 7f3d 6b98 a33d
000001b0: 611f 343d 3563 80ba 2636 bf3d eef5 0fbd
000001c0: ba5e 213d bfeb 503d a7ba 0c3d afdf 00bd
000001d0: 87bc 4e3d c065 c53c 9bb2 0abd 04a1 edba
000001e0: 6da5 0b3d 83db c93c 897f 9dbd 5794 98ba
000001f0: a47c 9d3d 2609 773c bbde 643c ac3c 1c3a
00000200: 7098 103d 36e6 d83c 9f84 a0bc f1d2 013d
00000210: 9bb9 28bd 8c4b 1dbd 5089 8f3d feae 3fbd
00000220: 7ff5 0c3d 8a1c 383d 367b 463d 2bb0 ddbc
00000230: a805 813d 188a aabd 4a75 233d 0605 e33c
00000240: e53f 64bc e706 073d 9bcb 5e3a 7ab6 90bb
00000250: ac28 323d e87e b93a 9b4f d43a b545 dc3d
00000260: 3800 20bd c829 f73b 1bf9 c33c 65c4 85bd
00000270: bb66 29bd 17af 80bc 9490 323c c679 a3bc
00000280: 562a b9bc c5a0 ee3d 213e 2fbd 7bfd d43c
00000290: 7eb8 873c bb05 8dbc 1350 0f3d 434f 5a3d
000002a0: 9e0f 20bd b611 96bc 0fa2 4c3d 3325 69bc
000002b0: bd85 d6bb 539e 4cbd fa1b 7b3d db46 e1bc
000002c0: 15b0 1c3a 7d01 eabb 0fc9 9d3c 1864 99bb
000002d0: c158 5c3d 0743 2bbd dd61 6ebd dcc8 373c
000002e0: a144 dcbc 30ed 8f3d 33c3 12bd 6093 c03c
000002f0: d462 88bc d507 41bc 44d1 04bd 8791 8f3d
00000300: 2ee3 1fbc a33a babc dd28 863a 0899 1fbd
00000310: ad11 0dbc e478 53bd b432 2e3b 0088 9f3c
00000320: b75a 2c3d bc5c aebc 47ea 17bd 1cea dc3b
00000330: 464c 893c 24c5 4bbc 8031 a6bb 6439 d7bc
00000340: 3805 eebc 9f5a eb3c 5748 56bc bd5c 023d
00000350: 2a13 3abd 9c26 e5bc 86ba eabc 16a8 17bd
00000360: 02cd 38bd 188e 38bd 1026 013d 4407 a33c
00000370: ddbe 81bd bc91 bebc 4245 0a3d 9b44 4cbc
00000380: 0903 f13c 1586 793d 1b4c 203d d6d7 15bd
00000390: d7c0 15bd 2285 343d 9442 10bc c0f4 843d
000003a0: 06cd a5bd c61d 16bb 6f2c 6dbd 85bd b8ba
000003b0: b856 f23a 59fb 8abd 1440 16bc 1cc3 453a
000003c0: 966b 853c 0d6d 34bd 3237 1bbd 0c0c 15bc
000003d0: 907d d8bc 1054 dcbb edee 753c 5385 40bd
000003e0: 2101 fd3c 45ae 6cbd bdc8 7f3a df49 32bd
000003f0: c183 fd3c a7d8 5bbc 926c d33c 6894 33bb

bias f4 [56]
0.0115938485 0.014816795 -0.00044156503 -0.0056496523 0.02540064 0.0034686446 0.015649267 -0.013491887
-0.0002889137 -0.0011510168 -0.0078716045 -0.00084643863 0.022909855 -0.0066470467 0.009324602 -0.009392937
0.026270911 0.0085133 0.005957806 0.0013866879 0.016004343 0.0053483546 -0.0027322 0.002743512
-0.0025642556 0.0072608446 0.0010949399 0.00020722122 -0.006389849 -0.0008583878 0.0019769636 0.023110352
0.006358484 0.0032789758 0.011281887 -0.0045162346 -0.002372768 0.00929089 0.011972138 -0.0024897128
-0.0057664453 -0.006518504 0.006684787 0.00829428 0.00021175125 0.026460217 -0.013393181 0.011917537
0.007077824 0.001715938 -0.0031306134 0.0020015151 0.012604257 0.029785018 -0.00018107428 0.002063036
00000000: 20f4 3d3c 24c2 723c db81 e7b9 b820 b9bb
00000010: 0115 d03c 3352 633b e432 803c 130d 5dbc
00000020: 5779 97b9 b7dd 96ba e7f7 00bc 89e3 5dba
00000030: 73ad bb3c 78cf d9bb 37c6 183c d5e4 19bc
00000040: 1836 d73c 5e7b 0b3c b339 c33b 86c1 b53a
00000050: 8a1b 833c 4041 af3b b60e 33bb 7ecc 333b
00000060: 120d 28bb 61ec ed3b 1684 8f3a 8649 5939
00000070: f061 d1bb 6e05 61ba f28f 013b ec51 bd3c
00000080: d45a d03b 16e4 563b aad7 383c ecfc 93bb
00000090: 7180 1bbb d138 183c c926 443c 732a 23bb
000000a0: 73f4 bcbb 2d99 d5bb 0f0c db3b bbe4 073c
000000b0: 8b09 5e39 19c3 d83c 136f 5bbc c641 433c
000000c0: 17ed e73b 53e9 e03a fa2a 4dbb da2b 033b
000000d0: 1682 4e3c b6ff f33c c2de 3db9 0034 073b

weight f4 [56]
0.8549996 0.34840178 0.25664645 0.34661627 0.33761173 0.4729668 0.46182185 0.22746818
0.21739402 0.28191403 0.34313652 0.24886444 0.70648116 0.34340435 0.4867729 0.16833784
0.73014075 0.25911736 0.28399587 0.23550047 0.5196462 0.28841314 0.4055017 -0.1581444
0.6404067 0.36333668 1.0204028 0.57493526 0.25784487 0.39046013 0.39780158 0.41346696
0.22404647 0.27056706 0.6682673 0.28191197 0.62489516 0.24548437 0.17474186 0.33758128
0.5517936 -0.16072544 0.61413914 0.61501247 0.24088122 0.6413668 0.21451573 0.3546159
0.49187735 0.2784231 0.21350762 0.362244 0.68028456 0.6807556 0.4517704 0.42631587
00000000: 41e1 5a3f b861 b23e 2a67 833e b077 b13e
00000010: 72db ac3e b428 f23e ea73 ec3e 6bed 683e
00000020: 8a9c 5e3e 0957 903e 97af af3e 52d6 7e3e
00000030: f3db 343f b2d2 af3e 4c3a f93e c160 2c3e
00000040: 81ea 3a3f 08ab 843e e867 913e 0927 713e
00000050: 8907 053f e3aa 933e eb9d cf3e 9bf0 21be
00000060: b2f1 233f 4407 ba3e 8f9c 823f f52e 133f
00000070: 3e04 843e 64ea c73e a6ac cb3e f1b1 d33e
00000080: 706c 653e c487 8a3e 9113 2b3f c456 903e
00000090: 21f9 1f3f 4160 7b3e 88ef 323e 74d7 ac3e
000000a0: 5842 0d3f 3695 24be 3938 1d3f 7571 1d3f
000000b0: 91a9 763e 9d30 243f 03aa 5b3e 3790 b53e
000000c0: 59d7 fb3e 798d 8e3e bea1 5a3e 0c78 b93e
000000d0: 2127 2e3f 0046 2e3f 734e e73e 1346 da3e

weight f4 [12, 56, 1, 1]
0.23458771 0.38790187 0.26900262 0.45104092 -0.15275668 0.311871 -0.1902307 -0.13672344
-0.27162114 -0.5776181 0.4698239 0.38275656 -0.2751896 0.08595153 0.20152205 -0.05776471
0.3138626 0.57320035 -0.32009584 0.6698765 0.7977155 -0.8385989 -0.09596301 -0.18845993
-0.008371473 0.12980056 -0.55329806 0.23162381 -0.12112839 0.6765411 0.48286653 -0.47141337
-0.51783055 -0.23790687 0.06425579 0.50647926 -0.5040361 0.45312354 0.022197576 -0.77347136
0.14488873 0.0608776 0.41553774 -0.65428746 0.33740267 0.34326813 -0.03751683 1.1589295
-0.6796045 0.31552666 0.04435785 0.059819613 0.5354339 0.36986446 0.07278107 0.52672297
0.7961507 -0.32862604 -0.59540814 0.004797237 -0.33274287 -0.79029167 0.4172207 -0.23852442
-0.19345474 -0.16134222 0.18477331 0.031293128 -0.089523576 -0.072563924 -0.3812223 -0.23673931
0.30424437 0.17147188 -0.48532438 0.24645616 0.117488116 0.28215104 -0.3927244 -0.1060926
-0.33835664 0.33106092 0.7840591 0.18431905 -0.10574169 0.9224732 -0.06105959 0.7657371
-0.4796803 -0.0972345 0.19611524 0.2919075 0.3753637 0.7342311 0.08099553 0.61864567
-0.25777978 0.777618 -0.29439574 0.15932195 -0.24866128 0.51280224 -0.07640343 -0.0028228627
-0.039710883 0.31652072 0.26065186 0.57839054 -0.4830746 -0.49236977 0.021588732 0.17083772
0.31489182 -0.078405194 0.14001916 -0.016477399 -0.49275446 0.18542376 -0.18942867 0.18336034
0.15730803 -0.12135835 0.18043453 -0.2074879 -0.061644454 -0.09065141 0.6878671 -0.070145324
0.35328865 -0.28166574 -0.119465664 0.6896315 0.010558349 -0.34828478 -0.40234408 -0.31030422
0.33809337 -0.26708886 0.3514926 0.28268808 -0.9093345 -0.052247934 0.40390566 1.2069937
0.38485482 -0.043866023 -0.9695001 -0.3211703 -0.060955748 -0.66777855 -0.12101687 0.102703184
-0.37151304 0.027544301 0.44402325 0.12847874 -0.16808338 0.74050444 0.8626615 -0.22043185
-0.26266155 0.22762026 -0.17964175 0.736483 -0.34429857 0.17038172 0.6697105 0.10743568
0.42176157 0.101127565 -0.16062433 0.6497685 -0.18095209 -0.37326255 0.5786378 -0.20921761
-0.3167367 -0.2349098 0.37464225 0.019853715 0.15487139 -0.3725523 0.17705119 -0.41616827
0.12688859 0.40834367 0.6479926 0.2375803 -0.31314796 0.24161167 0.2387643 -0.3061494
0.28343588 -0.5570017 -0.6460753 0.13112418 0.34280452 0.61527187 -0.09665963 0.050321445
-0.021179095 0.16145977 0.05982234 0.25275883 -0.21972328 -0.10275776 0.51715887 -0.95443994
0.43654394 0.24877939 0.17445402 -0.41573665 -0.44419044 0.11705191 -0.31136483 -0.14126949
-0.08564652 0.00071630825 0.70183545 -0.08776218 -0.19327624 -0.7803122 -0.35428807 0.16392474
-0.3190238 -0.56135654 -0.37759063 0.38379934 0.66795397 -0.60751253 0.18751103 -0.5796214
0.09691474 0.15136147 0.30783668 -0.416141 -0.19737309 0.51110464 0.36344713 0.7387764
0.5470037 0.015691368 0.9203453 -0.31011698 -0.20630474 0.8021575 -0.47903553 -0.1123585
-0.17943624 -0.087810405 0.11455712 -0.19851287 0.44502088 -0.051846024 0.6143885 -0.21476877
00000000: c337 703e 139b c63e b6ba 893e d6ee e63e
00000010: 3f6c 1cbe 8ead 9f3e d6cb 42be 3b01 0cbe
00000020: ed11 8bbe c8de 13bf c28c f03e abf8 c33e
00000030: a7e5 8cbe 5b07 b03d cc5b 4e3e b09a 6cbd
00000040: 99b2 a03e 42bd 123f 9ae3 a3be 077d 2b3f
00000050: 1537 4c3f 6bae 56bf 4188 c4bd a4fb 40be
00000060: 8128 09bc 70ea 043e f1a4 0dbf cb2e 6d3e
00000070: 2912 f8bd cc31 2d3f 483a f73e 185d f1be
00000080: 8b90 04bf dc9d 73be 8a98 833d a0a8 013f
00000090: 8308 01bf cfff e73e b1d7 b53c 3802 46bf
000000a0: b65d 143e ca5a 793d 5dc1 d43e 627f 27bf
000000b0: 0bc0 ac3e d7c0 af3e 3fab 19bd cd57 943f
000000c0: 8ffa 2dbf b68c a13e 94b0 353d 6905 753d
000000d0: 3212 093f e05e bd3e 3e0e 953d 51d7 063f
000000e0: 88d0 4b3f ac41 a8be ab6c 18bf 2432 9d3b
000000f0: 465d aabe 8e50 4abf f49d d53e bf3f 74be
00000100: 0019 46be e536 25be 3735 3d3e 392d 003d
00000110: 2358 b7bd 659c 94bd 922f c3be ca6b 72be
00000120: ebc5 9b3e 5396 2f3e 707c f8be 015f 7c3e
00000130: 9c9d f03d 1a76 903e 2c13 c9be 1447 d9bd
00000140: 153d adbe d180 a93e 19b8 483f 22be 3c3e
00000150: 198f d8bd 3427 6c3f 9f19 7abd 5907 443f
00000160: a898 f5be e222 c7bd 6fd2 483e e674 953e
00000170: ac2f c03e 92f6 3b3f fce0 a53d 905f 1e3f
00000180: b6fb 83be f911 473f 0abb 96be 4b25 233e
00000190: 10a1 7ebe 0247 033f 6779 9cbd c7ff 38bb
000001a0: e1a7 22bd 010f a23e 2974 853e 6711 143f
000001b0: 8e55 f7be e417 fcbe dada b03c 15f0 2e3e
000001c0: 8039 a13e e792 a0bd 2f61 0f3e 9cfb 86bc
000001d0: 504a fcbe badf 3d3e 97f9 41be d0c2 3b3e
000001e0: 5b15 213e ba8a f8bd d4c3 383e b577 54be
000001f0: e57e 7cbd 72a7 b9bd 0f18 303f 5aa8 8fbd
00000200: 40e2 b43e 7e36 90be 6aaa f4bd b18b 303f
00000210: edfc 2c3c 6252 b2be 0b00 cebe 32e0 9ebe
00000220: 931a ad3e dfbf 88be d7f6 b33e 7ebc 903e
00000230: 25ca 68bf ee01 56bd b9cc ce3e c57e 9a3f
00000240: b10b c53e dcac 33bd 2931 78bf 6f70 a4be
00000250: bcac 79bd 89f3 2abf b1d7 f7bd 0c56 d23d
00000260: f536 bebe 96a4 e13c 0457 e33e ee8f 033e
00000270: 0d1e 2cbe b391 3d3f 62d7 5c3f e3b8 61be
00000280: 937b 86be 4915 693e 02f4 37be 268a 3c3f
00000290: e747 b0be 8c78 2e3e 2672 2b3f 3d07 dc3d
000002a0: 22f1 d73e f81b cf3d b47a 24be 3a57 263f
000002b0: 814b 39be 451c bfbe 9b21 143f 243d 56be
000002c0: 502b a2be 328c 70be 1cd1 bf3e 42a4 a23c
000002d0: 9b96 1e3e 2dbf bebe e84c 353e 0214 d5be
000002e0: 15ef 013e 6c12 d13e d8e2 253f 4048 733e
000002f0: ee54 a0be 0d69 773e a17e 743e 9dbf 9cbe
00000300: 821e 913e aa97 0ebf 3165 25bf 6b45 063e
00000310: 1384 af3e 7582 1d3f 7cf5 c5bd dc1d 4e3d
00000320: c87f adbc b655 253e 4508 753d 9b69 813e
00000330: 24ff 60be a972 d2bd 8664 043f 2d56 74bf
00000340: b082 df3e 06c0 7e3e 13a4 323e 6fdb d4be
00000350: ee6c e3be e9b8 ef3d 366b 9fbe f3a8 10be
00000360: 7167 afbd a2c6 3b3a 7dab 333f a8bc b3bd
00000370: 35ea 45be 8ac2 47bf 3f65 b5be e3db 273e
00000380: 1657 a3be 10b5 0fbf 8f53 c1be 5981 c43e
00000390: 08ff 2a3f f185 1bbf e402 403e 1162 14bf
000003a0: 3c7b c63d 80fe 1a3e c59c 9d3e 6f10 d5be
000003b0: 2c1c 4abe c1d7 023f be15 ba3e 7320 3d3f
000003c0: 6f08 0c3f 2f8b 803c c09b 6b3f a7c7 9ebe
000003d0: 8d41 53be 325a 4d3f 2544 f5be 371c e6bd
000003e0: 22be 37be f1d5 b3bd ec9c ea3d f546 4bbe
000003f0: c7d9 e33e 7f5c 54bd 9148 1d3f 58ec 5bbe

bias f4 [12]
0.007443778 -0.026766604 -0.00021590189 -0.0026916799 0.023696346 -0.003192549 -0.024009908 0.0071146674
-0.04073553 0.0020130568 0.0034052806 -0.013192833
00000000: f0ea f33b a345 dbbc b963 62b9 e566 30bb
00000010: d71e c23c 163a 51bb 6db0 c4bc 2822 e93b
00000020: 4dda 26bd 7ded 033b 212b 5f3b c126 58bc

weight f4 [12]
0.7262852 0.45144612 0.6908464 0.9074261 0.91647947 0.25117972 1.0538524 0.7966906
0.36591026 0.2672836 0.24922183 0.31539378
00000000: d4ed 393f f223 e73e 4fdb 303f 144d 683f
00000010: 669e 6a3f a19a 803e a3e4 863f eaf3 4b3f
00000020: 9758 bb3e 65d9 883e 0234 7f3e 4b7b a13e

weight f4 [12, 12, 3, 3]
0.043408576 -0.20590875 -0.038329642 0.022266563 0.01007856 0.03984839 0.0741365 0.008167953
0.04758717 -0.15897143 -0.093412146 0.26804447 0.04927065 0.13265763 -0.0119302785 -0.014638081
0.013044756 -0.15884429 0.21842234 0.081036374 -0.015247034 -0.08547928 -0.024178939 -0.20519602
0.17507266 0.042768095 0.025674665 -0.08322331 0.039688688 0.048128366 -0.0938565 0.031736504
0.12612602 0.011063053 -0.23207633 -0.0097040385 -0.109248005 0.025329458 0.085646436 0.056866884
-0.015903722 0.07858025 0.15780762 -0.10716298 -0.17136301 -0.11689795 0.1163627 0.055541303
-0.11674209 0.11739915 -0.00792267 -0.036924634 0.1680488 0.07740168 -0.11563347 -0.081198215
0.023722 -0.0510126 -0.12243666 -0.0078085945 0.01344275 0.21406865 0.0036745786 -0.020843832
0.01955129 -0.30303955 -0.048793003 -0.07708549 -0.015659861 0.081640705 -0.09215934 -0.08951527
-0.07651611 0.06107594 0.08348828 -0.07921122 0.26154393 -0.08574071 0.01748886 0.1774269
0.043461964 -0.16461836 -0.06635314 0.06220986 0.036306355 0.2759291 -0.11015804 0.18852161
-0.16270041 -0.0913261 0.03122719 0.10372343 -0.019685693 0.20396246 0.2071273 0.015497466
0.065680414 -0.07246583 -0.1745031 0.24559994 -0.072230235 0.023546545 0.0036920297 -0.06609066
0.1171973 -0.17920169 0.26821634 -0.3107765 -0.11140784 0.10297211 -0.021771839 -0.14843312
0.10440917 -0.040221028 0.03015918 0.04212635 0.0010653547 0.122220896 0.056244723 -0.06005314
0.031353205 -0.16819143 0.23488562 0.055542048 0.068356335 0.07832905 -0.07384597 -0.29617536
0.071413256 -0.12683381 -0.033614647 0.0028528322 -0.014846611 0.0037168618 -0.018390726 -0.0944267
0.23758991 -0.13528432 -0.11301144 0.2189431 -0.038400177 0.2346367 0.032053474 0.06129316
0.07652109 -0.09401168 0.045213096 -0.22284877 0.19046777 -0.050900273 0.0027041328 0.09088504
0.0060241474 0.033529125 0.01390722 -0.09948085 -0.07215286 0.13756724 0.04303666 -0.02599536
0.015632913 -0.0593914 0.21771806 0.16679865 -0.03547898 -0.05531003 0.28574374 0.27889335
0.14531805 -0.17309903 -0.03760467 0.1494529 0.024810618 -0.24021183 -0.14020386 -0.08569883
0.07541461 -0.03954274 0.12076218 -0.15341169 -0.12061039 0.06923058 0.22683461 -0.11263868
0.03100872 -0.054874204 -0.08144657 -0.23210481 -0.1527883 -0.08540376 -0.06768667 -0.33629665
-0.13235568 -0.04065799 0.24142203 0.12308139 -0.17991395 -0.029735059 -0.008414991 0.13112971
-0.16716592 0.011651078 0.24823396 -0.11267168 -0.10174801 -0.106167845 0.042946074 0.07499707
0.09236333 -0.026217246 0.020687906 -0.18728681 -0.009499244 0.0868121 -0.06716973 -0.079857245
-0.19088219 -0.11514212 -0.014321236 0.14415544 -0.17085831 0.045415286 -0.018412456 -0.084762536
0.15626174 -0.22212836 -0.23402101 -0.29288796 -0.0851119 0.03539345 0.040178925 -0.04278528
0.13850914 -0.03502544 0.0788289 -0.107706815 -0.060249425 0.2376064 -0.30639154 0.18083125
0.033125244 0.16147383 0.10863563 0.17019445 -0.17213985 -0.19242088 -0.16351037 0.05988913
-0.034100268 -0.21223447 -0.03254446 -0.06060383 0.10655323 -0.035141338 -0.0012155165 0.3490947
00000000: 31cd 313d bed9 52be 8bff 1cbd 5e68 b63c
00000010: 8b20 253c 1138 233d e1d4 973d e1d2 053c
00000020: c4ea 423d 68c9 22be de4e bfbd 203d 893e
00000030: 05d0 493d 67d7 073e 3777 43bc 90d4 6fbc
00000040: acb9 553c 14a8 22be 1baa 5f3e 66f6 a53d
00000050: b2ce 79bc c30f afbd e912 c6bc e81e 52be
00000060: 3f46 333e 992d 2f3d ad53 d23c fc70 aabd
00000070: 9b90 223d 4022 453d d637 c0bd 23fe 013d
00000080: 2e27 013e cf41 353c 6ba5 6dbe b0fd 1ebc
00000090: 6bbd dfbd b97f cf3c 6667 af3d 40ed 683d
000000a0: 8648 82bc afee a03d 5298 213e 4478 dbbd
000000b0: c979 2fbe 3168 efbd 914f ee3d 477f 633d
000000c0: 7a16 efbd f76e f03d 16ce 01bc 493e 17bd
000000d0: fc14 2c3e c684 9e3d 3ed1 ecbd 404b a6bd
000000e0: a454 c23c 97f2 50bd 12c0 fabd 3ddf ffbb
000000f0: fb3e 5c3c d034 5b3e 33d1 703b afc0 aabc
00000100: 072a a03c 0028 9bbe 2cdb 47bd ffde 9dbd
00000110: 1c49 80bc 3e33 a73d 09be bcbd c853 b7bd
00000120: 7ab4 9cbd c42a 7a3d e7fb aa3d 7e39 a2bd
00000130: 16e9 853e d398 afbd cc44 8f3c 66af 353e
00000140: 2c05 323d b791 28be 28e4 87bd c4cf 7e3d
00000150: f9b5 143d 9446 8d3e 8a9a e1bd cf0b 413e
00000160: f09a 26be 2e09 bbbd 2ad0 ff3c f36c d43d
00000170: e443 a1bc 89db 503e 2e19 543e 15e9 7d3c
00000180: 7483 863d f768 94bd f1b0 32be 8d7e 7b3e
00000190: 72ed 93bd afe4 c03c fbf5 713b 8a5a 87bd
000001a0: 2305 f03d a680 37be a753 893e 191e 9fbe
000001b0: cb29 e4bd 0be3 d23d db5a b2bc dafe 17be
000001c0: 7ad4 d53d cebe 24bd 6210 f73c ae8c 2c3d
000001d0: 5fa3 8b3a f34e fa3d de60 663d 48fa 75bd
000001e0: 386c 003d 603a 2cbe db85 703e 0f80 633d
000001f0: 68fe 8b3d fb6a a03d 8e3c 97bd 4ca4 97be
00000200: 1d41 923d b9e0 01be 83af 09bd 95f6 3a3b
00000210: 333f 73bc 9896 733b 26a8 96bc c962 c1bd
00000220: c54a 733e f987 0abe 8b72 e7bd 9f32 603e
00000230: 8149 1dbd 9a44 703e 814a 033d 890e 7b3d
00000240: 17b7 9c3d 3289 c0bd 5e31 393d 7832 64be
00000250: fc09 433e ce7c 50bd d237 313b f021 ba3d
00000260: 3666 c53b d655 093d 1cdb 633c 9ebc cbbd
00000270: e1c4 93bd 6dde 0c3e 3547 303d 39f4 d4bc
00000280: 9810 803c 6644 73bd 7cf1 5e3e 44cd 2a3e
00000290: 6852 11bd c58c 62bd 014d 923e 1ccb 8e3e
000002a0: 41ce 143e df40 31be 5b07 1abd 2e0a 193e
000002b0: a33f cb3c 17fa 75be 9a91 0fbe de82 afbd
000002c0: fa72 9a3d 91f7 21bd 2952 f73d f417 1dbe
000002d0: 9502 f7bd c3c8 8d3d 5547 683e 1caf e6bd
000002e0: 0006 fe3c c6c3 60bd 76cd a6bd e2ac 6dbe
000002f0: 8974 1cbe 2be8 aebd 4f9f 8abd 132f acbe
00000300: 3f88 07be fe88 26bd 5637 773e 1912 fc3d
00000310: 5d3b 38be f096 f3bc 08df 09bc de46 063e
00000320: 8b2d 2bbe 2ae4 3e3c 0b31 7e3e 69c0 e6bd
00000330: 4361 d0bd 876e d9bd 39e8 2f3d 1098 993d
00000340: fc28 bd3d 8dc5 d6bc af79 a93c 1dc8 3fbe
00000350: b8a2 1bbc 8bca b13d 4990 89bd 328c a3bd
00000360: 9f76 43be a2cf ebbd 9ea3 6abc 7c9d 133e
00000370: 7bf5 2ebe 6105 3a3d b8d5 96bc fb97 adbd
00000380: 1403 203e 9e75 63be 34a3 6fbe 69f5 95be
00000390: 264f aebd b9f8 103d a892 243d 9e3f 2fbd
000003a0: 57d5 0d3e d676 0fbd 0c71 a13d 6495 dcbd
000003b0: 1ac8 76bd 184f 733e 5adf 9cbe d42b 393e
000003c0: 56ae 073d 6559 253e 5b7c de3d 7447 2e3e
000003d0: 6e45 30be fb09 45be 436f 27be 4e4e 753d
000003e0: b9ac 0bbd fe53 59be 574d 05bd b93b 78bd
000003f0: 9438 da3d 5df0 0fbd f751 9fba 8abc b23e

bias f4 [12]
0.014781957 0.0048519317 0.03853545 0.009907388 0.020337997 0.002864294 0.008901405 0.012386399
0.004840788 -0.0037336063 -0.01676725 0.0056250086
00000000: 0530 723c f4fc 9e3b 59d7 1d3d 9952 223c
00000010: df9b a63c e1b6 3b3b 33d7 113c 53f0 4a3c
00000020: 799f 9e3b 85af 74bb 795b 89bc fe51 b83b

weight f4 [12]
0.4643781 0.8938289 0.6423285 0.26273966 0.7892212 0.76087487 0.7370226 0.03993905
0.24668162 1.0100317 0.25061256 0.25042388
00000000: f7c2 ed3e f9d1 643f a46f 243f d085 863e
00000010: 670a 4a3f b2c8 423f 83ad 3c3f 2197 233d
00000020: 1b9a 7c3e b848 813f 4a50 803e 8f37 803e

weight f4 [12, 12, 3, 3]
0.16376753 -0.07427803 0.015262608 -0.13838427 -0.1501242 0.18943901 0.068234056 -0.08912328
0.09885816 -0.010282363 0.064584024 0.06553021 -0.2199298 -0.05466393 -0.12947984 0.2727808
-0.26667956 0.05891962 0.072963454 0.22373764 0.046934363 0.035683237 -0.023339601 0.07892293
0.10809343 0.09501846 -0.101973765 0.14438108 -0.19840895 0.19032352 0.19118759 -0.0008806571
0.19089155 0.06882399 0.037950266 -0.14395708 0.026371676 0.004343903 0.0013541194 0.17084382
-0.33339205 0.23909968 0.14443827 0.25265092 0.024409072 0.2883486 -0.034278244 0.14117226
0.056570306 0.03865502 0.3041634 -0.10772908 0.12369601 0.015622763 -0.1125529 -0.16673556
0.052367628 -0.09015581 -0.081620075 -0.014082707 0.015148255 -0.10946825 0.036252964 0.09416199
-0.23122501 0.06329582 -0.15162812 0.10083862 0.06437693 -0.010429548 -0.01521139 -0.13588046
-0.19836645 -0.084875666 -0.16909567 -0.09273876 -0.25702643 -0.1699359 0.15974425 0.0699158
0.29655692 -0.028055424 0.014428932 -0.066285685 0.111528285 0.1641214 0.20843597 -0.13068931
0.07441289 -0.01745188 -0.061900448 -0.029785885 -0.0073866276 -0.10383667 0.010180998 -0.022590598
-0.010269027 0.0035680553 -0.11745182 0.07701069 0.0068661463 -0.3357677 -0.053475656 -0.24932195
-0.3078134 -0.105254985 0.28943187 0.09919115 -0.10375896 0.02674177 0.1271812 -0.00573922
-0.06352906 -0.15173206 -0.052711714 -0.0070161326 -0.016721701 -0.11698922 0.12025472 0.07597837
0.31133035 0.06973324 0.29125166 -0.050378148 0.2257153 0.10145505 0.009422811 -0.16720219
0.068255275 0.09087866 0.10576469 -0.038538393 0.024495477 0.113533504 0.03519575 -0.11797797
-0.09660085 -0.1312289 -0.032455206 -0.057215475 -0.12834236 -0.08335368 -0.06234968 -0.05048733
-0.12619112 -0.15240377 -0.059259135 0.06262813 0.2226028 0.1850822 -0.20126101 -0.4121161
-0.16655923 0.18302865 -0.044048242 -0.03724679 0.13544767 -0.005033425 0.14809579 -0.08185708
-0.033054277 0.057956405 0.025815068 -0.13780074 -0.2819058 0.22923557 -0.0071599283 0.18230842
-0.21521404 0.30381948 -0.19484419 -0.06066656 -0.11792329 -0.27347142 -0.22497539 0.24574372
-0.08901044 0.19945742 0.08854978 0.009141254 0.118419595 -0.01977868 0.102303736 -0.097258046
-0.081851915 -0.18164253 0.04719768 -0.17819495 0.20918354 0.013071683 0.07564941 -0.09174742
0.109799966 0.10891721 -0.024036288 -0.11892779 0.040534157 0.15102413 -0.045379337 0.00826234
-0.050284456 -0.008362673 0.29207027 0.18571241 -0.045183983 -0.050165385 -0.34750915 0.11127185
0.027505223 -0.07042669 -0.19423713 0.039485965 -0.13463975 -0.0062728957 -0.07166324 -0.106096305
-0.082711525 0.024504054 0.040107027 0.014112953 0.08811772 -0.0534628 0.18352652 -0.18105377
-0.024794031 0.046664666 0.022693856 0.03742964 -0.11260614 -0.17563443 -0.13279256 0.16997327
-0.021420436 -0.12219009 -0.11393408 0.0751972 -0.16913243 0.15624255 -0.034487527 -0.1213943
0.15942223 -0.16111802 0.090680234 -0.17360644 -0.014057694 -0.07757301 -0.17862636 -0.11266144
-0.040512793 -0.1624012 0.06420461 -0.0049252077 -0.20658083 0.024020556 -0.25576553 -0.10116294
00000000: adb2 273e 141f 98bd 0510 7a3c 9bb4 0dbe
00000010: 29ba 19be 4dfc 413e 4cbe 8b3d 4486 b6bd
00000020: 2676 ca3d 5b77 28bc a144 843d b434 863d
00000030: 4735 61be 49e7 5fbd 5d96 04be eda9 8b3e
00000040: 398a 88be b355 713d dd6d 953d 7b1b 653e
00000050: 3f3e 403d 9628 123d b132 bfbc 58a2 a13d
00000060: 1760 dd3d 0a99 c23d 9fd7 d0bd a2d8 133e
00000070: b72b 4bbe 2be4 423e aec6 433e e6db 66ba
00000080: 1379 433e 98f3 8c3d bd71 1b3d 7c69 13be
00000090: 6a09 d83c 4d57 8e3b b57c b13a aff1 2e3e
000000a0: 5db2 aabe 8cd6 743e a0e7 133e 765b 813e
000000b0: 89f5 c73c 6da2 933e 5867 0cbd 768f 103e
000000c0: 44b6 673d ba54 1e3d 4ebb 9b3e 10a1 dcbd
000000d0: 5554 fd3d 9ef6 7f3c 2382 e6bd babc 2abe
000000e0: 707f 563d 9ca3 b8bd 6d28 a7bd 28bb 66bc
000000f0: 6330 783c e430 e0bd fd7d 143d 00d8 c03d
00000100: 40c6 6cbe 3da1 813d 6744 1bbe 7a84 ce3d
00000110: 0dd8 833d b2e0 2abc 3239 79bc 3f24 0bbe
00000120: 9320 4bbe 4bd3 adbd 6a27 2dbe d2ed bdbd
00000130: f898 83be ad03 2ebe ff93 233e 0430 8f3d
00000140: 4fd6 973e 7dd4 e5bc 5467 6c3c cac0 87bd
00000150: f168 e43d 710f 283e 3d70 553e 6bd3 05be
00000160: c965 983d 3ff7 8ebc 538b 7dbd 8701 f4bc
00000170: 860b f2bb 52a8 d4bd 33ce 263c eb0f b9bc
00000180: 6c3f 28bc 09d6 693b 948a f0bd c8b7 9d3d
00000190: 69fd e03b bee9 abbe 4a09 5bbd 414e 7fbe
000001a0: b899 9dbe ed8f d7bd 6a30 943e bb24 cb3d
000001b0: 947f d4bd 8e11 db3c ca3b 023e 1110 bcbb
000001c0: 861b 82bd a65f 1bbe 3de8 57bd 96e7 e5bb
000001d0: f3fb 88bc 0b98 efbd 1b48 f63d 8c9a 9b3d
000001e0: b166 9f3e 4dd0 8e3d f01e 953e 5159 4ebd
000001f0: e921 673e aac7 cf3d 2262 1a3c 0d37 2bbe
00000200: 6cc9 8b3d 971e ba3d 289b d83d 6fda 1dbd
00000210: bdaa c83c 4184 e83d 6b29 103d 6f9e f1bd
00000220: abd6 c5bd de60 06be c0ef 04bd c65a 6abd
00000230: 2e6c 03be 56b5 aabd 6162 7fbd cdcb 4ebd
00000240: 3f38 01be bc0f 1cbe b5b9 72bd 2d43 803d
00000250: fdf1 633e 3086 3d3e 5e17 4ebe e200 d3be
00000260: 818e 2abe dd6b 3b3e ee6b 34bd 1790 18bd
00000270: cbb2 0a3e 6eef a4bb 6ca6 173e afa4 a7bd
00000280: ec63 07bd b263 6d3d 1f7a d33c a31b 0dbe
00000290: f555 90be bbbc 6a3e d59d eabb 0faf 3a3e
000002a0: 1261 5cbe 3a8e 9b3e 3c85 47be 807d 78bd
000002b0: c481 f1bd 7204 8cbe f35f 66be 3ea4 7b3e
000002c0: 1b4b b6bd 913e 4c3e 9659 b53d 33c5 153c
000002d0: f985 f23d e606 a2bc 9f84 d13d 3a2f c7bd
000002e0: faa1 a7bd 8000 3abe 5b52 413d bd78 36be
000002f0: 3634 563e 9d2a 563c 14ee 9a3d 12e6 bbbd
00000300: cede e03d fc0f df3d c0e7 c4bc 6a90 f3bd
00000310: 2507 263d 12a6 1a3e afdf 39bd c45e 073c
00000320: 13f7 4dbd 9803 09bc 3c8a 953e 652b 3e3e
00000330: d712 39bd 387a 4dbd b8ec b1be 7fe2 e33d
00000340: a252 e13c de3b 90bd 19e6 46be 09bc 213d
00000350: 01df 09be dd8c cdbb 2dc4 92bd 0549 d9bd
00000360: a964 a9bd babc c83c 4447 243d 043a 673c
00000370: 1077 b43d cffb 5abd 60ee 3b3e 2966 39be
00000380: da1c cbbc 7323 3f3d 77e8 b93c d24f 193d
00000390: 0c9e e6bd 83d9 33be c6fa 07be 790d 2e3e
000003a0: e979 afbc cc3e fabd 4556 e9bd fd00 9a3d
000003b0: 0d31 2dbe 0cfe 1f3e cb42 0dbd 939d f8bd
000003c0: 953f 233e 1ffc 24be 8fb6 b93d e3c5 31be
000003d0: 3e52 66bc 99de 9ebd d4e9 36be 0bbb e6bd
000003e0: bef0 25bd 804c 26be b57d 833d a363 a1bb
000003f0: ed89 53be c2c6 c43c b3f3 82be 842e cfbd

bias f4 [12]
-0.003209708 0.054643147 0.016902598 0.0009653394 -0.0042032306 -0.00345325 0.04733178 -0.0029165314
-0.05198698 -0.00031254216 -0.007828909 0.0008023432
00000000: f759 52bb 7ed1 5f3d 5177 8a3c d50e 7d3a
00000010: 41bb 89bb ec4f 62bb f8de 413d 4723 3fbb
00000020: 4df0 54bd b3dc a3b9 d344 00bc 5754 523a

weight f4 [12]
0.84043276 0.72067773 0.6019645 0.48142755 0.8287804 0.7617378 0.4001022 0.8867188
0.22257535 0.43878555 0.24114873 0.27795812
00000000: 9a26 573f 567e 383f 581a 1a3f ac7d f63e
00000010: f42a 543f 4001 433f 32da cc3e 0100 633f
00000020: cbea 633e 80a8 e03e b1ef 763e 8750 8e3e

weight f4 [12, 12, 3, 3]
-0.0910477 0.18898404 0.03804207 -0.059903957 0.0020656413 0.08804166 -0.07209043 0.014815506
-0.08509071 0.09908325 -0.38184008 0.040692087 -0.1391178 -0.20877628 0.04863007 0.030532125
-0.15405884 0.021532267 0.141973 0.12135836 0.14715293 -0.2052593 -0.21640994 0.17125018
-0.00896919 0.071145296 -0.028208468 0.15807278 -0.37657985 0.10196729 0.20767108 -0.14357297
0.042540457 -0.32146892 -0.02223333 0.12547484 -0.16802342 -0.18527395 0.42417872 -0.1127951
0.09182364 0.12231083 -0.18543382 0.14466438 0.059577424 -0.014376949 0.4267851 -0.028332703
0.10822146 0.07423922 -0.092985414 -0.12920769 0.19381152 -0.07499615 0.08644041 -0.1695928
-0.09365539 0.05348096 0.053276062 0.024836207 -0.057022568 0.20932245 -0.027953 0.04857841
0.28971133 -0.09229838 0.16118738 -0.38506544 -0.09097139 -0.123946786 0.05693147 0.040424377
0.024112897 -0.29371855 -0.036883716 -0.04870317 -0.22912483 0.017832056 0.07338997 0.1678826
0.0014304002 0.022176737 -0.101050355 -0.17979498 0.015977126 0.10123862 0.06656453 0.0723172
-0.20925209 -0.16242445 0.03958949 0.16545413 0.11797355 -0.15164573 -0.1720051 -0.084887646
0.13600543 -0.02271554 -0.08845397 0.30437106 0.16602445 0.022800427 -0.1841445 -0.0720317
0.32134473 0.08842607 -0.050679065 0.023792017 0.062367905 -0.05987462 -0.10065031 -0.088229224
-0.17455597 0.029761741 0.14923237 -0.1082883 -0.14052711 -0.0036873084 0.008591637 0.1551384
0.20213452 0.024269434 -0.039441302 -0.06616105 0.35448655 0.03356053 -0.08184467 0.2913591
0.09134637 -0.055511724 -0.2913756 0.0325303 -0.051217213 -0.13885668 0.016760278 0.08320522
-0.02573187 -0.121304765 -0.12733954 0.09422419 -0.13747697 -0.17083605 0.005223171 0.026883435
-0.15640014 -0.14539029 -0.0106339315 0.16192313 0.061791327 -0.1728306 -0.13221702 -0.26883602
-0.010466548 -0.01005565 -0.13359556 -0.16223277 -0.063013844 0.06831602 -0.13728341 0.095966265
-0.039297078 0.09591902 -0.077396005 -0.08665467 0.050051864 -0.04162445 -0.16858865 -0.017098201
0.009171835 0.0076255095 -0.2950263 0.023066338 -0.007525229 0.051743697 0.0975968 0.09459567
0.047801547 0.05551778 0.13970286 -0.019921394 0.15548474 0.061826743 0.086392 -0.25666502
-0.08698648 0.20570983 0.118290946 -0.112398826 -0.07005538 -0.07866413 -0.040534575 -0.14191626
-0.24487509 0.18242343 0.06166821 0.282687 0.17214407 0.43625116 0.048905 0.0072548706
0.0326 -0.08495772 0.25975516 0.25883913 -0.006243216 -0.17134964 0.012969941 0.24373764
-0.08233875 0.27238536 -0.14729565 -0.079002894 0.009324108 -0.05191495 0.05087668 0.18221731
-0.05118877 -0.20806217 -0.017838292 0.0417278 0.19372866 0.048356526 0.062647 0.16392839
-0.20400679 0.0052186386 0.07686336 0.01740683 -0.0025497328 0.11866165 0.27125233 -0.13534431
0.021859959 -0.1970106 -0.20237435 -0.010397176 -0.0013563689 -0.019422973 0.31531003 0.05458742
-0.13754961 -0.4188039 -0.14715998 -0.20605397 -0.07549119 0.063222796 0.19309825 0.17784755
0.054007776 -0.07724434 -0.124400795 -0.008486718 -0.12249018 0.2435281 -0.13325074 -0.059521575
00000000: 3777 babd 0885 413e 00d2 1b3d da5d 75bd
00000010: b65f 073b 304f b43d 26a4 93bd bcbc 723c
00000020: 0a44 aebd 29ec ca3d 8b80 c3be bfac 263d
00000030: e674 0ebe 73c9 55be 5330 473d 821e fa3c
00000040: 9ac1 1dbe 7064 b03c 5f61 113e bb8a f83d
00000050: 42af 163e 7e2f 52be 919a 5dbe 355c 2f3e
00000060: 82f3 12bc a0b4 913d 7215 e7bc d5dd 213e
00000070: 13cf c0be 3ad4 d03d baa7 543e cb04 13be
00000080: e73e 2e3d 9397 a4be ac22 b6bc 7a7c 003e
00000090: 550e 2cbe 74b8 3dbe f42d d93e 1e01 e7bd
000000a0: 080e bc3d 1a7e fa3d 5de2 3dbe e622 143e
000000b0: 7507 743d 4b8d 6bbc 9483 da3e fc19 e8bc
000000c0: 36a3 dd3d bb0a 983d 236f bebd 054f 04be
000000d0: 8776 463e 9597 99bd ab07 b13d bca9 2dbe
000000e0: 66ce bfbd da0e 5b3d 0038 5a3d 4d75 cb3c
000000f0: 7f90 69bd a058 563e b1fd e4bc 28fa 463d
00000100: 0b55 943e ef06 bdbd 4e0e 253e 4c27 c5be
00000110: 354f babd d0d7 fdbd f930 693d 0894 253d
00000120: 6988 c53c 4762 96be 6113 17bd fa7c 47bd
00000130: b39f 6abe 8814 923c 7b4d 963d 6be9 2b3e
00000140: 447c bb3a fdab b53c 7df3 cebd 2d1c 38be
00000150: 76e2 823c 3256 cf3d fc52 883d 0a1b 943d
00000160: 2e46 56be 9852 26be 9728 223d cf6c 293e
00000170: 1e9c f13d 0549 1bbe 1b22 30be 93d9 adbd
00000180: 0245 0b3e f115 babc 5b27 b5bd 86d6 9b3e
00000190: 5002 2a3e f6c7 ba3c 6090 3cbe 5b85 93bd
000001a0: 4c87 a43e ba18 b53d da94 4fbd 7ae7 c23c
000001b0: 7d75 7f3d 173f 75bd c021 cebd 86b1 b4bd
000001c0: cdbe 32be e5ce f33c 5fd0 183e 42c6 ddbd
000001d0: 57e6 0fbe c5a6 71bb f0c3 0c3c 9adc 1e3e
000001e0: 5afc 4e3e b1d0 c63c 348d 21bd 727f 87bd
000001f0: 437f b53e c476 093d 2e9e a7bd 052d 953e
00000200: ce13 bb3d 4360 63bd 2f2f 95be 7e3e 053d
00000210: 24c9 51bd 7230 0ebe da4c 893c 8067 aa3d
00000220: a5cb d2bc a26e f8bd 4c65 02be 9df8 c03d
00000230: c3c6 0cbe a5ef 2ebe 2227 ab3b a63a dc3c
00000240: 5c27 20be 31e1 14be f139 2ebc 2dcf 253e
00000250: e718 7d3d 81fa 30be e663 07be e0a4 89be
00000260: e27b 2bbc 74c0 24bc 46cd 08be 5920 26be
00000270: 670d 81bd 45e9 8b3d 0694 0cbe f689 c43d
00000280: f9f5 20bd 3171 c43d cc81 9ebd 0178 b1bd
00000290: 2f03 4d3d 667e 2abd 81a2 2cbe 8711 8cbc
000002a0: 7745 163c 69df f93b b00d 97be 9ef5 bc3c
000002b0: 3296 f6bb 33f1 533d d5e0 c73d 60bb c13d
000002c0: 8ecb 433d 9d66 633d 440e 0f3e 3132 a3bc
000002d0: 6437 1f3e 0a3e 7d3d 4aee b03d 9969 83be
000002e0: f825 b2bd 99a5 523e 8642 f23d 5b31 e6bd
000002f0: 3279 8fbd a91a a1bd 9507 26bd 7f52 11be
00000300: 89c0 7abe 35cd 3a3e ce97 7c3d 5abc 903e
00000310: 8946 303e 505c df3e 9c50 483d 44ba ed3b
00000320: 9487 053d 50fe adbd a1fe 843e 9086 843e
00000330: e493 ccbb 4876 2fbe e07f 543c 5c96 793e
00000340: 38a1 a8bd 1876 8b3e acd4 16be 45cc a1bd
00000350: 25c4 183c c5a4 54bd 1164 503d 2d97 3a3e
00000360: 51ab 51bd 400e 55be 9c21 92bc c5ea 2a3d
00000370: ce60 463e 7e11 463d 124d 803d d8dc 273e
00000380: 28e7 50be 1d01 ab3b 8a6a 9d3d c598 8e3c
00000390: 6b19 27bb e104 f33d 96e1 8a3e b397 0abe
000003a0: a813 b33c 26bd 49be 393b 4fbe eb58 2abc
000003b0: 30c8 b1ba ed1c 9fbc 5170 a13e 0f97 5f3d
000003c0: ced9 0cbe 776d d6be 1bb1 16be d0ff 52be
000003d0: 209b 9abd f47a 813d 8cbb 453e ab1d 363e
000003e0: 4237 5d3d 4832 9ebd d8c5 febd e00b 0bbc
000003f0: 22dc fabd 6e5f 793e e272 08be e5cc 73bd

bias f4 [12]
0.03524475 0.05004976 -0.0077973693 -0.007428508 0.0010487832 0.013231449 -0.014147917 0.07568557
-0.029498322 0.0664961 -0.10354098 0.021891007
00000000: cd5c 103d fa00 4d3d 1381 ffbb d76a f3bb
00000010: 5377 893a b8c8 583c aacc 67bc 0901 9b3d
00000020: 77a6 f1bc 1b2f 883d 4b0d d4bd c554 b33c

weight f4 [12]
0.8194756 0.23998095 0.66850364 0.44200903 0.49553448 0.2794376 0.2952905 1.043017
0.24688682 0.3737534 0.24716035 0.7950865
00000000: 27c9 513f 91bd 753e 0e23 2b3f 024f e23e
00000010: b2b6 fd3e 7212 8f3e 5130 973e 9581 853f
00000020: e6cf 7c3e 9b5c bf3e 9a17 7d3e ca8a 4b3f

weight f4 [12, 12, 3, 3]
-0.09571861 0.024693122 -0.07778639 0.018583668 -0.117754675 -0.07193085 -0.24739489 -0.29786938
-0.06676513 0.24085069 -0.1394459 0.1675873 -0.06694982 0.048584126 -0.14248459 -0.23986426
-0.11543749 -0.028526641 0.15172386 0.111998744 -0.16693237 -0.0216707 -0.271197 0.10372132
0.14707442 0.10000128 -0.074378595 -0.11445855 0.03978061 0.088892065 -0.008595515 0.022044128
0.091576815 -0.18590267 0.23684904 0.004058248 -0.19596754 -0.056973856 -0.025570542 0.18602997
0.09790885 -0.260893 -0.09897229 0.1820165 -0.027469065 0.13299043 0.15890117 0.025785737
-0.008904783 -0.1834583 0.06149839 -0.058247205 -0.4061807 -0.17216462 -0.036043108 -0.1505319
-0.10775312 -0.004597834 -0.1264724 -0.16465761 0.16261974 -0.0026632652 -0.10528429 -0.029164681
0.12642027 -0.032354817 -0.068797976 0.0595356 0.06398498 -0.016277838 0.108981706 0.010488923
0.044000614 0.20809044 0.0978264 0.19992667 0.18400192 0.11368556 0.03235748 0.1605068
0.3015172 -0.44761035 -0.07795146 0.047655698 -0.027660038 0.029189907 -0.40288773 -0.008481899
-0.35137862 0.09028471 0.16487211 0.2147036 -0.0024380328 0.029412055 0.20023444 0.085102275
0.2133107 0.034840252 -0.13405073 0.17404737 0.15386172 -0.16430934 0.018891824 -0.105084665
0.18183835 0.13292034 0.10718379 -0.18530574 -0.22491245 0.1689996 -0.06858996 -0.054321855
0.07868155 -0.036769513 0.05608878 0.13264048 -0.256566 -0.11528817 -0.02199122 -0.14653845
0.036515042 0.19661154 0.031903833 0.27219903 0.021340841 0.08550691 -0.07521551 0.02901946
-0.0036699257 -0.24530873 0.039872296 0.07414885 -0.03273571 0.25166953 0.035655137 -0.0018467371
0.21218298 0.2035664 -0.08577862 0.00045047502 -0.049818862 0.03891763 -0.07541815 0.1284238
-0.18940662 -0.04397665 0.06714291 -0.09786109 -0.17455341 0.0498823 0.17605554 0.19302209
-0.2003145 0.26953968 -0.13874373 0.22789152 -0.27916732 -0.08057509 0.34090933 0.03194005
-0.19652987 -0.2784463 0.30646026 0.020816991 0.03839728 0.18795928 0.006161543 -0.022462228
-0.24429315 -0.036135852 -0.0725926 -0.23219015 -0.09776159 -0.13541313 -0.008261468 -0.15508512
-0.24148858 -0.072115034 -0.20825768 0.13738173 -0.012640201 0.10261484 -0.035104036 0.0005673991
-0.12035871 -0.11327312 0.10499569 0.30450976 0.009799636 0.06152997 -0.111466356 -0.09136899
0.14305806 0.012069893 -0.103743695 -0.0052117114 -0.21068133 0.13941588 0.011788858 -0.04624217
0.2010525 -0.043016467 0.013201452 -0.0715632 0.055525552 -0.19835258 -0.073537216 -0.045169134
0.17306438 -0.20297822 -0.27104494 -0.017385729 -0.064075164 0.057646774 0.27187142 -0.04864296
-0.07652294 -0.1479605 -0.09468509 0.010025022 -0.084395826 -0.049423404 -0.08671337 -0.059442583
-0.049403165 -0.20776746 0.19980286 -0.08016149 -0.24074662 0.1550425 0.25431994 -0.1906096
-0.11732722 -0.014467186 -0.028022269 0.117183715 -0.0021654696 0.059179913 0.2754451 0.049977586
-0.05137865 -0.11727304 0.0032761588 -0.008252147 0.046462175 -0.18161793 -0.033088267 0.054397438
0.04352007 0.123148456 0.12656099 -0.0048662326 0.003836889 0.029802315 0.22376727 0.045693934
00000000: 1e08 c4bd 3b49 ca3c 794e 9fbd c73c 983c
00000010: 5d29 f1bd 7b50 93bd 1655 7dbe 5682 98be
00000020: 28bc 88bd 90a1 763e e8ca 0ebe 019c 2b3e
00000030: fd1c 89bd 2600 473d 7be7 11be fa9e 75be
00000040: 7e6a ecbd b4b0 e9bc 805d 1b3e 995f e53d
00000050: 52f0 2abe c086 b1bc 55da 8abe d86b d43d
00000060: ad9a 163e 79cd cc3d ce53 98bd 3f69 eabd
00000070: fef0 223d 0b0d b63d 34d4 0cbc e395 b43c
00000080: a08c bb3d 455d 3ebe 8e88 723e 0dfb 843b
00000090: b7ab 48be 6b5d 69bd 5079 d1bc a47e 3e3e
000000a0: 6f84 c83d c493 85be fcb1 cabd 8962 3a3e
000000b0: ce06 e1bc a52e 083e fdb6 223e 9c3c d33c
000000c0: 5ee5 11bc 7edc 3bbe bce5 7b3d 9f94 6ebd
000000d0: ebf6 cfbe ec4b 30be f0a1 13bd 0925 1abe
000000e0: abad dcbd 6da9 96bb fb81 01be 019c 28be
000000f0: ca85 263e 2d8a 2ebb 4a9f d7bd c5ea eebc
00000100: 5174 013e 7c86 04bd f4e5 8cbd 9adb 733d
00000110: 8f0a 833d 1a59 85bc cd31 df3d bbd9 2b3c
00000120: fd39 343d a915 553e 3559 c83d 94b9 4c3e
00000130: 006b 3c3e fad3 e83d 4789 043d e55b 243e
00000140: 7660 9a3e 2f2d e5be 04a5 9fbd 9f32 433d
00000150: 4e97 e2bc ac1f ef3c 4d47 cebe aaf7 0abc
00000160: e6e7 b3be 31e7 b83d 3cd4 283e 43db 5b3e
00000170: 67c7 1fbb 8df1 f03c 420a 4d3e 1a4a ae3d
00000180: 1f6e 5a3e a7b4 0e3d 9844 09be 7939 323e
00000190: ed8d 1d3e b540 28be 07c3 9a3c a136 d7bd
000001a0: d533 3a3e 451c 083e 2d83 db3d cac0 3dbe
000001b0: 734f 66be 3b0e 2d3e e578 8cbd 9880 5ebd
000001c0: cb23 a13d a19b 16bd 59bd 653d e8d2 073e
000001d0: 9e5c 83be 341c ecbd ee26 b4bc 2d0e 16be
000001e0: cc90 153d 8954 493e 98ad 023d ac5d 8b3e
000001f0: fdd2 ae3c 3f1e af3d 970a 9abd 38ba ed3c
00000200: 2383 70bb 3632 7bbe 2251 233d 5adb 973d
00000210: e115 06bd d4da 803e 1f0b 123d 370e f2ba
00000220: 7f46 593e b673 503e b3ac afbd bc2d ec39
00000230: dd0e 4cbd 1868 1f3d d574 9abd 8781 033e
00000240: cff3 41be dc20 34bd 3982 893d 656b c8bd
00000250: 21be 32be 6251 4c3d e747 343e 95a7 453e
00000260: 3f1f 4dbe 1b01 8a3e d612 0ebe 655c 693e
00000270: 05ef 8ebe 8e04 a5bd ab8b ae3e 92d3 023d
00000280: 203f 49be 8390 8ebe 5ce8 9c3e 6588 aa3c
00000290: 7746 1d3d 6678 403e c5e6 c93b b502 b8bc
000002a0: fc27 7abe 3003 14bd 6eab 94bd 41c3 6dbe
000002b0: 3a37 c8bd bda9 0abe 1c5b 07bc a2ce 1ebe
000002c0: c848 77be 0cb1 93bd 8041 55be ccad 0c3e
000002d0: d818 4fbc bb27 d23d 40c9 0fbd 82bd 143a
000002e0: a17e f6bd bdfb e7bd fb07 d73d b4e8 9b3e
000002f0: a78e 203c da06 7c3d 7948 e4bd aa1f bbbd
00000300: d07d 123e cdc0 453c 9377 d4bd 01c7 aabb
00000310: d9bc 57be 09c3 0e3e 0e26 413c 6e68 3dbd
00000320: b5e0 4d3e 0932 30bd e74a 583c ba8f 92bd
00000330: c36e 633d f01c 4bbe ae9a 96bd 4503 39bd
00000340: ca37 313e 86d9 4fbe 67c6 8abe 846c 8ebc
00000350: d739 83bd 061f 6c3d bb32 8b3e d73d 47bd
00000360: 0fb8 9cbd f582 17be 42ea c1bd fd3f 243c
00000370: b8d7 acbd 3270 4abd c896 b1bd 117a 73bd
00000380: f95a 4abd fec0 54be 1f99 4c3e b52b a4bd
00000390: 4886 76be 76c3 1e3e 3936 823e 2a2f 43be
000003a0: 4149 f0bd c707 6dbc f58e e5bc 04fe ef3d
000003b0: 8dea 0dbb a366 723d 2407 8d3e 4cb5 4c3d
000003c0: 6b72 52bd d92c f0bd d3b4 563b 0334 07bc
000003d0: 1f4f 3e3d 0dfa 39be 9087 07bd d9cf 5e3d
000003e0: 1a42 323d 4235 fc3d 3499 013e eb74 9fbb
000003f0: 5174 7b3b fc23 f43c 3f23 653e 9029 3b3d

bias f4 [12]
0.10317851 0.038720347 -0.008959479 0.06803773 0.023473019 -0.007938915 -0.007995096 -0.008105583
0.08467664 -0.04495471 0.041775513 -0.022830203
00000000: 414f d33d 3a99 1e3d c7ca 12bc 5e57 8b3d
00000010: 7d4a c03c 3912 02bc ddfd 02bc 47cd 04bc
00000020: f26a ad3d 6e22 38bd cd1c 2b3d 6806 bbbc

weight f4 [12]
0.30358326 0.22942393 0.24628396 0.28624475 0.23732316 0.7352605 0.9747083 1.2857482
0.77051276 0.3430918 0.9484971 0.24098851
00000000: 446f 9b3e 1bee 6a3e dd31 7c3e ac8e 923e
00000010: d804 733e 083a 3c3f 7c86 793f 6693 a43f
00000020: 5340 453f baa9 af3e b5d0 723f b1c5 763e

weight f4 [56, 12, 1, 1]
0.32132503 -0.2668612 -0.19324051 -0.019485176 0.22595261 0.06648819 0.35841444 -0.024300978
0.11031656 0.21782112 -0.17124654 -0.023517897 0.13441156 -0.29090706 0.33307981 -0.14511351
-0.004492236 0.06148702 -0.031612687 -0.025458392 -0.02110659 -0.14993256 0.15429406 0.10027359
0.11605504 -0.012602834 0.07275749 0.21324833 -0.30874577 0.08059051 -0.18328111 -0.08380446
0.3531441 -0.19320397 0.13166015 0.15064028 -0.07377546 0.0032617815 -0.048500936 0.12803148
0.41660205 -0.1457146 -0.090441376 -0.034649596 0.27654347 -0.14251412 -0.058134675 -0.18370199
-0.13005544 0.13296643 -0.0027549446 -0.026028309 -0.36192706 -0.0011565471 0.50559855 -0.04664822
0.32655203 0.15212104 -0.035773534 0.018435394 -0.091193795 -0.07524482 -0.045871723 0.25029224
-0.2882157 0.07709827 0.034450144 0.033627465 -0.085033275 0.10517786 -0.10391709 -0.06802166
-0.22866927 0.04761698 0.16072215 0.22274959 -0.070715986 0.11781599 0.085327454 -0.03152117
0.02710254 -0.16952114 -0.15403633 0.25045192 -0.044332787 0.015986772 -0.2994749 0.27885917
-0.087122865 0.06689545 0.0509671 0.42171428 0.010619306 0.20568869 -0.09735727 0.10720085
-0.18523231 0.19106923 -0.07225362 0.061075814 -0.2447772 -0.04047603 -0.053129546 0.013217719
-0.40838894 -0.12362393 -0.4443494 -0.12517494 -0.10845574 -0.2626296 0.17960133 0.2234681
0.27016637 -0.36659706 0.33917326 -0.09690413 0.16432048 -0.48299053 -0.08104548 -0.37499052
0.21363007 0.000685391 0.17737864 -0.111620314 -0.07492648 0.08283342 -0.016061261 -0.16964781
-0.007982873 0.08373866 0.11020949 -0.18075326 -0.21194303 0.1513393 0.15010355 0.20774414
0.2803487 0.04265615 -0.047738828 -0.0424908 -0.36445886 0.03290434 0.16175373 -0.13128258
-0.020983497 0.25908434 -0.24157694 0.20007889 -0.30006167 -0.06618842 0.26682732 0.031294335
-0.29915538 0.049386993 0.0355744 0.2134487 -0.151581 -0.2619198 0.20643575 0.12730591
0.20498143 0.12716621 0.1268121 0.016946305 -0.038722545 0.09937818 0.27213556 0.31476036
0.33723676 -0.08653844 -0.05183168 -0.09180268 0.18474372 -0.029714603 0.12254413 0.026258633
-0.053094696 0.14273137 0.20224592 -0.04743603 0.0663742 0.16765663 0.11939128 -0.10111924
0.13983251 -0.09182215 0.33875158 0.10501367 0.027337598 -0.27839544 0.08589469 0.0034044238
0.1754305 0.21746504 -0.13739635 0.07215296 0.25941065 -0.24103108 -0.32310325 -0.2036736
0.25316367 -0.057326682 0.33650148 0.19016017 -0.013905396 0.12642078 0.10375839 0.11839223
-0.04021148 0.4769852 0.14720413 0.18230465 -0.108608015 -0.04856382 0.24490105 0.36575285
0.33229727 0.023574475 -0.12390515 0.11353235 -0.026013538 -0.093625285 -0.10665059 0.21646853
0.16176775 0.19904698 -0.012268285 0.018210161 -0.09294005 -0.14085868 0.06455536 -0.32108924
0.06322503 3.628417e-05 -0.059330128 0.09716272 0.2047495 0.25056818 -0.39347693 0.19567628
0.3078366 0.16005151 -0.10327131 -0.26021227 -0.20334977 -0.14364599 -0.27647725 0.06929002
0.18934469 -0.067018166 -0.21969688 -0.39285836 0.121192545 -0.18205334 -0.2856277 -0.31826645
00000000: b784 a43e 08a2 88be d7e0 45be 609f 9fbc
00000010: 1f60 673e f62a 883d 1982 b73e d812 c7bc
00000020: a6ed e13d 800c 5f3e 415b 2fbe 9ba8 c0bc
00000030: 2fa3 093e c5f1 94be 7089 aa3e a398 14be
00000040: 9b33 93bb d0d9 7b3d 4e7c 01bd 1e8e d0bc
00000050: bae7 acbc ec87 19be 43ff 1d3e 3d5c cd3d
00000060: 44ae ed3d 1e7c 4ebc e101 953d c55d 5a3e
00000070: ed13 9ebe a30c a53d 0bae 3bbe aca1 abbd
00000080: 4ecf b43e 43d7 45be ebd1 063e 7241 1a3e
00000090: 9717 97bd 9dc3 553b eba8 46bd af1a 033e
000000a0: dd4c d53e 3536 15be 5439 b9bd bcec 0dbd
000000b0: 1b97 8d3e 39ef 11be a01e 6ebd 601c 3cbe
000000c0: 412d 05be 5a28 083e 4d8c 34bb 5239 d5bc
000000d0: 814e b9be 4897 97ba e86e 013f 3412 3fbd
000000e0: d431 a73e 9ec5 1b3e 4587 12bd d305 973c
000000f0: d0c3 babd f519 9abd fde3 3bbd 4e26 803e
00000100: 0291 93be b3e5 9d3d 981b 0d3d f4bc 093d
00000110: ed25 aebd 7d67 d73d 7cd2 d4bd f14e 8bbd
00000120: 4728 6abe 060a 433d 5994 243e 7818 643e
00000130: 8bd3 90bd 8249 f13d 29c0 ae3d 581c 01bd
00000140: 2506 de3c f396 2dbe b3bb 1dbe 3c3b 803e
00000150: 4c96 35bd b1f6 823c c654 99be a1c6 8e3e
00000160: 796d b2bd 7b00 893d e1c2 503d efea d73e
00000170: 99fc 2d3c 0ea0 523e 4063 c7bd 1f8c db3d
00000180: 8aad 3dbe a7a7 433e b5f9 93bd a22a 7a3d
00000190: e0a6 7abe 32ca 25bd 5e9e 59bd 228f 583c
000001a0: 5b18 d1be 8b2e fdbd c481 e3be dc2d 00be
000001b0: 0b1e debd 6377 86be 69e9 373e d2d4 643e
000001c0: 3f53 8a3e 9cb2 bbbe 1ea8 ad3e ac75 c6bd
000001d0: a143 283e 894a f7be 2cfb a5bd c2fe bfbe
000001e0: d7c1 5a3e d0ab 333a bfa2 353e 3199 e4bd
000001f0: 0e73 99bd 91a4 a93d e892 83bc 28b8 2dbe
00000200: 99ca 02bc 2d7f ab3d 83b5 e13d 6217 39be
00000210: 9807 59be b1f8 1a3e bfb4 193e e1ba 543e
00000220: dd89 8f3e 37b8 2e3d ca89 43bd d50a 2ebd
00000230: 5a9a babe b4c6 063d c5a2 253e f16e 06be
00000240: 95e5 abbc b4a6 843e f25f 77be 7be1 4c3e
00000250: afa1 99be cb8d 87bd 979d 883e 7d2e 003d
00000260: e52a 99be 044a 4a3d 76b6 113d 4c92 5a3e
00000270: 0d38 1bbe 5a1a 86be e563 533e 7b5c 023e
00000280: a7e6 513e dc37 023e 08db 013e fad2 8a3c
00000290: 889b 1ebd ca86 cb3d 5a55 8b3e 4528 a13e
000002a0: 4caa ac3e 113b b1bd 754d 54bd 0b03 bcbd
000002b0: 752d 3d3e 0a6c f3bc 6bf8 fa3d 581c d73c
000002c0: d379 59bd 2c28 123e 8e19 4f3e 484c 42bd
000002d0: 32ef 873d 2eae 2b3e 6a83 f43d 9b17 cfbd
000002e0: 4130 0f3e 400d bcbd d970 ad3e 6811 d73d
000002f0: 19f3 df3c d989 8ebe 8ee9 af3d c11c 5f3b
00000300: 0ea4 333e 28af 5e3e a1b1 0cbe eec4 933d
00000310: 79d1 843e dad0 76be ca6d a5be d08f 50be
00000320: ab9e 813e 62cf 6abd ec49 ac3e 59b9 423e
00000330: 75d3 63bc 7374 013e 477f d43d a077 f23d
00000340: cbb4 24bd 6737 f43e aebc 163e 12ae 3a3e
00000350: e16d debd dbea 46bd 57c7 7a3e f543 bb3e
00000360: de22 aa3e 421f c13c fcc1 fdbd a683 e83d
00000370: 581a d5bc 9dbe bfbd a06b dabd eda9 5d3e
00000380: 72a6 253e f9d2 4b3e eb00 49bc 7a2d 953c
00000390: 5a57 bebd 423d 10be 9a35 843d cf65 a4be
000003a0: 207c 813d d52f 1838 2604 73bd 40fd c63d
000003b0: daa9 513e 794a 803e cf75 c9be 5d5f 483e
000003c0: c29c 9d3e 8be4 233e e97f d3bd 8b3a 85be
000003d0: ec3a 50be ef17 13be 6d8e 8dbe ede7 8d3d
000003e0: 93e3 413e d240 89bd 38f8 60be bb24 c9be
000003f0: cc33 f83d 316c 3abe cb3d 92be d2f3 a2be
