Saved Models/fsrcnn_model_scale3.pth (torch, 61600 bytes, 22 tensors)

weight f4 [56, 1, 5, 5]
0	0xbdadcafd	-0.084859826
1	0xbdbd8036	-0.0925297
2	0x3e0e7576	0.13911995
3	0x3d8f09f9	0.06984324
4	0x3cef83ce	0.029237654
5	0xbd7a2eaf	-0.061079677
6	0xbda408ab	-0.08009466
7	0x3e0d8439	0.1381997
8	0x3d8f76b4	0.07005063
9	0xbc23e48d	-0.010003221
10	0xbd40401b	-0.046936136
11	0x3e06eb94	0.13175803
12	0x3eae5ab8	0.34053588
13	0xbd9dbbaf	-0.077018134
14	0x3dced5b0	0.100993514
15	0xbe317914	-0.17331344
16	0x3d092958	0.033486694
17	0x3e19f458	0.15034616
18	0x3d7518ca	0.059838094
19	0x3d4c2d8f	0.049848136
20	0xbd60f8cc	-0.05492477
21	0xbbf6fefa	-0.00753772
22	0x3ddb49ff	0.10707473
23	0x3da15070	0.0787667
24	0xbd5e0a49	-0.054209027
25	0x3daf31dc	0.08554432
26	0xbd15d345	-0.036578435
27	0xbcb062df	-0.02153152
28	0x3c541bc9	0.012946078
29	0x3b94667c	0.0045288187
30	0xbb218f85	-0.0024652195
31	0xbdfd65cf	-0.12372934
32	0x3dbf9a45	0.093555965
33	0xbde9769b	-0.11399575
34	0x3c6564fe	0.014001129
35	0xbe1d46e5	-0.15359075
36	0x3e57c94b	0.21072881
37	0x3e9abf64	0.30224144
38	0x3e30cb6f	0.17265104
39	0x3daa6766	0.08320503
40	0x3de67aaf	0.11253869
41	0xbbbdb283	-0.0057891025
42	0x3db28637	0.08717006
43	0xbd85247c	-0.065010995
44	0x3d9004e7	0.07032185
45	0xbc190125	-0.009338652
46	0x3d30aa51	0.043131176
47	0xbcab7325	-0.020928929
48	0xbc4a57c8	-0.01235003
49	0xbdc66624	-0.096874505
50	0xbb9c12af	-0.0047629694
51	0xbcb828ca	-0.022480387
52	0xbd3aa162	-0.045564063
53	0x3cf09e06	0.029372226
54	0x3d10dc1a	0.035366155
55	0x3ced4826	0.028965067
56	0xbd7b3375	-0.06132837
57	0x3dad16ad	0.08451591
58	0xbd7ef25d	-0.062242854
59	0xbddb8ef8	-0.107206285
60	0xbd050fda	-0.03248582
61	0x3d8ec837	0.06971782
62	0x3f0d155f	0.55110735
63	0x3d8177f1	0.06321705
64	0x3da2d2d1	0.07950366
65	0xbd0a8c40	-0.03382516
66	0xbd576474	-0.052586034
67	0xbe01383b	-0.12619106
68	0x3e240cfd	0.1602058
69	0xbdbf5ad1	-0.09343494
70	0xbcbccf4e	-0.02304807
71	0xbcea3383	-0.028589016
72	0x3dcf5252	0.10123123
73	0x3d9ada90	0.07561219
74	0xbd8b899e	-0.06813358
75	0x3dca16c3	0.09867623
76	0xbd887ef5	-0.0666484
77	0xbc70b5be	-0.014691768
78	0x3d02f798	0.031974405
79	0x3da662b8	0.08124298
80	0x3d8a2874	0.06745997
81	0xbdd3b856	-0.10337894
82	0x3d116569	0.035497103
83	0x3e031ed7	0.12804733
84	0xbdc5186f	-0.09623801
85	0x3d9b3d2c	0.07580027
86	0x3ca707bb	0.020389428
87	0xbe5dd7b6	-0.21664318
88	0x3ab5fa66	0.0013883829
89	0xbeb9a4f4	-0.36258662
90	0x3e49f875	0.19723685
91	0xbe567c86	-0.2094594
92	0x3e207f6b	0.15673606
93	0x3e1cedc8	0.15325081
94	0xbe51031e	-0.20411345
95	0x3ea67db0	0.32517767
96	0x3cfdce48	0.030982152
97	0xbd816d07	-0.063196234
98	0xbcd45ac9	-0.025922196
99	0xbd83ac0e	-0.06429301
100	0xbd91577c	-0.070967644
101	0xbd1de1d0	-0.03854543
102	0x3d8dcf5a	0.06924315
103	0x3cc79461	0.024362745
104	0xbbae84c2	-0.0053258846
105	0x3c91371a	0.01772647
106	0x3c81a8a4	0.015827484
107	0xbbf31911	-0.0074187596
108	0x3de00fdd	0.10940526
109	0x3dc7fe89	0.097653456
110	0x3e12d8cf	0.14340518
111	0xbdb143cd	-0.0865551
112	0x3f2521a4	0.64504457
113	0x3d54035f	0.051761027
114	0xbdb8d73b	-0.09025427
115	0xbe0335de	-0.12813517
116	0xbc851aaf	-0.016248075
117	0xbd6f2a1c	-0.058389768
118	0xbd6f2d81	-0.058393005
119	0xbd26577c	-0.040610775
120	0x3cb09958	0.021557495
121	0xbc132ef6	-0.008983364
122	0x3c1c5851	0.009542541
123	0xbd7b67d5	-0.06137832
124	0x3da65a6e	0.08122717
125	0x3cc27b35	0.02374039
126	0x3d8b8507	0.06812482
127	0xbd9a229e	-0.07526134
128	0x3dc31fc6	0.09527545
129	0xbda37dae	-0.07982956
130	0xbda3c52f	-0.07996594
131	0x3e30aa7d	0.17252536
132	0x3d08a54c	0.033360764
133	0xbd2314ae	-0.039814644
134	0x3d91e617	0.07123964
135	0xbd0936d5	-0.033499558
136	0xbeb8db75	-0.36104932
137	0xbea09c94	-0.3136946
138	0x3e4f3c3a	0.20237818
139	0x3db58c61	0.08864666
140	0x3d9f2aad	0.07771812
141	0x3e9817e5	0.2970573
142	0xbea8309e	-0.32849592
143	0xbe2cd8cb	-0.16879575
144	0xbd703126	-0.05864062
145	0x3a474a8c	0.0007602356
146	0x3b45749c	0.003012932
147	0x3dc3e84b	0.09565791
148	0xbd1f2e83	-0.038862716
149	0x3d4dce36	0.050245486
150	0x3e1105b3	0.1416233
151	0x3e4adc12	0.19810513
152	0xbd4bdd69	-0.0497717
153	0xbd854010	-0.065063596
154	0x3cac0866	0.021000098
155	0xbc02749a	-0.00796237
156	0x3e84c00f	0.2592778
157	0x3e9cace4	0.30600655
158	0x3e0ba8fb	0.1363868
159	0xbd151735	-0.036399085
160	0xbe6841d5	-0.22681363
161	0x3e5432cc	0.20722502
162	0xbe4e750f	-0.20161842
163	0x3deb66c8	0.11494213
164	0x3db6bc02	0.089225784
165	0xbd4b1047	-0.04957607
166	0xbd80d1eb	-0.06290039
167	0x3d9e97b8	0.07743782
168	0xbdf48d2e	-0.119409904
169	0x3c8adbd2	0.016950522
170	0x3dba9028	0.09109527
171	0x3d232a98	0.039835542
172	0xbe1350c3	-0.14386277
173	0xbd567350	-0.052356064
174	0xbcddbe29	-0.027068214
175	0xbd39dfcb	-0.04537944
176	0xbd1417ea	-0.03615562
177	0x3d3602f0	0.044436395
178	0x3dd66fb6	0.10470526
179	0x3dad3d1e	0.08458923
180	0xbe11bde2	-0.14232591
181	0xbd2a5e2a	-0.041593708
182	0x3de0b846	0.10972647
183	0x3df8dbe7	0.12151318
184	0x3d412b01	0.047160152
185	0x3e26ebb8	0.16300857
186	0xbdcddedb	-0.10052272
187	0x3f01b556	0.5066732
188	0x3d88fe66	0.06689148
189	0x3e238850	0.15969968
190	0xbd87ad7d	-0.06624887
191	0x3e13b53c	0.14424604
192	0x3d3edfb8	0.046600074
193	0xbe00e597	-0.12587582
194	0xbdbdab06	-0.09261136
195	0xbcb2cf60	-0.0218274
196	0xbc20a181	-0.0098041305
197	0xbd7594e0	-0.05995643
198	0x3d242db8	0.040082663
199	0xbcdb22fa	-0.026750077
200	0xbe1a2450	-0.15052915
201	0x3e8b2110	0.27173662
202	0xbd14af7c	-0.036300167
203	0xbc9cbb12	-0.01913217
204	0xbe28521f	-0.16437577
205	0xbd8c3408	-0.06845862
206	0xbdf9194e	-0.121630296
207	0x3e068513	0.13136701
208	0xbc4c6d9f	-0.012477308
209	0x3dbba4f5	0.091623224
210	0x3da23f99	0.079222865
211	0xbefd0e86	-0.49425143
212	0x3d95f331	0.07321776
213	0xbe0795b0	-0.13240695
214	0xbdcf2521	-0.10114504
215	0x3e56ea3f	0.20987795
216	0x3e3afeda	0.1826128
217	0xbe0b1eca	-0.13585964
218	0xbd6a145e	-0.05714833
219	0xbed0a794	-0.40752852
220	0x3e38d4a4	0.18049866
221	0xbe2d0c14	-0.16899139
222	0xbd54c958	-0.05194983
223	0x3d92da3a	0.0717053
224	0x3d1e5fb6	0.038665496
225	0xbcb16509	-0.021654623
226	0xbd5e99ed	-0.054346014
227	0x3dccc8bb	0.09999224
228	0xbddb5819	-0.10710163
229	0xbe5c9078	-0.21539485
230	0xbd98eab5	-0.07466642
231	0xbe3ee32f	-0.18641351
232	0x3da4678c	0.080275625
233	0x3dfaabf0	0.12239826
234	0x3da575f4	0.080791384
235	0xbf24516f	-0.6418676
236	0x3e4568d3	0.19278269
237	0x3e0a6fc7	0.13519202
238	0x3d8f378c	0.069930166
239	0xbdbd0ba9	-0.092307396
240	0x3ea23c8b	0.31686816
241	0xbe10ace8	-0.14128458
242	0xbe8d51ad	-0.27601376
243	0xbd09d6fb	-0.033652287
244	0xbe0a2ce5	-0.13493688
245	0xbe2bd7c5	-0.16781528
246	0x3e05b186	0.13056001
247	0x3c5c7e1a	0.013457799
248	0x3dff2450	0.12458098
249	0x3e772cec	0.2413823
250	0xbd43d913	-0.04781444
251	0xbcc7a4cc	-0.024370573
252	0x3dac30c4	0.08407739
253	0x3d3f7acf	0.04674798
254	0xbd41fa19	-0.047357652
255	0xbe040c5e	-0.12895343

bias f4 [56]
0	0xbd80ef87	-0.06295686
1	0xbe160a0b	-0.14652269
2	0xbdbe9991	-0.09306634
3	0x3d86ed84	0.06588271
4	0xbcaf40e8	-0.021393254
5	0x3e656b09	0.22404112
6	0xbc6b49f4	-0.0143608935
7	0xbd6b4b62	-0.057444938
8	0x3cd73295	0.026269237
9	0x3d7f944a	0.06239728
10	0x3d022ab2	0.031779
11	0x3cde4f71	0.02713749
12	0x3dec51a7	0.115390114
13	0xbd989aa3	-0.074513696
14	0x3bf9330b	0.0076049617
15	0x3eaaa44e	0.3332848
16	0xbe1710c4	-0.1475249
17	0x3e2c6684	0.16835982
18	0xbd65de23	-0.05612005
19	0x3dbc6deb	0.09200653
20	0x3dc41043	0.09573414
21	0x3c7181e6	0.014740443
22	0xbe5966c9	-0.21230616
23	0xbe34fcac	-0.17674512
24	0xbdb5e9bd	-0.08882473
25	0x3ee33009	0.44372585
26	0x3ddda46e	0.10822378
27	0x3d08ae97	0.033369627
28	0x3c849dac	0.016188465
29	0xbdda8850	-0.10670531
30	0xbd23604f	-0.03988677
31	0x3d8be450	0.068306565
32	0x3d9837d2	0.07432522
33	0xbd317cc6	-0.043331884
34	0x3e0298cc	0.127536
35	0x3e29ea4d	0.16593285
36	0xbde39acf	-0.11113512
37	0xbdc121bb	-0.09430262
38	0x3dd21278	0.10257429
39	0xbd3ec04e	-0.046570115
40	0xbe9df8d9	-0.30853918
41	0x3b08fcb6	0.002090258
42	0x3d93d031	0.07217444
43	0x3d6c08e1	0.057625655
44	0xbd8aaf7c	-0.06771752
45	0xbce4c46f	-0.027925698
46	0x3dd926d1	0.10603107
47	0x3d2570d8	0.04039082
48	0x3d363fe9	0.044494543
49	0x3d833ccf	0.06408083
50	0x3d1fd483	0.039021026
51	0xbd70b184	-0.058763042
52	0x3d865f45	0.0656114
53	0x3b9c7031	0.0047741164
54	0xbdb70d7d	-0.089381196
55	0x3d723705	0.059134502

weight f4 [56]
0	0xbf85fe96	-1.0468318
1	0x3d242904	0.040078178
2	0x3fb72a54	1.4309793
3	0xbeafef2d	-0.34362164
4	0x3ff69474	1.9264054
5	0xbf6febfc	-0.9371946
6	0xbea298ef	-0.31757304
7	0x3fe3bed4	1.7792611
8	0xbd667851	-0.056267086
9	0xbceb1aa8	-0.028699234
10	0xbf8cd0d4	-1.1001229
11	0x3dcc6f12	0.099821225
12	0xbf950a02	-1.1643679
13	0xbf9c1b43	-1.219582
14	0x3cb092d3	0.021554386
15	0x402d3226	2.7061858
16	0x3f96bbed	1.17761
17	0xb9bcff17	-0.0003604821
18	0xbda7843c	-0.081795186
19	0xbf6cdc3d	-0.92523557
20	0xbf5a33b7	-0.8523516
21	0xbea65df8	-0.32493567
22	0x3c3c60fe	0.011497734
23	0x3eea42f0	0.45754194
24	0xbe8e3338	-0.27773452
25	0x4067a053	3.6191604
26	0xbd00b59d	-0.0314232
27	0xbd250a9e	-0.04029333
28	0x3e0add49	0.13560976
29	0xbf27c65b	-0.6553704
30	0xbf12b2b2	-0.5730392
31	0x400df75e	2.218223
32	0x3a62746b	0.00086385634
33	0xbeff54e1	-0.49869445
34	0xbe2d4aa7	-0.16923009
35	0xbf1a56c3	-0.6028864
36	0xbe24ba27	-0.16086636
37	0xbd8b0b84	-0.06789306
38	0xbdb84e00	-0.08999252
39	0xbdb4f4f7	-0.08835786
40	0xbdda263c	-0.10651824
41	0xbfbbe5f2	-1.4679549
42	0x3daa76c4	0.08323434
43	0xbd03e2b7	-0.032198634
44	0x3c22aa19	0.00992825
45	0xbc357834	-0.011076022
46	0x3e00a9b6	0.1256474
47	0xbeda3785	-0.42620483
48	0x3f90dc89	1.1317302
49	0x3bebdb0b	0.007197743
50	0xbdec1a3f	-0.115284435
51	0x3f2402cc	0.6406677
52	0x3c88ce3c	0.016699903
53	0x3e4720bf	0.19446085
54	0xbd063996	-0.032769762
55	0xbdc3b845	-0.09556631

weight f4 [12, 56, 1, 1]
0	0x3bacbda0	0.0052716285
1	0xbf20caef	-0.6280965
2	0xbe4d5ff0	-0.20056129
3	0x3cdda65a	0.027056862
4	0xbe13679c	-0.14394993
5	0xbf0338ae	-0.5125836
6	0xbcf1a782	-0.02949882
7	0xbddc0b47	-0.107443385
8	0xbd8a34b8	-0.067483366
9	0xbe034217	-0.1281818
10	0x3e3b7e55	0.1830991
11	0x3f019ed2	0.50632966
12	0x3eb292c4	0.34877598
13	0xbe325235	-0.17414172
14	0x3e35bed4	0.17748576
15	0x3c8be2a1	0.017075839
16	0x3ee91a9b	0.4552811
17	0xbeff06d4	-0.49809897
18	0xbf9aaceb	-1.208402
19	0x3c38b43c	0.01127344
20	0x3e8f3c37	0.27975628
21	0xbea0ec58	-0.31430316
22	0x3dcad439	0.099037595
23	0xbe9ac914	-0.30231535
24	0x3da5ea57	0.081013374
25	0x3ebb6b14	0.36605132
26	0x3f834726	1.0256088
27	0xbe92e394	-0.28689253
28	0x3e8d1e00	0.2756195
29	0xbe920ede	-0.28526968
30	0x3ed2f8f7	0.4120557
31	0x3e927236	0.2860276
32	0xbead8ce7	-0.33896562
33	0x3f294100	0.6611481
34	0xbf01f644	-0.50766397
35	0xbed0a607	-0.4075167
36	0x3ef858b6	0.4850518
37	0xbf4030c1	-0.7507439
38	0xbdfb0339	-0.12256474
39	0xbe0447e0	-0.12918043
40	0x3f09db98	0.538507
41	0x3e012ed1	0.12615515
42	0x3c961a50	0.018323094
43	0xbfa7096e	-1.3049753
44	0xbeccc70a	-0.39995605
45	0x3f630e13	0.8869335
46	0xbea7bbf4	-0.32760584
47	0x3f51bb0d	0.8192604
48	0xbe00368a	-0.12520805
49	0x3ec5615b	0.3855084
50	0xbe0b79bb	-0.13620655
51	0xbdc6b4a8	-0.09702426
52	0x3f53f98e	0.82802665
53	0xbf026fc4	-0.5095179
54	0x3ed2292a	0.4104703
55	0xbe18e7d6	-0.14932188
56	0xbf21ab1b	-0.6315171
57	0xbd87beb8	-0.066281736
58	0xbe2dac2c	-0.1696021
59	0x3e0fa7e9	0.14028896
60	0xbe2c822b	-0.1684653
61	0x3ec255b4	0.3795601
62	0x3f2fca9f	0.6866855
63	0x3e92b985	0.28657165
64	0x3cc4560e	0.023966815
65	0x3f5bac82	0.858101
66	0x3decfa53	0.11571183
67	0x3ee9313b	0.45545372
68	0x3f0b70e0	0.5446911
69	0xbe8d0bf9	-0.27548197
70	0x3ddec2c1	0.1087699
71	0xbf4ec9ae	-0.8077649
72	0xbf71630a	-0.94291747
73	0x3f525e14	0.821748
74	0xbf1245ba	-0.57137644
75	0x3e352d9f	0.17693184
76	0x3cb55266	0.022134017
77	0xbf18f5a9	-0.5974985
78	0xbe80ea60	-0.25178814
79	0x3ec6f523	0.388589
80	0x3f30a4e8	0.69001627
81	0xbece9b5d	-0.40352908
82	0xbf558c6e	-0.83417404
83	0x3d5e88b3	0.054329585
84	0x3f96aec4	1.1772084
85	0x3da9ea92	0.08296694
86	0xbddba591	-0.10724939
87	0x3f1c7831	0.611209
88	0x3eae0de7	0.33994982
89	0x3e98eb8c	0.29867208
90	0xbdfdb0db	-0.12387248
91	0x3dc86f75	0.09786884
92	0xbdc92a71	-0.09822548
93	0xbf55044c	-0.8320968
94	0x3e57abb7	0.21061598
95	0xbeb0eba2	-0.34554774
96	0x3df96bb6	0.12178747
97	0xbf194f88	-0.5988698
98	0xbf0bdd30	-0.5463438
99	0xbf88fa6c	-1.0701423
100	0x3e1cbf0f	0.15307258
101	0xbe58221b	-0.2110676
102	0x3d849559	0.06473798
103	0xbf978449	-1.1837245
104	0xbd64bc2b	-0.055843513
105	0x3d9d8449	0.07691247
106	0x3d319b9c	0.04336129
107	0x3da21b37	0.07915347
108	0xbf883263	-1.0640377
109	0xbef7fb9c	-0.4843415
110	0xbd3c1e70	-0.045927465
111	0x3f2420e6	0.641127
112	0xbf0aac66	-0.5416931
113	0x3f2947dd	0.6612528
114	0x3eee64d1	0.46561292
115	0xbe4ed8f7	-0.20199953
116	0xbdd41e8f	-0.10357391
117	0xbed25463	-0.41080007
118	0xbc3e9528	-0.011632241
119	0xbe6aca4d	-0.22928734
120	0x3f24fbd0	0.64446735
121	0x3db69d17	0.08916681
122	0x3da10e31	0.07864035
123	0xbe0af3a4	-0.13569504
124	0xbf00932a	-0.50224555
125	0x3f12aaf3	0.572921
126	0x3f07d1e8	0.53054667
127	0x3cc49cb0	0.024000496
128	0x3e6e73a3	0.232863
129	0xbe6f14f6	-0.2334784
130	0x3e28f232	0.1649864
131	0x3e54b125	0.207707
132	0x3e863395	0.2621123
133	0x3f04d56a	0.51888144
134	0x3d4a102a	0.04933182
135	0x3f298421	0.6621724
136	0x3c1f7d30	0.009734437
137	0x3ec18962	0.37800127
138	0x3e2ae1ae	0.16687652
139	0x3f084adf	0.53239244
140	0x3e1bfe8e	0.15233824
141	0x3dd70bba	0.105002835
142	0x3da1d39b	0.07901689
143	0x3ecb3cdc	0.3969487
144	0x3e93d146	0.288706
145	0x3e77fd67	0.24217759
146	0x3ed4364a	0.4144767
147	0xbe1c3bc7	-0.15257178
148	0x3ed24455	0.41067758
149	0x3e020360	0.126966
150	0x3ec4b6b7	0.3842065
151	0xbf0075ad	-0.5017956
152	0x3e046318	0.12928426
153	0xbce4d02b	-0.027931293
154	0x3deaf6c4	0.11472848
155	0xbe3cafa9	-0.18426384
156	0x3ce6cd56	0.028174084
157	0xbe001993	-0.12509756
158	0xbea84174	-0.32862437
159	0xbef1c8e7	-0.4722359
160	0xbe04c536	-0.12965855
161	0x3e862f21	0.26207832
162	0x3d3d9ace	0.04629021
163	0x3f296747	0.66173214
164	0xbf05b247	-0.52225155
165	0xbee33568	-0.44376683
166	0x3ecd327f	0.40077588
167	0xbbe12395	-0.006870697
168	0x3ef8060a	0.48442107
169	0xbd3517f9	-0.044212315
170	0x3dd688ed	0.10475335
171	0x3eacb20f	0.33729598
172	0x3dc46926	0.09590368
173	0x3e58cc0f	0.21171592
174	0x3e03864f	0.12844203
175	0xbedd789b	-0.43256077
176	0x3ec718c0	0.3888607
177	0x3f2c4498	0.67292166
178	0x3e9293f3	0.286285
179	0xbf1cfdba	-0.61324656
180	0xbe551684	-0.2080937
181	0xbe805b6e	-0.25069755
182	0xbd2c608f	-0.042084273
183	0xbad6be19	-0.0016383558
184	0xbeddfdb7	-0.43357632
185	0xbf2bb166	-0.67067564
186	0xbf886f74	-1.0659013
187	0xbec4f516	-0.38468236
188	0xbdc1e7d6	-0.09468047
189	0x3f966d01	1.1752015
190	0xbfb1ffdc	-1.3906207
191	0x3e8a654f	0.27030417
192	0xbed0410e	-0.40674633
193	0x3e81172f	0.25213
194	0xbe1efe73	-0.15526752
195	0x3ddd14db	0.107949935
196	0x3f414258	0.7549186
197	0x3e832eef	0.25621745
198	0xbd933f6b	-0.071898304
199	0xbe629b55	-0.22129567
200	0x3f0416f5	0.5159753
201	0xbeac0c00	-0.33602905
202	0xbefc98a8	-0.49335217
203	0x3e872b34	0.2640015
204	0xbe1ec406	-0.15504465
205	0xbf36b630	-0.71371746
206	0x3e8d303d	0.27575865
207	0x3ef98113	0.48731288
208	0x3ee3a2a4	0.44460022
209	0x3d8d3217	0.068943195
210	0xbf1d97c7	-0.6155972
211	0xbf95e315	-1.1709925
212	0x3ed16a3e	0.4090137
213	0x3e2d7a07	0.16941081
214	0x3f0fb142	0.5612985
215	0xbc780dcf	-0.015140011
216	0x3dd2fb76	0.103018686
217	0xbeaab8c3	-0.33344087
218	0xbef96fee	-0.48718208
219	0x3cffeb2b	0.031240067
220	0xbeca85f1	-0.39555314
221	0xbf188017	-0.5957045
222	0xbd9ac566	-0.07557182
223	0xbeeaaa0f	-0.4583287
224	0x3f2a6ffe	0.66577137
225	0x3ea40534	0.3203522
226	0xbe3a28cf	-0.1817963
227	0x3d0a10dc	0.033707485
228	0xbe360f37	-0.17779242
229	0x3ebc28e5	0.3674995
230	0xbddff102	-0.109346405
231	0xbe173cc9	-0.14769281
232	0xbf9b68a0	-1.2141304
233	0xbede29db	-0.43391308
234	0x3ea11eee	0.3146891
235	0xbe3fe32c	-0.18739003
236	0x3ea80fb2	0.32824475
237	0xbf06596a	-0.52480185
238	0xbe99f6d7	-0.30071136
239	0x3e9ff247	0.3123953
240	0x3e39478b	0.18093698
241	0x3ea7a2de	0.32741445
242	0xbf0de10e	-0.5542153
243	0xbe5fd39b	-0.21858065
244	0x3dca30c0	0.098725796
245	0xbe6accca	-0.22929683
246	0x3f129483	0.5725786
247	0xbefe67fb	-0.49688706
248	0xbe2a2376	-0.1661509
249	0xbefb180e	-0.4904179
250	0xbf1bfacb	-0.60929555
251	0xbef009a0	-0.46882343
252	0xbe649a8f	-0.22324584
253	0x3dc0fede	0.09423612
254	0x3f0973e4	0.5369246
255	0xbd622d51	-0.055219

bias f4 [12]
0	0xbcc8b212	-0.024498973
1	0x3e45d48b	0.1931936
2	0xbe8eaa27	-0.2786419
3	0xbe1cc99b	-0.15311281
4	0xbe147a3a	-0.1449975
5	0xbdbddfea	-0.09271224
6	0x3ddf3ab5	0.10899869
7	0x3e36ff48	0.1787082
8	0x3e3c56c2	0.1839247
9	0x3e35440f	0.17701744
10	0xbd3aca15	-0.045602877
11	0xbdbe6257	-0.092961006

weight f4 [12]
0	0x3f7225ad	0.9458874
1	0x3e81dd17	0.2536399
2	0x3f797558	0.9744468
3	0x3f899fc4	1.0751882
4	0x3f7c2dad	0.98507196
5	0x3e734646	0.23757276
6	0x3e74415c	0.23853058
7	0x3f6cbb71	0.9247351
8	0x3f729ac6	0.94767416
9	0x3e1bd6a2	0.15218595
10	0x3f92822c	1.1445975
11	0x3f2b2bf7	0.6686396

weight f4 [12, 12, 3, 3]
0	0xbe08367a	-0.13302031
1	0x3df22593	0.11823573
2	0xbc8aa6c5	-0.016925225
3	0x3e8128ea	0.25226527
4	0xbd7c2945	-0.061562795
5	0x3e8d0270	0.27540922
6	0x3dd04ade	0.1017053
7	0xbea46844	-0.32110798
8	0xbe2368f7	-0.1595801
9	0x3e17a96b	0.14810722
10	0xbd99e0b7	-0.07513564
11	0x3df5e63d	0.12006805
12	0xbe869ee2	-0.26293093
13	0xbead524d	-0.33851853
14	0xbe120ffa	-0.14263907
15	0x3d3743d7	0.04474243
16	0xbe86b585	-0.26310363
17	0xbec31375	-0.38100782
18	0xba5c3f44	-0.00084017613
19	0x3d4831db	0.04887567
20	0x3d435f4b	0.0476983
21	0xbe165d44	-0.14684016
22	0xbe9e9e77	-0.30980274
23	0xbcf4e4df	-0.02989429
24	0x3dd35aa8	0.10320026
25	0x3dbf691c	0.0934622
26	0xbd002351	-0.03128368
27	0xbde28aeb	-0.11061653
28	0xbbfc8419	-0.007706177
29	0x3d922fb8	0.07138008
30	0xbe96502f	-0.2935805
31	0xbda51435	-0.08060495
32	0x3e71fdbc	0.23631948
33	0x3ec18f23	0.37804517
34	0xbdb0ea1b	-0.08638402
35	0xbe134604	-0.14382178
36	0xbd255fe6	-0.04037466
37	0x3e0e9533	0.13924102
38	0xbe747231	-0.23871686
39	0x3d1d6ac8	0.038431913
40	0xbeae273c	-0.34014308
41	0xbd998607	-0.07496267
42	0xbd1b349f	-0.03789198
43	0x3d9b5e9a	0.07586403
44	0xbde63c99	-0.11242027
45	0x3e75503d	0.2395639
46	0x3e390cd2	0.18071297
47	0x3d63201b	0.05545054
48	0xbe3cc20a	-0.18433395
49	0x3e1a4389	0.15064825
50	0x3ec6d658	0.38835406
51	0x3d8325d2	0.06403698
52	0x3db5fa90	0.08885682
53	0xbd980aaf	-0.07423913
54	0x3eb7dd8b	0.3591121
55	0xbdd2b04f	-0.102875344
56	0xbda2d051	-0.079498895
57	0xbdd67283	-0.1047106
58	0x3ec8fd7d	0.39255896
59	0x3e2e92b9	0.17048158
60	0x3dd61f77	0.1045522
61	0x3d3ed305	0.046587963
62	0x3d3fb9df	0.04680812
63	0x3ea93b6a	0.33053142
64	0xbe00613d	-0.12537093
65	0x3dd28efe	0.1028118
66	0x3e143f6e	0.14477322
67	0x3e900e80	0.28136063
68	0x3e132cf6	0.1437262
69	0xbc576356	-0.013146242
70	0xbe81684d	-0.25274888
71	0x3de91bea	0.11382277
72	0xbe0a8c5e	-0.13530108
73	0xbd6612b5	-0.056170184
74	0xbe8c6074	-0.27417338
75	0xbd61a493	-0.05508859
76	0x3ed0f174	0.40809214
77	0xbdff0741	-0.124525554
78	0x3cc211fb	0.023690214
79	0x3cbedd46	0.02329887
80	0xbccc7467	-0.024957849
81	0x3df5a6ba	0.11994691
82	0xbd803465	-0.062599935
83	0x3e580029	0.21093811
84	0x3d852d5c	0.06502792
85	0x3dc0d89b	0.09416314
86	0x3ee93003	0.45544443
87	0x3e343a54	0.17600375
88	0xbdd48816	-0.10377519
89	0xbe924200	-0.2856598
90	0xbcc40bcf	-0.023931412
91	0xbeae4df9	-0.34043863
92	0x3e287a3f	0.16452883
93	0xb8f86eca	-0.000118461976
94	0x3e96b0ff	0.29431912
95	0xbc7e193f	-0.015508949
96	0x3e8cc691	0.27495244
97	0x3d766995	0.060159285
98	0x3c85430d	0.016267324
99	0x3d951b75	0.07280628
100	0xbe1c9024	-0.1528936
101	0x3d36f423	0.04466642
102	0xbd3145e6	-0.04327955
103	0x3d946062	0.07244946
104	0xbeac8257	-0.3369319
105	0x3e9fb4d3	0.31192645
106	0xbd17d811	-0.03707129
107	0x3e175cb2	0.14781454
108	0x3e3d525f	0.18488453
109	0xbe7684e2	-0.24074128
110	0x3d82ea5d	0.063923575
111	0x3c3c997c	0.011511203
112	0xbda87a0f	-0.08226406
113	0xbd05e90f	-0.032692965
114	0x3e1c5d02	0.15269855
115	0x3dfecdea	0.12441619
116	0x3c6c828a	0.01443542
117	0x3c2ecc2c	0.010668796
118	0xbe4ef8f5	-0.20212157
119	0x3d1e84d7	0.038700905
120	0xbe995046	-0.29944056
121	0xbd95ef64	-0.07321051
122	0x3c1c42e1	0.00953743
123	0x3e51ec03	0.20500188
124	0x3ef59936	0.47968453
125	0xbe5db626	-0.21651515
126	0xbe2a2496	-0.16615519
127	0x3cb05298	0.021523759
128	0xbe2f1fb0	-0.17101932
129	0xbcfb9b31	-0.03071365
130	0xbe340e62	-0.17583612
131	0x3e91f480	0.2850685
132	0x3d5889d0	0.052865803
133	0xbddb8241	-0.10718203
134	0xbdbb599e	-0.091479525
135	0xbe0a7fde	-0.1352534
136	0xbd2729e7	-0.040811446
137	0x3da36361	0.079779394
138	0x3dfdea04	0.123981506
139	0xbe462054	-0.1934827
140	0x3dde91b0	0.108676314
141	0xbcda60b1	-0.026657434
142	0x3decc4b6	0.11560957
143	0xbe147fbf	-0.14501856
144	0xbe43ff45	-0.19140346
145	0x3dd3475a	0.103163436
146	0xbdd12c0d	-0.1021348
147	0x3dd5450c	0.1041356
148	0xbde77866	-0.11302261
149	0xbe14b87d	-0.14523502
150	0xbd7e5fb1	-0.062102977
151	0x3daf8c24	0.085716516
152	0x3dc72e82	0.097256675
153	0xbe87e99a	-0.2654541
154	0xbeab252c	-0.33426797
155	0xbdea74d6	-0.11448066
156	0xbc8388c2	-0.016056422
157	0xbe9192eb	-0.28432402
158	0x3c19cc97	0.009387157
159	0x3e8e19ca	0.2775405
160	0xbdadd40b	-0.084877096
161	0x3e9d24ff	0.30692288
162	0xbe4d2d50	-0.20036817
163	0x3f012950	0.5045366
164	0xbdef0538	-0.11670917
165	0x3e115dba	0.1419591
166	0xbe0ffaba	-0.14060488
167	0x3dd7b1c7	0.10531955
168	0x3e72980c	0.23690814
169	0xbd7a7537	-0.06114694
170	0xbeaf1acb	-0.3420013
171	0x3da13660	0.07871699
172	0xbdf9166c	-0.1216248
173	0x3d3e4680	0.046453953
174	0x3d1cb02f	0.03825396
175	0x3bbe2218	0.005802404
176	0xbe76df00	-0.24108505
177	0xbdb0d398	-0.08634108
178	0x3ceac4d3	0.028658306
179	0x3ce15d18	0.02751021
180	0xbcb239fc	-0.021756165
181	0xbe2d8b54	-0.1694768
182	0xbd5ddc64	-0.05416526
183	0xbc0727d4	-0.008249242
184	0x3edcb7cd	0.4310898
185	0xbd161407	-0.036640193
186	0xbd91d8d6	-0.07121436
187	0xbe53eaf6	-0.20695099
188	0x3da20cda	0.079126075
189	0xbebc9f17	-0.36840126
190	0x3e73fce6	0.23826942
191	0x3c14d0fe	0.009083031
192	0x3e83c437	0.25735638
193	0xbe4da4c3	-0.20082383
194	0xbdb579c2	-0.08861114
195	0xbea048d4	-0.31305563
196	0x3e0379f6	0.12839493
197	0xbdf4578e	-0.11930762
198	0xbc29a22f	-0.010353609
199	0x3e11709c	0.14203113
200	0x3d6496ee	0.055808
201	0xbdaeec60	-0.08541179
202	0x3d391bc8	0.04519251
203	0xbcb1c584	-0.021700628
204	0x3db33c2c	0.08751711
205	0xbeb455cf	-0.35221717
206	0x3d93926a	0.07205661
207	0xbd74503e	-0.059646837
208	0xbecedeb8	-0.40404296
209	0x3e4d6887	0.20059405
210	0x38916db5	6.934573e-05
211	0x3cab793d	0.020931834
212	0x3d7e8523	0.062138688
213	0xbe72018a	-0.236334
214	0x3d262fef	0.040573057
215	0x3db3cd8d	0.0877944
216	0xb977f669	-0.0002364755
217	0xbd54b778	-0.051932782
218	0x3b5d188c	0.0033736555
219	0xbcadb6b0	-0.021205276
220	0xbe3f0ea8	-0.18657935
221	0x3dac12ac	0.08401999
222	0x3d84bf31	0.06481779
223	0x3cea7016	0.0286179
224	0xbd0f7494	-0.035023287
225	0x3d4b73d8	0.049671024
226	0x3c17c5ef	0.0092635
227	0x3c1873a5	0.009304916
228	0xbe07ce3c	-0.13262266
229	0xbdf12797	-0.11775129
230	0x3d511cba	0.051052786
231	0xbcba6864	-0.022754855
232	0x3dd7cd7a	0.105372384
233	0xbe3badd4	-0.18328029
234	0x3cf0f382	0.029412989
235	0x3d24db46	0.040248178
236	0xbd5ee3db	-0.05441652
237	0xbdcdbdce	-0.10045968
238	0x3ec8f8f8	0.39252448
239	0x3d879844	0.06620839
240	0x3ca9fb2e	0.020749655
241	0xbbf14321	-0.0073627387
242	0xbd8a6d13	-0.067590855
243	0xbcb5bc31	-0.022184463
244	0xbd59964d	-0.053121854
245	0x3cf199a4	0.029492207
246	0xbc216574	-0.0098508485
247	0x3d31239d	0.043246854
248	0xbcc710cf	-0.024300007
249	0x3c5eae18	0.013591312
250	0x3d2f2b42	0.042765863
251	0xbd4af1d5	-0.049547035
252	0xbe0164e2	-0.1263614
253	0x3e0ceb87	0.13761722
254	0xbd396def	-0.045270856
255	0x3d986ae3	0.07442262

bias f4 [12]
0	0xbe7e5fc7	-0.24841224
1	0x3d8b3411	0.0679704
2	0xbc66d4a0	-0.01408878
3	0x3d41c52a	0.04730717
4	0x3d699108	0.05702308
5	0xbd85e065	-0.065369405
6	0x3d81cd62	0.06338002
7	0xbe85708e	-0.26062435
8	0xbce7cc46	-0.028295647
9	0xbd3d330d	-0.046191264
10	0xbe2fc9c4	-0.17166811
11	0x3d10ec1f	0.035381433

weight f4 [12]
0	0x3e918e9f	0.28429124
1	0x3f6be988	0.92153215
2	0x3f859241	1.0435258
3	0x3f44afab	0.7683055
4	0x3f5e1433	0.8674957
5	0xbd930218	-0.07178134
6	0x3f79f38d	0.97637254
7	0x3da34aea	0.07973273
8	0x3ddacf2a	0.10684045
9	0x3e8beeac	0.2733053
10	0x3c7837ed	0.0151500525
11	0x3f310f3b	0.69163865

weight f4 [12, 12, 3, 3]
0	0x3e6864ad	0.22694655
1	0x3e4ea3e3	0.20179705
2	0x3ebd96b1	0.3702903
3	0x3ea33630	0.3187728
4	0xbe19efe1	-0.15032913
5	0x3eba7413	0.36416683
6	0xbeb5dd26	-0.35520285
7	0xbd22d33f	-0.03975224
8	0x3e865330	0.26235342
9	0xbe9d7044	-0.30749714
10	0x3e7b60ca	0.24548641
11	0xbeb9552f	-0.36197802
12	0x3ce035ae	0.027369346
13	0xbe3814bd	-0.17976661
14	0x3d6e03ac	0.05810897
15	0x3e5ea5f7	0.21742998
16	0x3e30131a	0.17194787
17	0x3db3a1c9	0.087710924
18	0xbd20f617	-0.03929719
19	0xbec06ce5	-0.3758308
20	0x3ee0b129	0.43885162
21	0x3e558bda	0.2085413
22	0xbcce760d	-0.025202775
23	0xbea9a9ec	-0.33137453
24	0x3d724d5c	0.059155807
25	0x3e8c0080	0.2734413
26	0xbe974cc0	-0.29550743
27	0x3d12feb2	0.035887428
28	0xbd123bb7	-0.03570148
29	0x3e67d68f	0.22640441
30	0xbe3ee309	-0.18641295
31	0x3ec13590	0.37736177
32	0xbdf329e1	-0.11873222
33	0xbbc897f7	-0.0061216312
34	0xbef50c41	-0.4786091
35	0x3d3d637c	0.046237454
36	0xbf002df1	-0.500701
37	0xbe9564f6	-0.2917859
38	0x3e34124a	0.17585102
39	0x3db88610	0.090099454
40	0xbd6731c0	-0.05644393
41	0xbeb19865	-0.3468658
42	0x3ed125f7	0.40849277
43	0xbe30cf4a	-0.17266575
44	0xbe0064c9	-0.12538446
45	0x3e51675b	0.20449583
46	0xbebdd06a	-0.3707307
47	0xbf77a30a	-0.9673315
48	0xbdd0a3ee	-0.10187517
49	0xbf886df9	-1.0658561
50	0x3e5aa920	0.21353579
51	0x3e0230ad	0.12713881
52	0xbde36e6e	-0.11105047
53	0x3dea071b	0.114271365
54	0xbf03858c	-0.5137565
55	0xbe9fdc46	-0.31222743
56	0x3ee7b5e3	0.45255956
57	0x3dd46f72	0.10372819
58	0xbf1c6e77	-0.61106056
59	0xbe3de903	-0.18545918
60	0x3da188b8	0.07887405
61	0x3e8e882c	0.27838266
62	0xbe06086b	-0.13089149
63	0xbd13ead2	-0.036112614
64	0xbee7feb7	-0.4531152
65	0x3dc70e35	0.09719507
66	0xbf3d4717	-0.739366
67	0xbe556b97	-0.20841824
68	0x3ed1ade3	0.40952978
69	0x3c8adb8c	0.016950391
70	0xbea0e987	-0.31428167
71	0x3e876306	0.26442736
72	0x3ed471c3	0.41493043
73	0x3eca33e0	0.39492702
74	0x3c8dc53f	0.017305968
75	0x3e2d4f42	0.16924766
76	0xbe902c72	-0.2815891
77	0x3cb715e4	0.022349305
78	0xbea273e2	-0.31729037
79	0xbf6c98b9	-0.92420536
80	0xbd3f08f2	-0.04663939
81	0xbebe2e3f	-0.37144658
82	0xbcdd21bf	-0.02699363
83	0x3f2c5b0d	0.6732643
84	0xbd3cdc22	-0.046108373
85	0x3e57a3ca	0.21058574
86	0xbf148544	-0.5801585
87	0x3e46bb82	0.19407466
88	0xbf6317d9	-0.88708264
89	0x3d06700f	0.03282171
90	0x3e800411	0.25003102
91	0x3edf2ed3	0.43590412
92	0x3f0ae05a	0.54248583
93	0xbf4b13c0	-0.7932701
94	0x3ec424e3	0.38309392
95	0x3d212870	0.039345205
96	0x3de4ffbd	0.11181591
97	0xbd537401	-0.0516243
98	0x3e60a4f7	0.21937929
99	0xbe32eab9	-0.17472352
100	0x3e919afd	0.2843856
101	0x3d22e9da	0.0397738
102	0x3e83711a	0.25672227
103	0xbdfa1b0d	-0.12212191
104	0x3ef8ca50	0.48591852
105	0x3e85b9db	0.2611836
106	0xbf32317b	-0.6960675
107	0x3eb6acd3	0.3567873
108	0x3e382074	0.1798113
109	0xbe44fce3	-0.19237094
110	0x3e10428a	0.14087883
111	0x3dd68c7a	0.104760125
112	0x3cd555b4	0.026041843
113	0x3dce0ec6	0.100614116
114	0xbd7a352f	-0.061085876
115	0xbe145ba4	-0.14488083
116	0x3e20afb6	0.15692028
117	0x3dc5d72d	0.09660182
118	0xbea7a163	-0.32740316
119	0x3d40e59e	0.04709398
120	0x3dc490eb	0.095979534
121	0x3e294641	0.16530706
122	0xbdcea0c7	-0.100892596
123	0xbe182db0	-0.14861178
124	0x3d892009	0.06695563
125	0xbc3366e7	-0.010949827
126	0xbd9c6fb0	-0.0763849
127	0x3ce26241	0.027634742
128	0x3e54c9fa	0.20780173
129	0x3ddbf3df	0.10739874
130	0xbe91a68f	-0.28447387
131	0xbe87268a	-0.2639659
132	0xbc4462d0	-0.011986449
133	0x3e8cbd51	0.27488187
134	0xbd6fc181	-0.05853415
135	0x3d90cf5c	0.07070801
136	0xbd077962	-0.033074744
137	0xbe0b39d7	-0.13596283
138	0xbd5e4e48	-0.054273874
139	0x3bd326ca	0.006443833
140	0xbdbf21f7	-0.0933265
141	0x3d1172f0	0.035510004
142	0x3c05e882	0.00817311
143	0x3e649648	0.22322953
144	0xbc2c6c03	-0.010523799
145	0xbdb1bc2d	-0.0867847
146	0xbddacea0	-0.10683942
147	0x3dcb1dc4	0.09917787
148	0xbd12f772	-0.035880513
149	0xbe3aa401	-0.18226625
150	0xbe767d80	-0.24071312
151	0xbd0a068d	-0.033697654
152	0xbe0230e1	-0.12713958
153	0xbd08afbe	-0.033370726
154	0x3c7c1763	0.015386435
155	0xbe3f1300	-0.18659592
156	0xbe07c623	-0.13259177
157	0x3dfa2f9b	0.12216111
158	0xbe90ce91	-0.28282598
159	0x3e5ec6e2	0.21755555
160	0x3df7f2e6	0.12106876
161	0x3e940ea4	0.2891742
162	0xbe471e3a	-0.19445124
163	0x3d7120a7	0.05886903
164	0x3e177eb6	0.1479443
165	0xbe00a8ca	-0.12564388
166	0xbc805ee9	-0.015670257
167	0x3e4d6412	0.20057705
168	0xbd7ed0cd	-0.062210847
169	0xbc536a3c	-0.012903746
170	0x3e2736b8	0.16329467
171	0x3e3349d2	0.17508629
172	0xbdf99f1c	-0.12188551
173	0x3e53fb9a	0.20701447
174	0x3e03d07d	0.128725
175	0xbdd77af6	-0.105215
176	0x3e32764a	0.17427936
177	0x3db377f5	0.08763114
178	0x3deb69b2	0.11494769
179	0xbe05ae2d	-0.13054724
180	0x3e77d931	0.24203946
181	0x3dc7ccb9	0.097558446
182	0xbdb9bcec	-0.09069237
183	0x3ec8a967	0.39191744
184	0xbcdcda8f	-0.026959686
185	0xbd6a8643	-0.05725695
186	0x3c70e0de	0.01470205
187	0xbe8fb40a	-0.28067046
188	0xbe1e0e40	-0.15435123
189	0x3e469186	0.1939145
190	0xbaafa2d9	-0.0013399973
191	0x3e206f8c	0.15667552
192	0x3d72a5ee	0.059240274
193	0x3e74eae8	0.23917735
194	0x3c7e49d6	0.015520534
195	0x3d003573	0.031300973
196	0xbec88e7f	-0.39171216
197	0xbc89358a	-0.016749162
198	0x3e9a8b5b	0.30184445
199	0x3ed7b726	0.4213192
200	0x3e8514c9	0.2599242
201	0x3e823297	0.25429222
202	0xbd9330c4	-0.07187036
203	0xbd6f7a9c	-0.05846654
204	0x3e075a6c	0.13218087
205	0x3ccb4c9d	0.024816805
206	0xbd178852	-0.03699524
207	0xbdbf5cd3	-0.09343877
208	0xbe0e64f2	-0.13905695
209	0xbc2e886d	-0.010652644
210	0x3ea1b3dc	0.31582534
211	0xbe9434ba	-0.28946477
212	0x3cf886af	0.03033766
213	0xbdf239b6	-0.11827414
214	0x3cb83903	0.022488123
215	0x3dd55053	0.10415711
216	0x3caacaa7	0.020848585
217	0xbda68787	-0.081313185
218	0xbe4f5711	-0.20248057
219	0x3f152ad7	0.58268493
220	0xbe3336a3	-0.17501311
221	0x3de7ebb7	0.11324256
222	0x3f0a001d	0.5390642
223	0xbb04937f	-0.0020229516
224	0x3e9bf804	0.30462658
225	0xbde64e77	-0.11245435
226	0x3db6e86d	0.089310504
227	0x3ce8caed	0.028417075
228	0xbd82fe40	-0.063961506
229	0x3c323c67	0.010878659
230	0x3e54e838	0.2079171
231	0xbebb12e1	-0.3653784
232	0x3d92035a	0.071295455
233	0xbdfffdf2	-0.12499608
234	0xbd3b2ac4	-0.04569508
235	0x3e48e7d7	0.1961969
236	0xbd5db0e2	-0.054123767
237	0x3ce7f301	0.028314115
238	0x3e630a4c	0.22171897
239	0x3d888468	0.066658795
240	0xbeaa098d	-0.33210412
241	0xbdb10be3	-0.08644845
242	0x3c9470f3	0.018120265
243	0x3e655f76	0.22399697
244	0x3d95aa13	0.0730783
245	0x3e8091b8	0.25111175
246	0x3d98e023	0.07464626
247	0xbf17f233	-0.5935394
248	0x3d3c093b	0.04590724
249	0x3c92b46f	0.017908303
250	0xbe23451d	-0.15944333
251	0xbc9f70c0	-0.019462943
252	0xbd5681f9	-0.052370045
253	0x3b5fcc1a	0.0034148754
254	0xbd27db3c	-0.040980563
255	0x3cf87674	0.03032992

bias f4 [12]
0	0xbe02b157	-0.12762962
1	0x3d81f8d8	0.06346291
2	0x3da1f53c	0.07908103
3	0xbebc8412	-0.36819512
4	0xbdf777ed	-0.12083421
5	0x3cf465d3	0.02983371
6	0xbda363d5	-0.07978026
7	0xbcf78d87	-0.030218853
8	0xbd94409f	-0.07238888
9	0xbd06b772	-0.03288979
10	0x3c9e123e	0.019295808
11	0xbc478f07	-0.0121800965

weight f4 [12]
0	0x3affbecc	0.0019511818
1	0x3f2f0bd3	0.6837742
2	0x3db06711	0.08613408
3	0x3c9a49b5	0.018833974
4	0x3f67b4b1	0.9051009
5	0x3e012a4c	0.12613791
6	0xbd8970d2	-0.06710972
7	0x3f783438	0.9695468
8	0x3f678293	0.90433615
9	0x3f79f434	0.9763825
10	0xbe002c84	-0.12516981
11	0x3f6abd60	0.91695213

weight f4 [12, 12, 3, 3]
0	0x3dbbcbfd	0.09169767
1	0x3d2cb10b	0.04216103
2	0xbd214d8c	-0.039380595
3	0x3db41a38	0.08794063
4	0xbdd345c1	-0.10316039
5	0xbde21b6d	-0.11040387
6	0x3c70a67d	0.014688131
7	0x3d056385	0.032565612
8	0xbe29cad0	-0.16581273
9	0x3d0861be	0.03329634
10	0x3d138bb8	0.036021918
11	0x3db4fb88	0.08837038
12	0xbdc11268	-0.09427339
13	0x3cd362db	0.025803974
14	0xbe068177	-0.13135324
15	0xbd8e45f1	-0.06946934
16	0x3ccdd59b	0.02512627
17	0x3c68a8a2	0.014200361
18	0xbd213734	-0.039359286
19	0xbe06deb2	-0.13170889
20	0x3d5acce9	0.053418074
21	0xbe56eab6	-0.20987973
22	0x3db2cada	0.08730097
23	0x3d31a3b1	0.043369
24	0x3e041819	0.12899818
25	0xbae4910d	-0.0017438248
26	0x3d0237b7	0.031791415
27	0xbe3748de	-0.1789889
28	0xbe55f273	-0.20893268
29	0xbd8f6059	-0.07000799
30	0x3d80dc9a	0.062920764
31	0x3e2664af	0.16249345
32	0x3e4cd2b1	0.20002247
33	0x3e1bf345	0.15229519
34	0xbe1aadb2	-0.15105322
35	0xbd1a462d	-0.03766458
36	0x3ce410ca	0.027840037
37	0x3d21efbc	0.03953527
38	0x3c421398	0.011845492
39	0xbd9a2fd8	-0.07528657
40	0x3e1fc243	0.15601449
41	0x3d746fc2	0.059676893
42	0x3e133971	0.14377381
43	0xbd76365b	-0.06011043
44	0xbc6d5e4c	-0.014487814
45	0xba5e3bf9	-0.00084775646
46	0xbc2d60a7	-0.010582126
47	0xbcff8f03	-0.031196123
48	0xbe2fcbe5	-0.17167623
49	0xbd8bc520	-0.06824708
50	0x3d3a66ed	0.045508314
51	0x3de70e2e	0.112820014
52	0xbda55610	-0.08073056
53	0x3ca29957	0.019848509
54	0x3cc02368	0.023454383
55	0x3d553f33	0.052062225
56	0x3d722b97	0.0591236
57	0x3d6972e4	0.056994334
58	0x3b9d34a8	0.004797537
59	0xbc9a26ae	-0.018817272
60	0xbd8438c7	-0.06456142
61	0x3dfcc1fc	0.12341687
62	0xbcd90cca	-0.026495356
63	0x3d97cc85	0.07412056
64	0x3df90b8a	0.12160404
65	0xbd298b8f	-0.04139286
66	0x3d8c9392	0.06864084
67	0x3e1bfdc6	0.15233526
68	0x3d3261e5	0.04355039
69	0xbda67028	-0.08126861
70	0x3d4f4bbc	0.050609335
71	0xbd9c3734	-0.07627717
72	0xbd8fc1cc	-0.07019386
73	0x3e113d36	0.14183506
74	0xbb68eb1c	-0.0035540527
75	0xbe313849	-0.17306627
76	0x3d312b42	0.043254144
77	0xbb861f7b	-0.0040931082
78	0xbdb1a66e	-0.08674322
79	0xbb1c551f	-0.0023854447
80	0xbc850c2f	-0.016241161
81	0xbdf05cc2	-0.11736442
82	0x3def8c0a	0.11696632
83	0xbb0c1347	-0.0021373795
84	0xbdcbfe08	-0.09960562
85	0x3f302158	0.6880088
86	0x3d531e90	0.05154282
87	0x3d8b30f0	0.067964435
88	0xbe165255	-0.14679845
89	0x3b28dbaf	0.0025765707
90	0xbb1be3b2	-0.002378684
91	0xbd662509	-0.056187663
92	0xbb70eeaa	-0.0036763349
93	0xbda1749a	-0.07883568
94	0x3d2fcb84	0.042918697
95	0xbcf9d517	-0.030497117
96	0x3cc82015	0.02442936
97	0x3caf2ed0	0.021384627
98	0xbc1b5606	-0.009480959
99	0xbced390f	-0.028957872
100	0x3c60a5a2	0.013711365
101	0x3d6922dd	0.056918014
102	0xbd5f3225	-0.05449118
103	0x3e767b07	0.24070369
104	0x3dc15c59	0.09441442
105	0x3cee8850	0.029117733
106	0xbe26a0fc	-0.16272348
107	0x3cbe3c59	0.023222135
108	0x3f1c1ca5	0.6098121
109	0x3e051ca6	0.1299921
110	0x3e9d92d9	0.30776098
111	0xbe124774	-0.1428507
112	0xbe621476	-0.22078118
113	0x3e049c83	0.1295033
114	0xbe934fdc	-0.28771865
115	0xbef4ce5f	-0.478137
116	0x3dd62312	0.10455908
117	0xbe435d8e	-0.19078657
118	0x3ba5c994	0.0050594304
119	0x3da48d6b	0.08034786
120	0x3d86652d	0.065622665
121	0x3e5d241f	0.2159581
122	0x3dc41c24	0.0957568
123	0xbdd9032f	-0.1059631
124	0xbe00beae	-0.12572739
125	0xbc9a74b3	-0.018854475
126	0xbea384d3	-0.31937274
127	0x3f0a285c	0.53967834
128	0xbda85c55	-0.08220736
129	0xbe2682e3	-0.16260867
130	0xbde3a7db	-0.11116
131	0xbe64c705	-0.22341545
132	0xbb1c38ea	-0.0023837634
133	0xbc998993	-0.018742358
134	0x3d177918	0.03698072
135	0x3db7aa0a	0.08967979
136	0xbdf4530e	-0.11929904
137	0x3e9e3676	0.30900925
138	0xbe3657e7	-0.1780697
139	0xbe23cc48	-0.15995896
140	0x3e51fadf	0.20505856
141	0xbdbb47cd	-0.09144554
142	0xbdb715ca	-0.08939703
143	0x3e6a6d41	0.2289324
144	0x3e1af483	0.15132336
145	0x3d976d3b	0.07393881
146	0x3d29c086	0.04144337
147	0xba510981	-0.00079741335
148	0xbe21a294	-0.15784675
149	0x3dff47a9	0.1246484
150	0xbdc4f7a9	-0.0961755
151	0xbd324a9f	-0.043528195
152	0xbe188ecf	-0.14898227
153	0xbe972b04	-0.29525006
154	0xbdef6e27	-0.11690932
155	0xbeae28ca	-0.34015495
156	0xbe10e369	-0.1414925
157	0x3e8b6305	0.27223983
158	0xbde8bdcb	-0.11364325
159	0x3e4d78d1	0.20065619
160	0x3e1cf328	0.15327132
161	0x3c8e832b	0.01739653
162	0x3e73998c	0.23789042
163	0xbda03aa7	-0.07823687
164	0x3ea43dc4	0.32078373
165	0x3c0f79d7	0.008757076
166	0x3d3422f9	0.043978665
167	0xb7a4ed15	-1.9660723e-05
168	0xbd7392db	-0.059466224
169	0xbcab0f00	-0.020881176
170	0x3d9f30ae	0.07772957
171	0x3da8e8e9	0.08247549
172	0xbe7300ce	-0.23730776
173	0xbe55cc46	-0.20878705
174	0xbc10e9f5	-0.008844842
175	0x3e3ce6b1	0.18447377
176	0x3d8d995a	0.06914015
177	0x3ca4007c	0.020019762
178	0x3e586721	0.2113309
179	0xbd0511b0	-0.03248757
180	0xbd36b0f9	-0.044602368
181	0xbdc9ef36	-0.09860079
182	0x3e1e1b88	0.1544019
183	0xbd82cdf6	-0.0638694
184	0xbda46c38	-0.080284536
185	0xbe5da0a2	-0.21643308
186	0xbdbf131c	-0.09329817
187	0x3ce1deb6	0.027572017
188	0x3dcb5cc3	0.09929802
189	0x3e65f863	0.22458033
190	0xbe2873f2	-0.1645048
191	0xbc2d2478	-0.010567777
192	0xbde5087e	-0.111832604
193	0xbdcc409f	-0.09973263
194	0xbd14a6c2	-0.036291845
195	0x3e572695	0.21010812
196	0xbd97912e	-0.07400738
197	0xbd150f64	-0.03639163
198	0x3e1fc5f1	0.15602852
199	0x3eac48d6	0.3364932
200	0xbdfc5e95	-0.123227276
201	0xbe986c9f	-0.2977037
202	0x3dd1af7b	0.10238548
203	0x3e12ce75	0.1433657
204	0xbdcfa253	-0.10138383
205	0x3df89fbe	0.121398434
206	0xbe7ab5b6	-0.2448338
207	0xbdce7307	-0.100805335
208	0x3e889586	0.26676577
209	0xbe04f157	-0.12982689
210	0xbd5f64a8	-0.054539353
211	0x3e8b1224	0.27162278
212	0x3e5feec8	0.21868432
213	0xbd3b8a51	-0.045786206
214	0xbe754a48	-0.23954117
215	0xbe0d5145	-0.13800533
216	0x3f0192cf	0.5061464
217	0xbcf4d0e6	-0.029884767
218	0x3dbbfc83	0.09179022
219	0xbe2e9b97	-0.1705154
220	0xbeb11c68	-0.34591985
221	0x3e81d85c	0.25360382
222	0x3ecac194	0.39600813
223	0x3cfc4c17	0.030798001
224	0xbf8785b7	-1.0587682
225	0x3e44459d	0.1916718
226	0xbd93697c	-0.07197854
227	0x3d5087c3	0.050910722
228	0xbec8c268	-0.3921082
229	0x3c0f3525	0.008740698
230	0xbc083eb0	-0.008315727
231	0x3e4d179e	0.2002854
232	0xbe769b00	-0.24082565
233	0xbe4bc082	-0.19897655
234	0x3ef30b47	0.4746954
235	0x3e3d5785	0.18490417
236	0x3f434f57	0.7629294
237	0xbc99eef3	-0.018790698
238	0x3d81bf34	0.06335297
239	0x3e05dc58	0.13072336
240	0x3e2230ee	0.15838978
241	0x3e4a1b70	0.19737029
242	0xbf1203ec	-0.57037234
243	0xbf3cf777	-0.738151
244	0xbe3e5333	-0.18586425
245	0x3cd7ccfd	0.026342863
246	0x3e93b30e	0.28847545
247	0x3ea5f891	0.32416204
248	0xbd8bada8	-0.06820232
249	0x3eaa3c76	0.33249253
250	0x3e9a02dd	0.3008031
251	0x3e054870	0.13015914
252	0x3b290659	0.0025791137
253	0xbebd1e0d	-0.3693699
254	0x3e3934ad	0.180865
255	0xbd839722	-0.06425311

bias f4 [12]
0	0x3dfd8212	0.123783246
1	0xbd695ef5	-0.056975324
2	0xbce0678b	-0.027393123
3	0xbd954047	-0.072876506
4	0xbe885cca	-0.26633292
5	0xbe089085	-0.1333638
6	0x3d41ea67	0.047342684
7	0x3d60e321	0.054904107
8	0x3d319871	0.04335827
9	0xbea46006	-0.3210451
10	0x3d665b55	0.056239445
11	0x3c335bb6	0.010947159

weight f4 [12]
0	0x3f7387e4	0.9512923
1	0x3e11930b	0.14216249
2	0xbd9b217a	-0.075747445
3	0x3d023f31	0.031798545
4	0x3d9a347a	0.0752954
5	0xbcda656a	-0.026659686
6	0x3f93c31f	1.1543921
7	0x3f795c3a	0.9740635
8	0x3f326ffb	0.6970212
9	0x3db21193	0.08694758
10	0x3f4c999b	0.79921883
11	0x3fc57ced	1.5428749

weight f4 [12, 12, 3, 3]
0	0xbdf60d9b	-0.12014314
1	0xbdfe2a2e	-0.12410389
2	0x3db4978b	0.08817967
3	0xbdbde7d7	-0.092727356
4	0x3ee1cdff	0.44102475
5	0x3edf1619	0.43571547
6	0xbd760109	-0.06005958
7	0xbe1436d0	-0.14474034
8	0xbb9ddd7b	-0.0048176623
9	0xbdb771ab	-0.08957227
10	0x3c38bb05	0.011275058
11	0xbe40e6bf	-0.18838023
12	0x3d863988	0.06553942
13	0x3e308613	0.17238645
14	0xbb980828	-0.004639644
15	0xbdb02e60	-0.08602595
16	0xbc28bdad	-0.0102991285
17	0xbda2e400	-0.07953644
18	0xbd9bff41	-0.07617045
19	0xbeb75601	-0.35807803
20	0x3d913e2a	0.07091935
21	0xbc4aca05	-0.012377267
22	0xbd8658ca	-0.06559904
23	0x3c996743	0.018725997
24	0xbb38f991	-0.0028224925
25	0xbe3c102c	-0.18365544
26	0x3de1c53f	0.1102395
27	0x3d267427	0.040638115
28	0x3e258d6a	0.16167226
29	0xbe1f821c	-0.15576977
30	0xbd3f64fc	-0.046727166
31	0x3e6d47fe	0.23171994
32	0xbe9eadb3	-0.30991897
33	0xbb909b61	-0.004413054
34	0x3eb90137	0.3613374
35	0xbe2ff3ea	-0.1718289
36	0xbe031758	-0.12801874
37	0xbd9b7d17	-0.07592218
38	0x3dd0432e	0.101690635
39	0x3e0da2a2	0.1383157
40	0xbde9c7bd	-0.1141505
41	0xbd2fd9d7	-0.042932358
42	0x3cc022b2	0.023454044
43	0x3e2d2fb9	0.16912736
44	0x3dc95697	0.09830969
45	0x3e426085	0.18982132
46	0xbf195efa	-0.5991055
47	0x3df8c719	0.1214735
48	0x3f05eeff	0.52317804
49	0x3ccaae6c	0.024741374
50	0x3e695ea5	0.2279001
51	0x3ee5d86e	0.44891685
52	0xbdac81c3	-0.084231876
53	0x3e858745	0.26079765
54	0xbdf67204	-0.120334655
55	0xbd26f3bc	-0.040759787
56	0x3d8289cb	0.06373938
57	0x3d195f74	0.037444547
58	0x3e896650	0.2683587
59	0xbe231ad2	-0.159282
60	0x3de2cbfc	0.11074063
61	0xbced6010	-0.02897647
62	0xbd767b3f	-0.06017613
63	0xbd4265ea	-0.047460474
64	0x3ba05476	0.004892881
65	0x3be9ff9f	0.007141068
66	0xbdbdcd4d	-0.09267674
67	0x3ea6cbab	0.3257726
68	0x3d006d2c	0.031354114
69	0xbd9881e2	-0.07446648
70	0xbc0caa49	-0.008585521
71	0x3d9f67ae	0.07783447
72	0x3afe1199	0.0019383907
73	0xbd32807e	-0.04357957
74	0x3b044e79	0.0020188375
75	0x3d9deefe	0.077116
76	0xbdfe3a9e	-0.12413524
77	0x3b311433	0.0027020096
78	0x3cf2dcf1	0.029646369
79	0x3d3bc678	0.04584357
80	0xbdd3c177	-0.10339635
81	0x3d60e474	0.05490537
82	0xbf0b81ce	-0.5449494
83	0xbe55d06c	-0.20880288
84	0x3df8f38c	0.12155828
85	0x3a3ff4a8	0.00073225284
86	0xbe03a9f1	-0.12857796
87	0xbd270fd5	-0.040786583
88	0x3ca3654f	0.019945769
89	0x3e925774	0.28582346
90	0xbe281735	-0.16415103
91	0x3eabee06	0.33580035
92	0xbe3ca250	-0.18421292
93	0x3dc413c3	0.09574082
94	0x3d122b04	0.035685554
95	0xbc86d9d0	-0.016461283
96	0xbccc285d	-0.02492159
97	0xbd842f86	-0.06454377
98	0xbd60b2a9	-0.054857884
99	0xbccfcaeb	-0.025365314
100	0x3dc1c6f0	0.094617724
101	0x3d722cb2	0.059124656
102	0xbd469124	-0.04847826
103	0xbcd6711b	-0.02617698
104	0x3d8a7206	0.067600295
105	0xbd9bf2f7	-0.07614701
106	0x3cb44b67	0.02200861
107	0xbdbf5574	-0.09342471
108	0xbcd7ee48	-0.026358739
109	0x3ede69b3	0.43440017
110	0x3e0858bb	0.13315098
111	0x3c76b9d6	0.015058955
112	0xbdd91841	-0.10600329
113	0x3e314bcb	0.17314069
114	0x3c4b5cf1	0.012412296
115	0x3c2f5bbb	0.010703023
116	0xbc72ee19	-0.014827275
117	0x3c4c15fc	0.012456413
118	0x3e682066	0.22668609
119	0x3dd7368b	0.1050845
120	0x3d1aeb71	0.03782219
121	0xbb8034ee	-0.0039125597
122	0xbc16efa7	-0.009212411
123	0x3d2e3d96	0.0425392
124	0x3c0c2c6f	0.008555516
125	0x3d663791	0.056205336
126	0x3b01722b	0.0019751887
127	0xbda0366d	-0.07822881
128	0x3e2c3b22	0.16819432
129	0xbd0f1a9f	-0.034937497
130	0xbdf03077	-0.11727994
131	0x3d80c269	0.06287081
132	0xbb2fa22c	-0.0026799543
133	0xbb617068	-0.0034399275
134	0x3c1360f3	0.008995282
135	0xbd8a5a8d	-0.067555524
136	0xbe10e822	-0.14151052
137	0xbde826b6	-0.113355085
138	0xbdfc1b1f	-0.123098604
139	0x3dd77588	0.10520464
140	0x3dfca516	0.12336175
141	0xbe0809b4	-0.13284951
142	0xbdd6a609	-0.104808874
143	0xbc223779	-0.009900921
144	0x3e4ed7af	0.20199464
145	0x3dc51449	0.0962301
146	0x3e4dc070	0.2009294
147	0xbedbb7d9	-0.42913702
148	0xbe5e2ba2	-0.21696332
149	0x3cae9cd2	0.021315012
150	0x3c6fdb73	0.014639723
151	0xbe2ff4d6	-0.17183241
152	0xbdef4637	-0.11683314
153	0x3e9a93f8	0.30191016
154	0x3e9be815	0.30450502
155	0x3e87b6a6	0.26506537
156	0x3e32693d	0.17422958
157	0xbdcf9f17	-0.10137766
158	0xbc6d1a2c	-0.014471572
159	0xbd4abd71	-0.04949707
160	0xbdf0d57d	-0.1175947
161	0xbc9860a1	-0.018600764
162	0xbe0d7c94	-0.13817054
163	0x3ebb5067	0.3658478
164	0x3d2066f9	0.039160702
165	0x3d97a192	0.07403864
166	0xbdb5036d	-0.08838544
167	0xbdc246a3	-0.09486129
168	0x3d09ca77	0.03364035
169	0x3db19ac1	0.08672095
170	0xbd27ad0e	-0.040936522
171	0xbcd58861	-0.026066007
172	0x3e846446	0.25857753
173	0xbe722fab	-0.23650996
174	0xbc5e511b	-0.013569142
175	0xbe02f0c2	-0.12787154
176	0x3d0ba9c0	0.034097433
177	0x3d907662	0.0705383
178	0xbce8c755	-0.028415361
179	0x3cc7d05c	0.024391346
180	0xbd3a996b	-0.045556467
181	0xbd0dfac9	-0.034662995
182	0x3dded9fa	0.108814195
183	0x3cb33920	0.021877825
184	0xbd8b6ed8	-0.06808251
185	0x3b856c2a	0.004071732
186	0x3cb4b6ce	0.022059824
187	0xbd1484cd	-0.03625946
188	0x3cc9feda	0.024657656
189	0x3eb3c547	0.35111448
190	0x3ee8aec5	0.4544584
191	0x3e7aae83	0.24480633
192	0xbe13fdb1	-0.14452244
193	0xbde5131e	-0.11185287
194	0xbe6e273f	-0.23257159
195	0xbce47697	-0.02788858
196	0xbc5e739f	-0.013577371
197	0x3c7d591c	0.01546314
198	0xbdc037b5	-0.09385625
199	0xbd80e73d	-0.06294105
200	0xbe2f5bde	-0.17124888
201	0xbba9d6b4	-0.0051830653
202	0xbe28d457	-0.16487251
203	0x3d1011f5	0.035173375
204	0x3c36b8f5	0.011152496
205	0xbbaa792f	-0.0052024345
206	0xbd0af681	-0.03392649
207	0x3bbf1f69	0.005832602
208	0x3d886f86	0.066618964
209	0x3ceac3bf	0.028657792
210	0x3c8c9cbd	0.017164582
211	0x3c926a51	0.017872961
212	0x3cb0c432	0.021577928
213	0x3d17c971	0.037057344
214	0xbc21d9b1	-0.009878562
215	0x3d7bd24e	0.06147986
216	0xbe13cdb5	-0.1443394
217	0x3dc335f8	0.09531778
218	0xbd9f8ab3	-0.07790127
219	0xbda57a36	-0.080799505
220	0xbc1f346f	-0.009717091
221	0xbecd59b8	-0.40107512
222	0x3d37ab39	0.044841025
223	0x3cb49e93	0.02204827
224	0x3e6bb908	0.23019803
225	0xbdf92e62	-0.1216705
226	0xbcd924b9	-0.026506769
227	0xbe5c6dd6	-0.21526274
228	0xbe4e9cc1	-0.20176984
229	0xbc16b0d4	-0.009197433
230	0xbf0350fa	-0.51295435
231	0xbd64b2b1	-0.055834476
232	0x3dd21cd6	0.10259406
233	0xbe58d4e7	-0.21174966
234	0x3e1cac82	0.15300182
235	0xbeba7a29	-0.36421326
236	0x3f21ce0a	0.63205016
237	0x3ea647d9	0.3247669
238	0x3d6780ad	0.0565192
239	0x3ef10cbf	0.47080037
240	0x3d839693	0.06425204
241	0xbe898e1d	-0.26866236
242	0x3d965302	0.07340051
243	0x3e66123a	0.2246789
244	0x3f088feb	0.533446
245	0xbc59487f	-0.013261913
246	0xbd0cb3cd	-0.03435116
247	0xbea64dbc	-0.32481182
248	0x3e3f390f	0.1867411
249	0x3dbd2ddb	0.09237262
250	0x3e1bb181	0.15204431
251	0xbdbe1a02	-0.09282304
252	0xbe60922e	-0.21930763
253	0xbeb1cdf9	-0.34727457
254	0x3eb3f480	0.35147476
255	0x3de9ebb2	0.114219084

bias f4 [12]
0	0xbc824f05	-0.01590682
1	0x3c34e336	0.011040499
2	0xbccc2ec5	-0.024924645
3	0xbb7698ed	-0.0037627772
4	0x3da50f17	0.08059519
5	0x3d006b90	0.03135258
6	0x3dceace3	0.10091569
7	0xbb298fc3	-0.0025873042
8	0x3c92ec75	0.017935017
9	0xbd93cd14	-0.0721685
10	0xbdd476c9	-0.10374219
11	0xbc3d5027	-0.011554754

weight f4 [12]
0	0x3f7ac0dd	0.97950536
1	0x3e82efc3	0.2557355
2	0x3e539ed6	0.2066606
3	0x3e664b59	0.2248968
4	0x3f58a60a	0.84628356
5	0x3f5c3af4	0.86027455
6	0x3e1511b0	0.14557528
7	0x3f49b155	0.7878621
8	0x3e9da68c	0.30791128
9	0x3ef249d9	0.47321966
10	0x3ea79ba3	0.3273593
11	0x3dc460c5	0.0958877
