Saved Models/rmsprop_model_99.pth (torch, 61600 bytes, 22 tensors)

weight f4 [56, 1, 5, 5]
0	0x3cafe4a4	0.021471329
1	0xbcd00831	-0.025394531
2	0x3c497acd	0.012297344
3	0x3d8454a4	0.064614564
4	0x3d0eac79	0.03483245
5	0x3c01e561	0.007928223
6	0x3d82e16f	0.06390654
7	0x3d24ca28	0.040231854
8	0xbd586b4f	-0.052836712
9	0x3d5d41c5	0.0540178
10	0x3cb35c78	0.021894678
11	0xbc9ef591	-0.019404205
12	0x39f91386	0.00047507527
13	0xbd2ee6ad	-0.04270046
14	0x3b5534bd	0.0032532655
15	0xbb0513cf	-0.0020305996
16	0x3c3df784	0.011594657
17	0x3d302b80	0.043010235
18	0x3c11f84f	0.008909299
19	0xbd74a39d	-0.059726346
20	0xbd1a1535	-0.03761788
21	0x3ce9952e	0.028513517
22	0xbdd6e057	-0.10492008
23	0x3d9917f8	0.07475275
24	0x3d230eb5	0.039808948
25	0xbc69ff0b	-0.014281998
26	0x3d5a6fd1	0.053329293
27	0x3c22adaa	0.0099291
28	0x3d945b8f	0.07244026
29	0x3bd06e7c	0.006360827
30	0xbdaadb0c	-0.08342561
31	0xbc2c682f	-0.010522886
32	0xbce9f800	-0.028560638
33	0x3bdf001a	0.006805432
34	0xbc9b4a89	-0.01895644
35	0xbda27836	-0.07933085
36	0xbd720373	-0.05908532
37	0x3d517cf9	0.051144574
38	0xbdd04d8c	-0.10171041
39	0x3d2625d4	0.04056342
40	0xbd4e6b26	-0.050395153
41	0xbd910bde	-0.070823416
42	0xbc95cc6d	-0.018285954
43	0x3d5495b8	0.051900595
44	0xbd814468	-0.063118756
45	0xbc64d9e0	-0.013967961
46	0xbd4c2ada	-0.049845554
47	0xbceb7192	-0.028740678
48	0xbd68f49c	-0.056873903
49	0x3d6cf047	0.057846334
50	0x3bbdf805	0.0057973885
51	0x3d3c15bb	0.04591916
52	0xbcd0345d	-0.025415594
53	0x3d809c0d	0.06279764
54	0xbc801ac4	-0.015637763
55	0x3d7c0b1c	0.061534032
56	0x3c7f33b7	0.015576295
57	0x3d0fd25e	0.03511273
58	0xbcc1ec1d	-0.023672158
59	0xbc2960d5	-0.010338028
60	0x3c11ec9f	0.0089065125
61	0xbd7f5d33	-0.06234474
62	0xbc5e9f54	-0.0135877915
63	0x3d3a77e5	0.045524497
64	0x3c0dc2c7	0.008652396
65	0xbd2691c0	-0.04066634
66	0xbd9c5c38	-0.07634777
67	0x3c7487a5	0.014924918
68	0xbc96e379	-0.018419014
69	0x3ce499ba	0.027905334
70	0xbd4f7d46	-0.05065658
71	0xbc852a7d	-0.016255612
72	0x3d3a5ac4	0.045496717
73	0x3d48fccb	0.049069207
74	0x3cf88618	0.030337378
75	0x3c17d085	0.0092660235
76	0x3d2b514e	0.041825585
77	0xbc88431a	-0.016633559
78	0xbce442d0	-0.02786389
79	0x3d4d4bef	0.050121244
80	0xbce94fd4	-0.028480448
81	0xbda9c8dc	-0.08290264
82	0xbdb3b148	-0.08774048
83	0x3d63ab48	0.05558327
84	0xbd27e4d3	-0.04098971
85	0x3db6cd53	0.08925881
86	0x3b7a72dc	0.0038215434
87	0x3cfe2542	0.031023625
88	0x3ca41b39	0.020032512
89	0x3c01cd6a	0.00792251
90	0x3cf38e3b	0.029730907
91	0x3cc40883	0.02392984
92	0x3dbbd24b	0.091709696
93	0x3ca0831b	0.019593766
94	0x3a6908b6	0.00088895427
95	0xbc8e1a08	-0.017346397
96	0x3d25dc83	0.0404935
97	0xbcde9cdf	-0.027174411
98	0xbbdaf187	-0.0066816243
99	0x3c7a03ab	0.015259664
100	0xbd173d6d	-0.036923815
101	0x3b3cda46	0.0028816625
102	0xbd6081b7	-0.054811206
103	0x3b0ba415	0.0021307517
104	0x3b367eab	0.0027846496
105	0xbd8ab8ef	-0.067735545
106	0xbbe3651e	-0.0069395443
107	0xbdd38040	-0.10327196
108	0xbdf8db2b	-0.12151178
109	0xbd5d5dcd	-0.054044534
110	0xbd727ec9	-0.059202943
111	0x3c573ec1	0.01313752
112	0x3e0944d6	0.13405165
113	0xbcbc1be7	-0.022962524
114	0x3c80a43d	0.015703315
115	0xbcfea0b6	-0.031082492
116	0x3d00d081	0.031448845
117	0xbc4d7d1a	-0.012542034
118	0x3c0334a0	0.008008152
119	0xba1e9d3b	-0.0006050651
120	0xbd5dc8ec	-0.054146692
121	0xbbe51cd0	-0.00699196
122	0xbcd78ebb	-0.026313176
123	0xbd9316ac	-0.07182059
124	0x3cd3ade6	0.025839757
125	0x3c368b79	0.011141651
126	0x3d064ad1	0.032786194
127	0xbd4c89ff	-0.04993629
128	0x3da009af	0.07814347
129	0x3c80853c	0.015688531
130	0xbd4107e2	-0.04712666
131	0x3e14e582	0.14540675
132	0xbc6ce161	-0.014458031
133	0xbd553c83	-0.05205966
134	0xbd446706	-0.047949813
135	0x3cc5cff9	0.02414702
136	0x3bd93a3b	0.006629256
137	0x3d73fd03	0.059567463
138	0x3c68abb9	0.014201098
139	0xbc1ed3c7	-0.009694046
140	0x3cb14719	0.021640347
141	0xbd2882c8	-0.041140348
142	0x3db67645	0.08909277
143	0x3d3fda1a	0.046838857
144	0x3cb6d606	0.022318851
145	0x3d105c87	0.03524449
146	0xbbe25bd7	-0.006907921
147	0x3d0619cb	0.03273944
148	0x3d8072b2	0.062718764
149	0xbcf421f6	-0.02980135
150	0x3d2bf7a6	0.041984223
151	0x3d106c89	0.035259757
152	0x3d1aa93b	0.037759047
153	0x3b983d3a	0.0046459707
154	0x3c471491	0.0121508995
155	0xbd08510b	-0.033280414
156	0xbd08807d	-0.03332566
157	0x3ce4f0b4	0.027946807
158	0x3c7eb9ae	0.015547199
159	0x3d140124	0.0361339
160	0xbbf21234	-0.007387424
161	0x3d19d52b	0.03755681
162	0x3c1c5af8	0.009543173
163	0xbc4b9bc6	-0.012427276
164	0x3dc8a811	0.09797681
165	0xb9e2d31a	-0.00043263362
166	0xbc2305c1	-0.009950102
167	0x3d62dab2	0.055384345
168	0x3d8f76dc	0.070050925
169	0x3c5d97a9	0.013524928
170	0x3b6ed09b	0.0036440257
171	0x3d2821c3	0.041047823
172	0x3d6c2d46	0.057660364
173	0xba8a6049	-0.001055726
174	0x3c4c2012	0.012458818
175	0x3c692eb6	0.014232328
176	0xbcb01dfe	-0.021498676
177	0xbc507833	-0.01272397
178	0x3cfc7be0	0.030820787
179	0xbd2a2a92	-0.041544504
180	0x3d9aae6c	0.075527996
181	0x3c391b47	0.011298007
182	0xbc5d373c	-0.013501938
183	0xbc985842	-0.018596772
184	0x3d8fe057	0.07025211
185	0x3d23de2e	0.04000681
186	0x3c858fe3	0.016303962
187	0xbc76a590	-0.015054122
188	0x3bab7f91	0.005233713
189	0xbd93d2ef	-0.07217967
190	0xbbc774e9	-0.006086935
191	0x3c877b3b	0.016538253
192	0x3a49d996	0.00076999643
193	0xbcbe2778	-0.02321218
194	0x3ccb5fd5	0.02482597
195	0xbca15a76	-0.019696455
196	0x3d0e2cae	0.03471058
197	0x3d8c46f8	0.06849474
198	0xbbbfeefd	-0.005857347
199	0x3cfbd7e5	0.030742595
200	0xbd5e7408	-0.054309875
201	0xbadcd506	-0.0016848154
202	0x3ddd7798	0.10813826
203	0xbd477931	-0.04869956
204	0x3b6b7ddf	0.003593318
205	0xbc991fdd	-0.018691951
206	0x3cf020bc	0.029312484
207	0xbd127293	-0.035753798
208	0x3d3f0035	0.046631057
209	0xbcb93c30	-0.022611707
210	0xbb0f5f2c	-0.0021876795
211	0xbcf4512c	-0.029823862
212	0x3c1401eb	0.00903366
213	0xbc972b56	-0.018453281
214	0xbb441b8b	-0.0029923643
215	0xbc22c057	-0.009933553
216	0x3d952eae	0.07284294
217	0x3c831ebc	0.016005866
218	0x3ce0ced1	0.027442368
219	0x3d4e9c99	0.050442312
220	0xbcfe7ef3	-0.031066393
221	0xbcb0a390	-0.021562368
222	0xbcc0809e	-0.02349883
223	0x3d2d56e1	0.042319182
224	0xbc8b9660	-0.017039478
225	0xbc18500f	-0.009296431
226	0xbd83e599	-0.06440277
227	0x3d7ebda6	0.06219258
228	0xbd92432f	-0.071417205
229	0x3cc1fd47	0.023680342
230	0x3d1e7b21	0.038691644
231	0x3d8fe3e8	0.070258915
232	0x3d6e6cd0	0.05820924
233	0xbca7e8e3	-0.020496791
234	0x3d022ae1	0.031779174
235	0x3ca0da54	0.019635357
236	0xbc8d2864	-0.017231174
237	0xbd001ea9	-0.03127924
238	0x3b9a0ee1	0.0047014807
239	0xbba04645	-0.0048911893
240	0xbd87e0b0	-0.066346526
241	0xbc54577e	-0.012960313
242	0xbd1cac92	-0.038250513
243	0xbd202b42	-0.039103754
244	0xbc035503	-0.008015874
245	0x3b43fbf1	0.0029904807
246	0xbb6b5386	-0.0035907938
247	0x3cf8eacb	0.030385396
248	0x3c3234c3	0.010876837
249	0xbc65b635	-0.014020492
250	0xbd1e580b	-0.038658183
251	0xbd853868	-0.06504899
252	0x3bff8138	0.0077973865
253	0x3c4d545e	0.012532322
254	0x3c528f40	0.012851536
255	0xbdc46407	-0.09589391

bias f4 [56]
0	0x3be4cdf3	0.006982559
1	0xbd015926	-0.03157916
2	0x3ca8fda4	0.020628758
3	0x3bc582a1	0.006027535
4	0x3c97d361	0.01853341
5	0xbbeea34d	-0.0072826506
6	0xbc6e6523	-0.01455048
7	0xbcfc8a14	-0.03082756
8	0x3cbc0c21	0.022955002
9	0x3b02c903	0.0019956238
10	0x3ace24d4	0.0015727528
11	0x3aa3abc1	0.00124871
12	0xb9bc06af	-0.00035863134
13	0xbc895ce3	-0.016767925
14	0xbc33f8ae	-0.010984583
15	0x3ab71f49	0.0013971116
16	0xbbf9a9ea	-0.0076191323
17	0x3c42704e	0.011867596
18	0xbd05d9a3	-0.032678258
19	0x3b758482	0.0037463014
20	0x3b0e75aa	0.0021737614
21	0x3b9c5482	0.0047708163
22	0x3c037b25	0.008024965
23	0xbc752cd1	-0.014964298
24	0xbb92de11	-0.004482039
25	0x3ba19bfc	0.004931925
26	0xbbb29b21	-0.0054506217
27	0xbbb5be66	-0.005546379
28	0x3cdc0382	0.026857141
29	0xba56fd87	-0.00082012307
30	0xbb890326	-0.0041812835
31	0x3c144634	0.009049941
32	0xbb3806ad	-0.002808015
33	0x3ce3b397	0.027795596
34	0xbacbbc2c	-0.001554375
35	0xbd18f323	-0.03734125
36	0x3c6f64ca	0.014611432
37	0xbc5dd4b4	-0.013539482
38	0x3b2c99cf	0.0026336794
39	0x3bad690c	0.0052920636
40	0x3b99c75e	0.004692956
41	0x3c0b9d6d	0.00852142
42	0x3bc344e9	0.0059591425
43	0x3c6e3e0b	0.014541159
44	0x39d01c1f	0.00039693803
45	0x3c0591d3	0.008152443
46	0x3cffbca4	0.03121788
47	0xbacdccb8	-0.001570127
48	0x3b98f23d	0.004667549
49	0xbb557291	-0.0032569508
50	0x3c7803a2	0.015137585
51	0xbca39aad	-0.019971216
52	0xbc21c0de	-0.009872643
53	0xbc344933	-0.01100378
54	0xbc5da2c2	-0.013527574
55	0x3be09bfe	0.006854533

weight f4 [56]
0	0x3ec21ede	0.37914175
1	0x3e8bbb9c	0.27291572
2	0x3f0018f5	0.5003808
3	0x3ed9532b	0.42446265
4	0x3e720c19	0.23637427
5	0x3f178e68	0.5920167
6	0x3f26bab4	0.65128636
7	0x3ebbe8d4	0.3670107
8	0x3f5ea958	0.8697715
9	0x3e8b207c	0.2717322
10	0x3e7727db	0.24136297
11	0x3ea129c8	0.3147719
12	0x3f071bfa	0.52777064
13	0x3e42287d	0.18960758
14	0x3e8486ad	0.25884
15	0x3f557851	0.83386713
16	0x3e8f4244	0.27980244
17	0x3e98e281	0.2986031
18	0x3e3863a3	0.18006758
19	0x3f177474	0.5916207
20	0x3ef29839	0.47381762
21	0x3ed796cb	0.42107233
22	0x3f2aafd2	0.6667453
23	0x3e62e511	0.22157694
24	0x3e7e0d4f	0.24809764
25	0x3e83679a	0.2566498
26	0x3e8d34e9	0.2757943
27	0x3f0dd6cd	0.55405885
28	0x3f05c203	0.52249163
29	0x3f3494b9	0.7053943
30	0x3f133796	0.5750669
31	0x3f093c4c	0.5360763
32	0x3e800267	0.25001833
33	0x3ec9ea38	0.39436507
34	0x3e551125	0.20807321
35	0x3e653720	0.2238431
36	0x3ea8758e	0.32902187
37	0x3e772eec	0.24138993
38	0x3ebb52d5	0.36586633
39	0x3e17e8ae	0.14834854
40	0x3e1d1a1b	0.1534199
41	0x3f2906de	0.66026103
42	0x3e6666ce	0.22500154
43	0x3ec5e49d	0.3865098
44	0x3f650f70	0.8947668
45	0x3ea6d72c	0.32586038
46	0x3e525d77	0.20543467
47	0x3f318e71	0.69357973
48	0x3ee5c6ff	0.44878384
49	0x3e8535e3	0.26017675
50	0x3e4405cb	0.19142835
51	0x3eaf8b92	0.3428617
52	0x3eb5a35b	0.35476193
53	0x3f2f841a	0.68560946
54	0x3f9ca6ae	1.2238367
55	0x3e2b2cd0	0.16716313

weight f4 [12, 56, 1, 1]
0	0x3dd31968	0.1030758
1	0x3f0962cc	0.5366638
2	0x3f5f7c7f	0.8729934
3	0x3dd264d8	0.10273141
4	0x3d2296ba	0.039694525
5	0x3eeff4b6	0.46866387
6	0x3f424dda	0.7590004
7	0x3ed178ff	0.40912625
8	0xbdc395c4	-0.0955005
9	0x3eb065e3	0.34452733
10	0xbf2c07d0	-0.6719942
11	0x3e72f18d	0.23724957
12	0xbf0939d5	-0.5360387
13	0x3e4e3f7b	0.20141403
14	0x3e8a62d5	0.27028528
15	0xbe21fb6b	-0.15818565
16	0xbd96423f	-0.07336854
17	0xbedcc975	-0.4312245
18	0x3f08be6a	0.5341555
19	0xbe53eb2f	-0.20695184
20	0xbf20228a	-0.625527
21	0x3f093d6f	0.53609365
22	0xbe3ba9dd	-0.18326516
23	0xbc832a56	-0.016011398
24	0xbf24a9b1	-0.6432143
25	0xbea5408d	-0.3227581
26	0x3ebcf928	0.3690884
27	0x3ed29eca	0.4113677
28	0x3e09dd3d	0.13463302
29	0xbd9ee53c	-0.07758567
30	0xbde2a9cb	-0.11067542
31	0x3ec3bffe	0.38232416
32	0x3c5ae672	0.0133606065
33	0xbe454f3f	-0.19268511
34	0xbe7ee623	-0.24892478
35	0x3d8c4100	0.06848335
36	0x3f3eebe0	0.74578667
37	0xbec9307f	-0.39294812
38	0xbf4385b0	-0.76375866
39	0xbd67957c	-0.056539044
40	0xbf007086	-0.501717
41	0xbea230d6	-0.31677884
42	0xbfb56035	-1.4169985
43	0x3e5da3ba	0.21644488
44	0xbdcbda54	-0.09953752
45	0x3ecbafa8	0.39782453
46	0xbeba284f	-0.36358878
47	0x3e7086d1	0.23488928
48	0x3e8932fa	0.26796705
49	0xbe74905b	-0.23883192
50	0x3f2147ca	0.63000166
51	0x3e279941	0.16367055
52	0x3f2cd26d	0.67508584
53	0x3d5b3f08	0.05352691
54	0x3ee76e36	0.45201272
55	0x3e2f7a76	0.17136559
56	0x3ebb24da	0.36551553
57	0x3ddab039	0.10678143
58	0xbddee5a5	-0.10883645
59	0xbe6d624f	-0.23182033
60	0xbec3736b	-0.38173994
61	0x3e2a1c1b	0.16612284
62	0x3e906bb2	0.28207165
63	0x3e8946ae	0.26811737
64	0xbe445286	-0.19172105
65	0x3d021a0a	0.031763114
66	0x3f0885df	0.5332927
67	0x3ea84b58	0.32869983
68	0xbf0384c7	-0.5137448
69	0x3db331ff	0.087497704
70	0x3d6d0a8b	0.057871383
71	0xbe9276d5	-0.28606287
72	0x3f026a14	0.5094311
73	0x3e4aacf2	0.19792536
74	0xbeaa7b27	-0.33297083
75	0x3ed45525	0.4147121
76	0x3eff4894	0.4986006
77	0x3e6820b0	0.2266872
78	0x3e76abb4	0.24088937
79	0x3ea2fe84	0.31834805
80	0xbec395ca	-0.38200217
81	0xbda41fbd	-0.08013866
82	0xbeab7048	-0.334841
83	0x3e041130	0.12897182
84	0x3f93264e	1.1496065
85	0xbe680088	-0.22656453
86	0xbe0309b3	-0.12796669
87	0xbe9e2dab	-0.30894217
88	0xbe91c434	-0.28470004
89	0xbf2191f6	-0.63113344
90	0x3ea2698e	0.31721157
91	0x3df9cb80	0.12197018
92	0xbe9bd3be	-0.30434984
93	0xbf07337a	-0.5281292
94	0x3e097f2d	0.1342742
95	0xbc8f4f19	-0.017493771
96	0x3ec98513	0.3935934
97	0x3f260080	0.6484451
98	0x3e822d2d	0.2542509
99	0xbd45b52e	-0.04826849
100	0xbe47eed6	-0.19524702
101	0xbf232014	-0.6372082
102	0xbd3ca285	-0.04605343
103	0x3f18fa8c	0.59757304
104	0xbca77f6f	-0.020446507
105	0xbf0062c8	-0.5015073
106	0x3e125e67	0.14293824
107	0x3e53074d	0.20608254
108	0xbdeb6092	-0.11493029
109	0xbcf35d14	-0.029707469
110	0xbc8ad579	-0.016947495
111	0xbeea9e48	-0.45823884
112	0xbd92cb0f	-0.071676366
113	0xbfa352a3	-1.2759594
114	0xbd88171d	-0.066450335
115	0xbe6eed25	-0.23332651
116	0xbb0c4cdb	-0.0021408114
117	0x3decc995	0.11561886
118	0x3cfd922a	0.030953486
119	0xbd524d3c	-0.051343188
120	0xbee166ed	-0.4402384
121	0x3eee335e	0.46523565
122	0x3da3f01f	0.08004784
123	0xbd448bcd	-0.047984887
124	0xbf1f3dda	-0.62203753
125	0xbe57fe90	-0.21093202
126	0xbf1fef57	-0.6247458
127	0xbf03647b	-0.51325196
128	0xbf287b38	-0.65813017
129	0x3f0a0c46	0.5392498
130	0xbe1da8c0	-0.15396404
131	0xbd4d1c06	-0.050075553
132	0xbf1c7164	-0.6111052
133	0x3f373e45	0.7157939
134	0xbf4c1fdd	-0.7973612
135	0xbf096ded	-0.5368336
136	0xbda2faeb	-0.07958015
137	0x3e34c4d5	0.1765321
138	0x3cee553f	0.029093383
139	0x3ea2dc91	0.31808904
140	0xbf0aacb2	-0.5416976
141	0x3e40389d	0.18771596
142	0xbf7e6e2f	-0.99386877
143	0x3d19f70b	0.037589114
144	0x3eda17f5	0.42596403
145	0xbedb62ad	-0.4284872
146	0x3c985be9	0.018598514
147	0xbf414f5f	-0.75511736
148	0x3e6fd464	0.23420864
149	0xbd308ba6	-0.04310193
150	0x3f57b165	0.8425506
151	0xbec56402	-0.38552862
152	0x3e8e0123	0.27735242
153	0x3f291e06	0.6606144
154	0x3e8ce31d	0.27517024
155	0x3eb84907	0.35993215
156	0x3e6b2630	0.22963786
157	0xbe29ea99	-0.16593398
158	0x3ecd8bcc	0.4014572
159	0x3eeddf5e	0.46459478
160	0xbe6bc358	-0.23023736
161	0xbee299e9	-0.4425805
162	0xbf0a9152	-0.5412799
163	0x3e4c267d	0.19936557
164	0x3f12436b	0.5713412
165	0x3d56b225	0.052415986
166	0x3b99e48b	0.004696434
167	0xbd175260	-0.036943793
168	0xbee05a3c	-0.43818843
169	0xbe2cccde	-0.16875026
170	0xbf02e7d1	-0.51134974
171	0x3e0c03cb	0.13673322
172	0x3edc9e04	0.43089306
173	0x3f14df6a	0.581534
174	0x3da124ed	0.07868371
175	0x3f398750	0.72472095
176	0x3e913a2c	0.28364694
177	0x3e6df0ae	0.23236343
178	0xbf2b4332	-0.66899407
179	0xbe77b875	-0.24191459
180	0x3f6d686c	0.9273746
181	0xbda9202c	-0.082580894
182	0xbf120a23	-0.5704672
183	0xbd8c4210	-0.06848538
184	0x3e94bc30	0.29049826
185	0x3e28a37a	0.16468611
186	0x3f37b5c8	0.7176175
187	0xbeaf505c	-0.34240997
188	0xbdd37fb4	-0.10327092
189	0xbdd20163	-0.10254171
190	0x3f2a8d74	0.6662209
191	0xbdc52ebd	-0.09628055
192	0x3edf017f	0.4355583
193	0xbe8ced6a	-0.27524883
194	0x3d5209bf	0.051278826
195	0x3d42f83e	0.047600023
196	0xbddcb13a	-0.10775991
197	0x3ea75a4a	0.32686073
198	0xbe1afa5a	-0.15134564
199	0x3d80f5af	0.062968604
200	0xbebcf81f	-0.3690805
201	0x3e8e8054	0.27832282
202	0x3d9b783e	0.07591294
203	0x3c7d3a0b	0.015455733
204	0xbf076f44	-0.5290415
205	0x3f7f666c	0.9976566
206	0x3e91cd7a	0.2847708
207	0x3de51c07	0.111869864
208	0x3dd578a1	0.10423399
209	0x3ea15fc4	0.31518376
210	0x3ddb8433	0.107185744
211	0xbe84e852	-0.25958496
212	0x3f196ce2	0.59931767
213	0x3f01e0bc	0.5073354
214	0x3d055217	0.03254899
215	0xbec4e305	-0.38454452
216	0xbeb073fb	-0.34463486
217	0x3f102217	0.56302017
218	0x3e27f18e	0.1640074
219	0xbec17bb7	-0.377897
220	0xbeb5faf8	-0.35543036
221	0x3f11ca15	0.5694898
222	0x3f181b38	0.5941653
223	0x3d279e1a	0.04092226
224	0x3e5a9a55	0.21347935
225	0x3e6a1648	0.22860062
226	0x3e84d2f3	0.2594219
227	0x3e8c4830	0.27398825
228	0x3e90477f	0.28179547
229	0xbe957292	-0.29188973
230	0x3eb4442e	0.35208267
231	0x3f2ac2e9	0.6670366
232	0xbe22c0ca	-0.15893856
233	0xbc8ab3b6	-0.016931396
234	0x3e8074c1	0.25089076
235	0xbe111003	-0.14166264
236	0x3c3b63fb	0.011437411
237	0xbec21500	-0.37906647
238	0xbe350759	-0.17678584
239	0xbeed23bd	-0.4631633
240	0x3f835633	1.0260681
241	0x3c026b7a	0.007960195
242	0x3e96ff5c	0.294917
243	0xbd9e2f39	-0.07723851
244	0xbf132e0d	-0.5749214
245	0xbea96ccc	-0.33090818
246	0xbdec0922	-0.115251794
247	0xbe6dc77a	-0.23220626
248	0xbf76d6d6	-0.96421564
249	0x3f298608	0.6622014
250	0x3e8bc394	0.27297652
251	0xbecaa1ac	-0.3957647
252	0x3e1f2fc9	0.15545572
253	0xbf05c934	-0.52260137
254	0xbee7d6d2	-0.45281082
255	0xbdf84974	-0.12123385

bias f4 [12]
0	0xbc839b02	-0.016065124
1	0xbc1ba8cb	-0.009500693
2	0x3bcfb9d6	0.006339292
3	0xbc63b341	-0.013897718
4	0xbb333e94	-0.0027350532
5	0x3c4892d1	0.012242035
6	0xbd879b76	-0.06621449
7	0x3cb6ac22	0.022298876
8	0xbbf2e467	-0.0074124816
9	0x3bd16378	0.0063900314
10	0xbb76cfcc	-0.0037660478
11	0xbc9e6d57	-0.019339247

weight f4 [12]
0	0x3f4d5787	0.8021168
1	0x3f5bacc5	0.858105
2	0x3f6ec873	0.9327461
3	0x3f63e771	0.89025027
4	0x3f1b47b6	0.606563
5	0x3f5c3c54	0.86029553
6	0x3e552e15	0.2081836
7	0x3e7abeb8	0.24486816
8	0x3f141102	0.5783845
9	0x3eb3918c	0.3507198
10	0x3f76718e	0.9626702
11	0x3f2ac0db	0.66700524

weight f4 [12, 12, 3, 3]
0	0xbdcc2e47	-0.09969764
1	0x3c311208	0.010807522
2	0x3d3f1872	0.046654172
3	0x3e9e8bd9	0.3096607
4	0xbe6fd498	-0.23420942
5	0xbe52ae75	-0.20574363
6	0x3c98d92f	0.018658249
7	0x3db2c150	0.08728278
8	0x3e4aa302	0.19788745
9	0xbd11a73e	-0.035559885
10	0x3ce8651c	0.028368525
11	0xbe8f3487	-0.27969763
12	0xbd68780b	-0.056755107
13	0x3e8401d9	0.2578266
14	0x3ddf7b57	0.10912197
15	0x3dfc4eae	0.123196945
16	0xbc0dc51d	-0.0086529525
17	0xbdd7c74a	-0.10536058
18	0xbd9c312e	-0.07626568
19	0x3d26ac8e	0.040691905
20	0x3de918c5	0.113816775
21	0xbe25afd6	-0.16180357
22	0x3e24c783	0.16091733
23	0xbeb4844f	-0.35257193
24	0xbd3d4f54	-0.04621823
25	0x3bbb6a53	0.005719462
26	0x3cf5ca70	0.030003756
27	0x3e48f2bc	0.19623846
28	0x3d6f7b9d	0.058467496
29	0x3c23f6a6	0.010007536
30	0xbe1a9060	-0.15094137
31	0x3d2278da	0.039666034
32	0x3de89240	0.1135602
33	0x3e4df473	0.20112781
34	0x3e040e77	0.12896143
35	0x3e214b9c	0.15751499
36	0xbe2cd31a	-0.16877404
37	0xbe5b189e	-0.2139611
38	0x3d01cc7b	0.03168915
39	0xbd51abf7	-0.05118939
40	0xbe569150	-0.2095387
41	0x3e982f55	0.2972361
42	0xbd2dd580	-0.042439938
43	0xbe991892	-0.29901558
44	0xbd34e041	-0.044159178
45	0xbdce75da	-0.10081072
46	0xbe751d20	-0.23936892
47	0x3d165532	0.036702342
48	0x3d7495e4	0.05971326
49	0x3cf77b81	0.030210258
50	0x3df8814c	0.121340364
51	0x3e5dc6f4	0.21657926
52	0x3d881f95	0.06646649
53	0xbd2af923	-0.0417415
54	0xbcf0df42	-0.029403333
55	0xbeabda36	-0.3356492
56	0xbec16208	-0.37770104
57	0xbe290d0d	-0.16508885
58	0xbdc0a4f7	-0.094064645
59	0x3d541644	0.051779047
60	0xbe346a78	-0.1761874
61	0xbb2a19f3	-0.0025955408
62	0xbe1c30ce	-0.15252993
63	0x3e4adfda	0.19811955
64	0x3e1fca76	0.15604576
65	0x3e2484a6	0.16066226
66	0x3cd2ce68	0.025733188
67	0x3eaa05ec	0.33207643
68	0xbcdf2964	-0.027241416
69	0x3e056e0d	0.13030262
70	0xbe981a64	-0.29707634
71	0xbcea84ee	-0.028627839
72	0xbde3f3da	-0.11130495
73	0x3dcc02e7	0.09961491
74	0xbdbadfae	-0.09124695
75	0xbe930c41	-0.28720286
76	0x3e9cf566	0.30655974
77	0xbd9f015a	-0.0776393
78	0x3d1f14bc	0.038838133
79	0x3e17c9b7	0.14823042
80	0x3e2dbe06	0.1696702
81	0xbd033d16	-0.032040678
82	0xbc16aed5	-0.009196957
83	0x3d199345	0.037493963
84	0x3d884e7b	0.06655594
85	0xbdb95e99	-0.09051246
86	0x3df68d3f	0.12038659
87	0x3da28a5e	0.07936548
88	0x3db436d3	0.087995194
89	0xbcf553f4	-0.029947259
90	0x3d47299f	0.048623677
91	0x3d39b4bf	0.04533839
92	0x3ea1b83d	0.31585875
93	0x3ca2f29c	0.019891076
94	0x3e3120b9	0.17297639
95	0x3e29d70f	0.16585945
96	0x3d6f7327	0.058459427
97	0xbdb1e56f	-0.08686339
98	0xbd0d844f	-0.034550007
99	0x3d07b392	0.033130236
100	0xbcc230f4	-0.023704983
101	0x3e3fa7ca	0.1871635
102	0x3d849225	0.06473187
103	0xbc8b3d2a	-0.016996939
104	0x3d0bc703	0.03412534
105	0xbcb8d8a8	-0.022564247
106	0xbd268ed3	-0.04066355
107	0x3d944212	0.072391644
108	0xbac93161	-0.0015349799
109	0x3d842b4f	0.06453573
110	0x3e287eb2	0.1645458
111	0x3e1b0f6a	0.15142599
112	0x3e8cdbe7	0.27511522
113	0xbdfd42de	-0.123662695
114	0xbe1e1d72	-0.1544092
115	0xbe3dd430	-0.18537974
116	0xbe567607	-0.20943461
117	0xbcdd6078	-0.027023539
118	0x3deb3e59	0.11486501
119	0xbd8855d1	-0.06656993
120	0x3e349680	0.17635536
121	0xbd92b418	-0.071632564
122	0x3d7fc8ff	0.062447544
123	0x3d391dd1	0.04519445
124	0x3d2f2eb7	0.04276916
125	0xbe27a0cd	-0.16369934
126	0x3e518d13	0.20463972
127	0xbe2b323d	-0.16718383
128	0x3d7916e3	0.060812842
129	0x3e5a1e3f	0.213006
130	0xbde8db30	-0.11369932
131	0x3bafc908	0.005364541
132	0x3a62c127	0.0008649998
133	0x3e1702ad	0.14747114
134	0xbdef3d17	-0.11681574
135	0xbdebed08	-0.115198195
136	0x3d8623a8	0.0654977
137	0xbdcbafc8	-0.09945637
138	0x3ca39724	0.01996953
139	0xbde9e318	-0.11420268
140	0xbe054ac6	-0.13016805
141	0xbe055b46	-0.130231
142	0xbc804d7e	-0.015661951
143	0xbeae429d	-0.34035197
144	0xbe41a4e2	-0.18910554
145	0x3ddf6011	0.10906995
146	0xbd971987	-0.07377916
147	0xbc5e20e7	-0.013557649
148	0x3bc78272	0.0060885483
149	0x3df35e32	0.11883201
150	0xbd5b49fa	-0.053537346
151	0x3e20b7b9	0.15695085
152	0xbde14f72	-0.11001481
153	0xbcbd3861	-0.023098173
154	0x3c9968e5	0.018726775
155	0x3db4d412	0.08829512
156	0x3e6c1b66	0.23057327
157	0x3e298dae	0.16557953
158	0xbe4062de	-0.18787715
159	0xbdaf1654	-0.085491806
160	0x3cf39ea5	0.029738734
161	0xbe2722b8	-0.16321838
162	0xbbd7d4f8	-0.006586667
163	0x3ce191cf	0.027535347
164	0x3df05b4c	0.117361635
165	0xbdd43396	-0.10361402
166	0xbc817ebb	-0.0158075
167	0x3d2754b0	0.04085225
168	0x3ec146fb	0.37749466
169	0x3e571f96	0.21008143
170	0x3e2ac212	0.16675594
171	0xbd7c272f	-0.061560806
172	0xbea0769d	-0.31340495
173	0xbe010e71	-0.12603165
174	0x3e9b0b35	0.30281988
175	0x3df42d6b	0.11922725
176	0x3da36234	0.07977715
177	0xbda62327	-0.081121735
178	0xbcccd136	-0.025002103
179	0x3d2870c9	0.041123185
180	0x3e3d0104	0.18457419
181	0xbd3d7bde	-0.046260707
182	0xbe09b170	-0.13446593
183	0xbe26ee90	-0.16301942
184	0x3ea15cb7	0.31516048
185	0xbe72a38a	-0.23695198
186	0x3e020e9f	0.1270089
187	0xbd2e83ee	-0.042606287
188	0xbdd28ee1	-0.10281158
189	0x3d099d53	0.0335973
190	0x3d605cb8	0.054775923
191	0x3e78a16f	0.24280332
192	0x3ece8839	0.40338305
193	0xbe0465eb	-0.12929504
194	0xbcbaae63	-0.022788232
195	0x3d5fa557	0.05460104
196	0x3e6959fa	0.2278823
197	0x3e1eb893	0.15500097
198	0x3db0fbe5	0.08641795
199	0x3d4a05de	0.049322
200	0xbdf75268	-0.120762646
201	0xbddeb50f	-0.10874378
202	0x3e46fbbb	0.19431965
203	0x3dc22a21	0.09480692
204	0x3e0ab95a	0.13547269
205	0x3d82b7a3	0.06382682
206	0xbd3fb067	-0.04679909
207	0xbbc388ee	-0.005967251
208	0xbd984648	-0.0743528
209	0x3e462a1d	0.19352002
210	0xbdace7ce	-0.08442651
211	0xbeae4acc	-0.3404144
212	0xbe3d77ff	-0.18502806
213	0x3e5832ff	0.21113203
214	0x3ce06e71	0.027396413
215	0xbdd5c145	-0.10437254
216	0xbd096a4c	-0.03354864
217	0x3ca5eea9	0.020255404
218	0xbe8e27d6	-0.27764767
219	0xbda8c89d	-0.08241389
220	0x3bed3bf8	0.007239815
221	0xbdca6b9e	-0.098838076
222	0x3e09cb16	0.13456377
223	0x3c5bdd72	0.013419496
224	0xbe3d8620	-0.18508196
225	0xbd0acb54	-0.033885315
226	0x3e092484	0.13392836
227	0x3defc630	0.11707723
228	0x3da1260f	0.07868587
229	0x3da29a98	0.07939643
230	0x3e601f36	0.21886906
231	0xbe2c2921	-0.16812564
232	0x3dcdfa06	0.10057454
233	0x3d22e5c8	0.039769918
234	0x3d1578fb	0.03649233
235	0xbe2cfade	-0.16892573
236	0x3dc5da4f	0.0966078
237	0x3cc0c652	0.023532066
238	0x3e9a617d	0.30152503
239	0x3d818af5	0.06325332
240	0x3e0cdf9d	0.13757177
241	0xbd2a8443	-0.04163004
242	0xbb1ad93a	-0.0023628012
243	0xbd464a6a	-0.04841081
244	0x3d9e436f	0.07727706
245	0xbbd1658a	-0.006390278
246	0x3ea4f0c3	0.32214937
247	0x3b6cc1de	0.0036126296
248	0xbd0319bd	-0.032006968
249	0x3db21235	0.08694879
250	0x3cedbfdd	0.029022152
251	0x3b8f550c	0.004374152
252	0x3e4bac23	0.19889884
253	0x3dbf995c	0.09355423
254	0x3eadfffa	0.33984357
255	0xbe8696a7	-0.26286814

bias f4 [12]
0	0x3cc0e568	0.02354689
1	0xbb9c3cb1	-0.004767977
2	0xbcaa48b7	-0.020786626
3	0xba90a9c1	-0.0011036919
4	0x3cea54f8	0.02860497
5	0x3cc5b1a3	0.024132555
6	0xbc9e2519	-0.019304799
7	0xb9d905f6	-0.00041393907
8	0x3c3651f8	0.011127941
9	0x3c9b7970	0.018978804
10	0xbb6d6f9a	-0.003622985
11	0x39ebcb59	0.000449742

weight f4 [12]
0	0x3f8b6218	1.0889311
1	0x3e997cb8	0.29977965
2	0x3ec4c1c9	0.38429096
3	0x3f467f7d	0.7753828
4	0x3f52bd48	0.8232007
5	0x3f3d6baa	0.7399241
6	0x3f32575a	0.6966454
7	0x3f63ffd3	0.8906223
8	0x3f2fc382	0.68657696
9	0x3efefa7e	0.49800485
10	0x3e868254	0.26271307
11	0x3e8c6931	0.27424005

weight f4 [12, 12, 3, 3]
0	0xbd9467c9	-0.07246358
1	0x3d37fe7f	0.04492044
2	0x3d827f6f	0.06371962
3	0xbe2bc017	-0.16772495
4	0xbd38108b	-0.04493765
5	0xbd74f74a	-0.059806146
6	0xbd90fad9	-0.070790954
7	0x3db3b1ed	0.08774171
8	0xbc3f1b74	-0.01166426
9	0x3da9480c	0.08265695
10	0xbbde92c0	-0.0067923963
11	0x3cdf7861	0.02727908
12	0x3d90e860	0.07075572
13	0xbd9d1de3	-0.07671716
14	0x3e856e9c	0.2606095
15	0xbdbd3965	-0.09239463
16	0xbde662af	-0.11249291
17	0xbe80c427	-0.25149652
18	0x3e26f24c	0.16303366
19	0x3e3ef7d5	0.18649228
20	0xbd92439e	-0.07141803
21	0xbd771357	-0.06032118
22	0x3dfb6240	0.12274599
23	0xbd4f5b60	-0.05062425
24	0xbd99149b	-0.07474633
25	0xbe14a2d6	-0.14515242
26	0x3e99a909	0.30011776
27	0xbdcaebc2	-0.099082485
28	0xbc80baab	-0.01571401
29	0xbd6124cb	-0.05496673
30	0x3ded745b	0.11594459
31	0x3c1cea34	0.009577323
32	0xbd339e17	-0.043851938
33	0xbc8d0228	-0.017212942
34	0x3e152392	0.1456435
35	0x3e0c124b	0.13678853
36	0xbddb4c25	-0.10707883
37	0xbe55e71f	-0.20888947
38	0x3c2a3ef8	0.0103909895
39	0x3caa6c63	0.020803636
40	0xbd8b7670	-0.068096995
41	0xbd1f927f	-0.03895807
42	0x3dff24b4	0.124581724
43	0x3e60c6ec	0.21950883
44	0xbe8af8d9	-0.2714298
45	0x3dac538b	0.08414372
46	0xbdda1032	-0.1064762
47	0xbe290e04	-0.16509253
48	0xbe1e95b8	-0.154868
49	0xbe03bc17	-0.1286472
50	0xbe328847	-0.17434798
51	0x3e092cba	0.13395968
52	0xbce374d7	-0.027765675
53	0xbe136229	-0.14392914
54	0x3dba68eb	0.09102043
55	0xbd64c13b	-0.05584834
56	0x3e21ab5d	0.15788026
57	0xbdae2cf0	-0.08504665
58	0xbe0783a3	-0.13233809
59	0xbd709ff3	-0.05874629
60	0x3d529522	0.051411755
61	0x3d7789b4	0.06043406
62	0x3c1a3864	0.009412859
63	0xbb9b646b	-0.0047421954
64	0xbd5138ad	-0.05107944
65	0xbdfa354d	-0.122171976
66	0x3c9ecee4	0.019385763
67	0xbe80ca39	-0.25154284
68	0x3dbf11a4	0.093295366
69	0xbd94633b	-0.07245489
70	0x3d084bf7	0.03327557
71	0xbdd6237d	-0.104559876
72	0xbe226cac	-0.15861768
73	0xbc8ecbe7	-0.017431213
74	0x3d913d0d	0.07091723
75	0xbe81f427	-0.25381586
76	0x3c8104fc	0.015749447
77	0x3b8005a8	0.0039069243
78	0xbd9ce225	-0.07660321
79	0x3e587daf	0.21141694
80	0xbc1fe475	-0.009759058
81	0xbe6ad893	-0.22934179
82	0xbdc1a89b	-0.09455987
83	0xbd01e688	-0.031713992
84	0x3e4b106d	0.19830485
85	0xbe813907	-0.2523882
86	0x3cd3609d	0.025802905
87	0xbdfe5786	-0.124190375
88	0xbddbc302	-0.10730554
89	0x3de69731	0.11259306
90	0xbcc82e5d	-0.02443617
91	0xbe6a5c8c	-0.22886866
92	0xbdc2e8ff	-0.09517097
93	0xbd60dd8d	-0.054898787
94	0xbe06e8df	-0.13174771
95	0xbe0ec72b	-0.13943164
96	0xbdf9ba35	-0.12193719
97	0xbdb6f48f	-0.089333646
98	0xbe7fbe45	-0.24974926
99	0xbdc73f81	-0.09728909
100	0xbd9921ba	-0.07477136
101	0xbe125a05	-0.14292152
102	0x3c2ca503	0.010537389
103	0xbe162a79	-0.1466464
104	0xbd754e4c	-0.059889123
105	0x3e0a2ace	0.13492891
106	0xbe93697c	-0.28791416
107	0xbe3b4e96	-0.18291697
108	0xbcd458f4	-0.025921322
109	0x3dcb305b	0.099213324
110	0x3e02308a	0.12713829
111	0xbe78bf16	-0.24291644
112	0xbc46cbdf	-0.012133568
113	0xbcaada23	-0.020855969
114	0xbe962974	-0.293285
115	0x3d3a1d9e	0.0454384
116	0x3ba198b5	0.004931534
117	0xbe18bb09	-0.14915098
118	0xbc86726f	-0.016411988
119	0x3dc3e5d4	0.095653206
120	0xbe25e85d	-0.16201921
121	0xbe00cbb1	-0.12577702
122	0x3e001103	0.1250649
123	0xbdb435df	-0.087993376
124	0xbd233698	-0.039846987
125	0x3d0cd5f3	0.034383725
126	0x3a4fcae4	0.00079266564
127	0x3a4d437d	0.0007830186
128	0x3c80fd95	0.015745917
129	0xbe154f9b	-0.14581148
130	0xbca960dd	-0.02067607
131	0xbd841627	-0.06449538
132	0xbd6ccff6	-0.057815515
133	0x3d44983f	0.047996756
134	0x3d65df88	0.05612138
135	0x3aea4d9c	0.0017875913
136	0x3dcc23e1	0.09967781
137	0x3d55ec78	0.052227467
138	0xbd9e24b9	-0.07721848
139	0x3e228bb2	0.15873602
140	0x3e344a0d	0.17606373
141	0xbe048866	-0.12942657
142	0x3e11b101	0.14227678
143	0x3e21d074	0.15802175
144	0xbc293ab8	-0.010328941
145	0x3d08b922	0.03337968
146	0x3e66b43c	0.22529691
147	0xbd3c9cf5	-0.046048123
148	0x3e281f73	0.16418247
149	0xbdf1b918	-0.11802882
150	0xbda58a0e	-0.080829725
151	0xbd0dd632	-0.0346281
152	0x3d019a1a	0.031641103
153	0xbe74b96d	-0.2389886
154	0x3e68f678	0.2275027
155	0xbe2e2d81	-0.17009546
156	0x3d9ec2d4	0.07752004
157	0xbc88cf79	-0.016700493
158	0x39b3508a	0.00034201547
159	0x3de81c35	0.11333505
160	0xbd423680	-0.047415257
161	0xbbeac44f	-0.007164515
162	0x3d0cd535	0.034383018
163	0x3c9efbeb	0.019407233
164	0x3da102d5	0.07861868
165	0x3cc30420	0.023805678
166	0xbdddb422	-0.10825373
167	0x3e324b4d	0.17411537
168	0xbdb13bc1	-0.08653975
169	0x3d6ebfd5	0.058288414
170	0xbe244edc	-0.16045707
171	0xbe2e2efd	-0.17010112
172	0xbbcbe0af	-0.0062218527
173	0xbdc78ff9	-0.097442575
174	0xbe056bfe	-0.13029477
175	0xbd312c5e	-0.043255202
176	0x3d221efd	0.039580334
177	0xbe67c5ae	-0.22634003
178	0xbe76895f	-0.2407584
179	0xbccf92d7	-0.025338573
180	0x3e041995	0.12900384
181	0x3da3dae5	0.08000735
182	0x3e5566bf	0.20839976
183	0x3c6489f0	0.0139489025
184	0xbe0d2185	-0.13782318
185	0xbe19dc6a	-0.15025488
186	0xbe60e4ac	-0.21962231
187	0xbc74ca55	-0.014940818
188	0xbe15499d	-0.14578862
189	0xbdd3d985	-0.10344223
190	0x3e45f67b	0.19332306
191	0x3daf8321	0.08569933
192	0x3e62e7ba	0.22158709
193	0x3ba189ed	0.004929772
194	0xbe2d5706	-0.16927728
195	0xbe3d0aa7	-0.18461095
196	0xbd0de5a2	-0.034642823
197	0x3e0a5131	0.13507535
198	0xbdd0d449	-0.1019674
199	0xbe8641a3	-0.26221952
200	0x3e33e2cc	0.17566985
201	0xbde2d4ac	-0.1107572
202	0xbde4b5cf	-0.1116749
203	0x3d87a449	0.06623132
204	0xbd15e638	-0.036596507
205	0xbdb97318	-0.090551555
206	0x3c83536c	0.01603099
207	0x3de1a468	0.11017686
208	0x39cdb060	0.00039232057
209	0xbd4e5364	-0.050372496
210	0xbd16d618	-0.03682527
211	0xbdc93bc0	-0.098258495
212	0x3c9213d1	0.017831715
213	0x3caa6ccd	0.020803833
214	0xbd87d192	-0.06631769
215	0xbc9d8b01	-0.019231321
216	0xbe5e8ed4	-0.21734172
217	0xbea06df2	-0.31333882
218	0x3d1ba4c9	0.03799895
219	0xbd2a5a24	-0.04158987
220	0x3e55fa18	0.20896184
221	0x3d57b921	0.052666787
222	0x3e1ba863	0.15200953
223	0xbe7551a7	-0.23956929
224	0x3dcca0d3	0.09991612
225	0x3e33ad29	0.17546524
226	0x3e5c8d36	0.21538243
227	0x3e63c942	0.22244743
228	0x3e1d2863	0.15347438
229	0xbe3d5dfd	-0.18492885
230	0xbced3087	-0.028953804
231	0x3c2daba3	0.010600003
232	0x3db64eb4	0.0890173
233	0x3ddba7ad	0.10725341
234	0x3da1fdde	0.079097494
235	0xbcb32cea	-0.021872003
236	0x3e0cd69a	0.13753739
237	0xbd838da4	-0.064235
238	0xbc4957b7	-0.012288979
239	0x3d6182b4	0.05505629
240	0xbd9bc62f	-0.0760616
241	0x3cd6b45e	0.026209053
242	0x3d8bc54f	0.06824743
243	0xbc042dc7	-0.008067555
244	0xbd715b2f	-0.05892485
245	0xbdbd28f6	-0.09236328
246	0x3e168416	0.14698824
247	0x3dd2a47a	0.10285278
248	0xbe009dd9	-0.12560214
249	0xbde0cca1	-0.1097653
250	0xbd2b3db6	-0.0418069
251	0xbcc60d6c	-0.024176322
252	0x3e32c96a	0.17459646
253	0xbdc33807	-0.09532171
254	0xbe5eb7c4	-0.21749789
255	0x3ce9447e	0.028475042

bias f4 [12]
0	0x3d181d56	0.037137352
1	0xbd0ec5ac	-0.034856483
2	0x3b26eb6f	0.002546992
3	0x3c3122f3	0.010811555
4	0x3b7f459b	0.00389514
5	0x3c2c985f	0.010534375
6	0x3d0525db	0.032506805
7	0x3aed4f58	0.0018105311
8	0xbbafc4d6	-0.005364041
9	0xbd0f5a81	-0.03499842
10	0xbb289b7d	-0.0025727444
11	0xbc536f9a	-0.012905026

weight f4 [12]
0	0x3f0aed25	0.54268104
1	0x3e8c5506	0.27408618
2	0x3ec73597	0.38908073
3	0x3f3f1298	0.74637747
4	0x3f65de8a	0.8979269
5	0x3f46db2e	0.7767819
6	0x3f39f7ba	0.72643626
7	0x3f2f3467	0.68439335
8	0x3f6fb14a	0.93629897
9	0x3e747d16	0.23875841
10	0x3f224a09	0.6339422
11	0x3e91bcbe	0.2846431

weight f4 [12, 12, 3, 3]
0	0xbe04e43d	-0.12977691
1	0x3dd20609	0.10255057
2	0x3dc4fcd0	0.09618533
3	0x3e56f46c	0.20991677
4	0xbd0e7dd2	-0.03478796
5	0xbe04f435	-0.12983783
6	0x3d121abf	0.03567004
7	0xbe9ffe96	-0.3124892
8	0xbd9189b5	-0.07106344
9	0x3da52beb	0.08065017
10	0xbbde33b4	-0.006781066
11	0xbc353c8c	-0.011061799
12	0x3e70af4a	0.23504367
13	0x3b151814	0.0022749947
14	0xbe7a2627	-0.24428616
15	0xbe20fc54	-0.15721256
16	0x3c82e18e	0.015976693
17	0x3dd94ee7	0.106107526
18	0x3db336a7	0.087506585
19	0xbd2dd384	-0.042438045
20	0xbd756513	-0.059910845
21	0x3cd455e9	0.025919871
22	0x3e94b503	0.2904435
23	0xbdca5b4c	-0.09880695
24	0xbe0272fd	-0.12739177
25	0xbaff9cf0	-0.0019501727
26	0xbd2651f3	-0.040605497
27	0x3d1c8363	0.038211238
28	0xbe022f25	-0.12713297
29	0x3dd2aa34	0.1028637
30	0xbeafe8c6	-0.3435728
31	0xbd98b4d8	-0.07456368
32	0xbe1dd6e6	-0.15414008
33	0x3e2cef16	0.16888079
34	0x3dcbd2e8	0.099523365
35	0x3d84a439	0.064766355
36	0xbdb6b5d7	-0.08921402
37	0xbe0807e6	-0.13284263
38	0xbd37e899	-0.044899557
39	0xbd93f52a	-0.07224496
40	0x3e802b6a	0.25033122
41	0x3e7e47a0	0.2483201
42	0xbc548e2d	-0.0129733505
43	0x3cdfd850	0.027324826
44	0xbe122035	-0.14270099
45	0xbc59ebf8	-0.013300888
46	0xbd6ad6d9	-0.0573338
47	0x3c2ec935	0.010668089
48	0x3ea31147	0.3184912
49	0x3e01c48a	0.1267263
50	0x3d3ffe4a	0.04687337
51	0xbdb44c79	-0.088036485
52	0xbe10afaf	-0.14129518
53	0x3d8b67a2	0.06806876
54	0xbc9438a5	-0.018093416
55	0x3cb9544d	0.022623206
56	0x3db43a05	0.08800129
57	0x3c868506	0.016420852
58	0x3d992b1b	0.07478925
59	0xbe2f5c90	-0.17125154
60	0x3d83d494	0.064370304
61	0x3df867c5	0.121291675
62	0xbda5eae7	-0.08101445
63	0xbe6bbd2b	-0.2302138
64	0x3e2b2d8c	0.16716594
65	0xbce9d7a6	-0.028545212
66	0x3e5acb00	0.21366501
67	0xbd4f884d	-0.050667096
68	0xbda54b9c	-0.08071062
69	0x3df002f3	0.117193125
70	0xbe1e8daf	-0.15483736
71	0x3dd7e60f	0.10541927
72	0x3c8b0fbd	0.016975278
73	0x3da5c187	0.08093553
74	0xbd9212d4	-0.071324974
75	0xbd64a923	-0.055825364
76	0x3db7bdd4	0.08971754
77	0xbe3558a3	-0.17709593
78	0xbd8e06e9	-0.06934912
79	0x3deab7ef	0.11460864
80	0x3d7ae8d0	0.061257184
81	0x3df4696f	0.11934172
82	0xbe9074dd	-0.2821416
83	0xbe4455af	-0.1917331
84	0x3d7d8dc6	0.061902784
85	0x3e03622a	0.12830415
86	0x3db34cbd	0.08754871
87	0x3e097c44	0.1342631
88	0xbce17a59	-0.02752416
89	0x3c422f9a	0.011852169
90	0x3cbf17c7	0.023326768
91	0xbd1b0dcc	-0.037854955
92	0xbdcfaaf7	-0.10140031
93	0xbc2eb423	-0.010663065
94	0xbe3b8228	-0.1831137
95	0xbe280760	-0.16409063
96	0x3e52d37d	0.20588489
97	0x3e19b07d	0.15008731
98	0x3b6af960	0.0035854205
99	0xbe17a75c	-0.14809936
100	0xbd83cc6b	-0.06435474
101	0x3d6f8305	0.05847456
102	0x3d53276d	0.05155127
103	0x3d98bc9e	0.07457851
104	0x3e0c6dbb	0.13713734
105	0x3e0a8d7f	0.13530539
106	0x3e08a2b1	0.13343312
107	0xbe2ee9cd	-0.17081375
108	0x3de748f0	0.112932086
109	0x3e60db00	0.21958542
110	0xbce2cab1	-0.027684541
111	0xbe1e8f28	-0.15484297
112	0x3e4d9beb	0.20079009
113	0xbe6edd0d	-0.23326512
114	0x3e1d2621	0.15346576
115	0xbddb60e9	-0.107118435
116	0xbe25a140	-0.16174793
117	0xbcf7e1cf	-0.030259041
118	0x3cc2b3de	0.023767408
119	0x3dc49d62	0.09600331
120	0x3c3bd303	0.011463883
121	0x3dd2702f	0.102753036
122	0xbe967d44	-0.29392445
123	0x3e436ad9	0.19083728
124	0xbd0a2023	-0.033722054
125	0xbd10761a	-0.03526888
126	0x3d0f0e11	0.034925524
127	0xbbfbf4f3	-0.0076891123
128	0xbe478dd8	-0.19487703
129	0xbdd8ecea	-0.10592063
130	0x3bc7c694	0.0060966704
131	0xbe1aab5d	-0.15104432
132	0x3e24cf99	0.16094817
133	0xbdb67893	-0.089097165
134	0xbdb309cb	-0.08742102
135	0xbe3b542e	-0.18293831
136	0x3d01dd6a	0.031705298
137	0x3dfb0be7	0.122581296
138	0xbe415def	-0.18883489
139	0x3d887ec8	0.066648066
140	0xbc96b8bb	-0.018398633
141	0xbd65b9b6	-0.05608531
142	0xbcb78357	-0.022401495
143	0xbdedc109	-0.11609084
144	0xbdd11820	-0.102096796
145	0xbe1f28b6	-0.15542874
146	0x3e2a0abf	0.16605662
147	0xbca69d7b	-0.020338764
148	0x3e41229c	0.18860859
149	0x3cef912e	0.029244032
150	0x3de756cc	0.11295852
151	0x3c2f56b9	0.010701829
152	0x3d8104bd	0.06299732
153	0xbe15721a	-0.14594308
154	0xbd0806bd	-0.03320955
155	0xbe199a98	-0.15000379
156	0xbd7304c9	-0.059330735
157	0x3e8153b6	0.2525918
158	0x3e04fef2	0.12987879
159	0xbd2f8b56	-0.04285749
160	0xbe076c89	-0.13224997
161	0xbe840bc1	-0.25790218
162	0x3dd271c7	0.102756076
163	0xbde8e299	-0.11371345
164	0xbdfb2011	-0.122619756
165	0xbcb7e6de	-0.022448953
166	0xbea5c823	-0.32379255
167	0x3cafcb8a	0.02145936
168	0xbdcbcf41	-0.0995164
169	0x3e45811a	0.1928753
170	0xbbbde652	-0.0057952786
171	0xbdc1d45c	-0.094643325
172	0xbdc65940	-0.09684992
173	0x3d2473f3	0.04014964
174	0x3dc88280	0.09790516
175	0x3d5253a3	0.051349293
176	0xbd88f160	-0.06686664
177	0x3eb2dc2a	0.34933597
178	0x3e3c0a48	0.18363297
179	0xbc061ba7	-0.008185304
180	0xbbcc1c3d	-0.006228952
181	0xbd207e9f	-0.039183255
182	0x3b9ae6a8	0.0047272034
183	0xbd2eeb35	-0.04270478
184	0xbe54dd5d	-0.20787568
185	0x3d023e04	0.031797424
186	0xbcad5571	-0.021158906
187	0x3e4d6b6b	0.20060508
188	0xbe98e0f6	-0.29859132
189	0x3c7d75d4	0.015469987
190	0xbe0011f3	-0.12506847
191	0x3ccc92a9	0.024972277
192	0xbdaa982c	-0.08329806
193	0xbb9e17a4	-0.0048245955
194	0x3d11fc21	0.03564084
195	0x3d973568	0.07383233
196	0x3d965605	0.07340626
197	0xbc0c2ea7	-0.008556045
198	0x3e2a5ed6	0.1663774
199	0xbe8b3136	-0.27185982
200	0x3e313b95	0.17307885
201	0xbec18598	-0.37797236
202	0x3e380c43	0.17973427
203	0xbd2436d5	-0.040091354
204	0xbd8ed903	-0.069749855
205	0x3e383c82	0.17991832
206	0x3dce2ec6	0.10067515
207	0x3b6fcccc	0.0036590574
208	0xbd67a51c	-0.056553945
209	0xbe079255	-0.13239415
210	0xbcb93358	-0.02260749
211	0x3cf54fb0	0.029945225
212	0xbcbf8fa1	-0.023383917
213	0x3c964e62	0.018347923
214	0x3e8835b3	0.2660347
215	0xbddc95e1	-0.10770775
216	0xbdca2a56	-0.09871356
217	0xbe435614	-0.19075805
218	0x3e07914a	0.13239017
219	0x3e3ceb73	0.18449192
220	0xbd2ea39f	-0.04263651
221	0xbe1aaed2	-0.15105751
222	0x3b2fbde1	0.0026816058
223	0xbd4027a6	-0.04691281
224	0x3d26b395	0.040698607
225	0x3eb57d9d	0.35447398
226	0xbe1348c5	-0.14383228
227	0x3c9542b3	0.018220281
228	0xbe41d1f1	-0.18927743
229	0x3c8f5816	0.017498057
230	0xbe5cf2fe	-0.21577069
231	0x3ea87b24	0.3290645
232	0x3d8b1c2f	0.06792485
233	0x3e60d93d	0.2195787
234	0x3e11d9d2	0.14243248
235	0x3e78280c	0.24234027
236	0xbc112f90	-0.008861437
237	0x3dab7ac6	0.083730265
238	0x3e9bd3cd	0.3043503
239	0x3d20bbde	0.039241664
240	0x3d2a4fec	0.041580126
241	0xbc26ddd5	-0.010184725
242	0xbebde70d	-0.3709034
243	0x3e68b0a1	0.22723629
244	0xbd9c5752	-0.076338425
245	0xbda660fe	-0.081239685
246	0x3e3b57fd	0.18295284
247	0xbe459844	-0.19296366
248	0x3db50285	0.08838371
249	0xbd256da7	-0.040387776
250	0x3ce4b596	0.027918618
251	0xbec9b37e	-0.39394754
252	0x3daec190	0.08533013
253	0xbe110ffd	-0.14166255
254	0xbba89abc	-0.005145399
255	0xbd6a5c0a	-0.05721668

bias f4 [12]
0	0xbaf16259	-0.0018416151
1	0x3cff3af8	0.031156048
2	0xbc4e5728	-0.012594022
3	0xbcbb8187	-0.022888912
4	0xb98bebaa	-0.0002668773
5	0x3ca3d1df	0.019997535
6	0xbb67be54	-0.0035361247
7	0x36c9c51e	6.0132143e-06
8	0x3bdf5d52	0.0068165446
9	0x3d1a903f	0.03773522
10	0xbd095c02	-0.03353501
11	0x3b3aa68a	0.0028480613

weight f4 [12]
0	0x3f661034	0.89868474
1	0x3f23aa7e	0.63932025
2	0x3e7db47a	0.24775878
3	0x3e6acf43	0.22930627
4	0x3f468d34	0.7755921
5	0x3e8ce16a	0.27515727
6	0x3f491290	0.7854395
7	0x3e932338	0.28737807
8	0x3e9c8e08	0.3057711
9	0x3e80eda9	0.2518132
10	0x3f6996e7	0.91245884
11	0x3ee422d3	0.4455782

weight f4 [12, 12, 3, 3]
0	0xbed4e545	-0.4158117
1	0x3e10eeb2	0.14153555
2	0xbbf1a3c1	-0.0073742573
3	0x3cd473cb	0.02593412
4	0x3e05e282	0.13074687
5	0x3af1986a	0.0018432264
6	0x3e511247	0.20417129
7	0xbde76d29	-0.113001175
8	0xbd7dbab9	-0.06194565
9	0x3df0ab9c	0.11751482
10	0x3e880e45	0.26573387
11	0x3e020d17	0.12700306
12	0xbcd54636	-0.026034456
13	0xbda1b7e9	-0.07896406
14	0xbd97210a	-0.073793486
15	0xbd4203d6	-0.04736694
16	0x3e86ca68	0.263263
17	0xbe6463eb	-0.2230374
18	0x3c78f9a0	0.015196234
19	0xbd9d9979	-0.07695288
20	0xbdfbcd4d	-0.122950174
21	0xbd4c73b3	-0.049915027
22	0x3ce4291c	0.027851634
23	0x3e03bd0e	0.12865087
24	0x3dae6bfa	0.08516689
25	0x3dbeeaef	0.09322154
26	0xbd2f0d6a	-0.042737402
27	0xbd143bd8	-0.036189884
28	0x3dedc716	0.11610238
29	0xbdb60d0d	-0.08889208
30	0xbdfa64dc	-0.12226269
31	0x3ab55ffe	0.0013837812
32	0x3e81e79e	0.25372022
33	0xbd3de8e8	-0.046364695
34	0x3d5ed779	0.05440471
35	0xbe03225b	-0.12806074
36	0x3decd76c	0.11564526
37	0xbd6a917f	-0.057267662
38	0xbc0ecbfe	-0.008715628
39	0x3da24cd6	0.079248115
40	0x3e0a426f	0.13501905
41	0xbd4773de	-0.048694484
42	0xbe20dac0	-0.15708447
43	0xbe144ec1	-0.14483167
44	0x3cf6389b	0.030056288
45	0xbc93095a	-0.017948795
46	0xbe569856	-0.20956549
47	0xbcd57c91	-0.026060374
48	0xbdbce795	-0.09223858
49	0x3d2f3aa7	0.042780545
50	0x3de2c2a6	0.110722825
51	0xbd8d4522	-0.06897952
52	0x3dd78026	0.10522489
53	0x3e167214	0.14691955
54	0x3e6a1e99	0.22863235
55	0xbe2f29c1	-0.17105772
56	0xbd6758af	-0.05648106
57	0x3d924588	0.07142168
58	0x3dba3d3b	0.0909371
59	0xbe952fed	-0.29138127
60	0x3d147bd3	0.0362509
61	0x3da9ce5c	0.08291313
62	0xbbbf456e	-0.005837134
63	0x3d037a02	0.032098778
64	0x3d85eeee	0.06539713
65	0xbd0b9743	-0.0340798
66	0x3dbc0122	0.091799036
67	0xbdb315b5	-0.08744375
68	0xbe15f0b8	-0.14642608
69	0xbe13741b	-0.1439976
70	0xbe158c2f	-0.14604257
71	0xbc8656e3	-0.016398853
72	0xbdae2a59	-0.08504171
73	0xbd74eac6	-0.05979421
74	0x3deb663f	0.11494111
75	0xbcfd8ecf	-0.030951886
76	0x3c84ae61	0.016196432
77	0xbcbc800d	-0.023010278
78	0xbd4cb4d1	-0.049977127
79	0x3c1d2f26	0.009593761
80	0xbd8627f6	-0.06550591
81	0xbd65289c	-0.05594693
82	0xbde82c2b	-0.11336549
83	0xbdfedd27	-0.12444525
84	0x3d905fd1	0.070495255
85	0xbda927d1	-0.082595475
86	0xbd7e07f5	-0.062019307
87	0x3e6ee85b	0.23330824
88	0xbe08adab	-0.13347499
89	0xbc62e265	-0.013847922
90	0xbe8d5de0	-0.27610683
91	0xbd4c86cb	-0.049933236
92	0x3e18050d	0.14845677
93	0x3e91294c	0.2835182
94	0xbcf1aee3	-0.029502338
95	0x3e4e72e9	0.20161022
96	0x3dc1f5eb	0.09470733
97	0xbd8a4b1a	-0.06752606
98	0x3d96d6e5	0.07365207
99	0x3d885ea5	0.06658677
100	0xba87603a	-0.001032836
101	0x3db8fc1b	0.0903246
102	0xbe7132dd	-0.23554559
103	0xbd5f1d85	-0.05447151
104	0x3e5f4826	0.21804866
105	0x3e89ec65	0.26938167
106	0xbc2dc3b0	-0.010605738
107	0xbd756812	-0.059913702
108	0xbe16417a	-0.14673415
109	0xbbf13346	-0.0073608486
110	0xbbe95ada	-0.007121426
111	0x3e3a56a1	0.18197109
112	0xbdf9f186	-0.1220427
113	0x3d249f43	0.040190946
114	0xbe080d23	-0.13286261
115	0x3e815648	0.2526114
116	0xbe4ecdc8	-0.20195687
117	0x3c784675	0.015153517
118	0xbe02e52e	-0.12782738
119	0xbd94befd	-0.072629906
120	0x3d0d14bb	0.0344436
121	0x3d0a035a	0.033694603
122	0x3ccffa84	0.02538801
123	0x3d104d95	0.035230238
124	0xbe687db7	-0.22704206
125	0x3da3d9c6	0.08000521
126	0xbda0bc85	-0.07848457
127	0x3dcad894	0.0990459
128	0xbe341b9b	-0.17588656
129	0x3e3a5c2c	0.18199223
130	0x3ec292c0	0.38002586
131	0x3e029263	0.12751155
132	0x3e847eec	0.25878084
133	0x3e7763be	0.24159142
134	0x3e5389e9	0.20658077
135	0x3de62cd8	0.11239022
136	0xbe030d7d	-0.12798114
137	0x3e2deb4f	0.16984294
138	0xbe027a78	-0.1274203
139	0x3db17802	0.08665468
140	0x3e49a68c	0.19692439
141	0x3e793aea	0.2433888
142	0x3cb2b820	0.021816313
143	0xbcbda7f0	-0.023151368
144	0x3d4d31f3	0.050096463
145	0xbe84ffd0	-0.2597642
146	0xbe14af3e	-0.14519975
147	0xbe439043	-0.19098
148	0x3e45c855	0.19314702
149	0xbc106e27	-0.008815325
150	0xbe0afd2b	-0.13573138
151	0x3d90720f	0.07053005
152	0x3d1175f7	0.03551289
153	0x3e083842	0.1330271
154	0x3cfe5c43	0.031049853
155	0xbd07f251	-0.033190075
156	0x3e689e50	0.22716641
157	0x3e79190b	0.2432596
158	0xbe3d72e8	-0.18500865
159	0x3bf20feb	0.0073871515
160	0xbe958209	-0.2920077
161	0xbc2cf3fc	-0.010556217
162	0x3d145e59	0.03622279
163	0xbd893684	-0.06699851
164	0x3cab5b96	0.020917695
165	0xbe82727f	-0.2547798
166	0xbde6f89c	-0.11277887
167	0x3d4d2744	0.050086275
168	0xbc06b9f1	-0.008223043
169	0x3dcf66b3	0.1012701
170	0x3da555a0	0.08072972
171	0x3d720dce	0.059095196
172	0xbd8b3657	-0.06797474
173	0x3e75ba79	0.23996915
174	0xbc309ae2	-0.010779114
175	0xbeaf32ff	-0.34218594
176	0x3dcc63b2	0.09979953
177	0xbcb68072	-0.022278044
178	0x3d4b4dca	0.049634732
179	0x3e38e164	0.1805473
180	0x3dad542b	0.084633194
181	0x3d681533	0.056660842
182	0xbcb1e693	-0.021716392
183	0x3d80594c	0.06267032
184	0x3e6cee58	0.23137796
185	0xbe66d09a	-0.22540513
186	0xbdb5ed83	-0.088831924
187	0x3c443083	0.011974457
188	0xbe1003ae	-0.14063904
189	0xbdedbf14	-0.11608711
190	0x3db481b2	0.088138
191	0xbc844c31	-0.016149612
192	0xbdc6d04c	-0.09707698
193	0x3c982d3b	0.018576255
194	0xbe5ee2c3	-0.2176619
195	0x3ceb0fef	0.028694121
196	0xbdd24cfc	-0.1026859
197	0x3dbe6900	0.09297371
198	0x3d176265	0.03695907
199	0x3d927750	0.07151663
200	0x3e10e148	0.14148438
201	0x3e2a21e1	0.16614486
202	0xbe6d47ee	-0.2317197
203	0x3d744a4c	0.059641168
204	0x3e16fd1d	0.14744993
205	0x3db095b8	0.086223066
206	0x3d6a0a64	0.057138816
207	0xbe4b3ca1	-0.19847347
208	0x3e7899c9	0.24277414
209	0x3e8419d3	0.25800952
210	0xbd5d8b02	-0.054087646
211	0x3c494def	0.012286647
212	0x3e5e153a	0.21687785
213	0xbbab7957	-0.0052329707
214	0xbdc7ea28	-0.09761459
215	0xbd816836	-0.06318705
216	0xbd444777	-0.047919717
217	0xbc62aead	-0.013835591
218	0xbd114bb0	-0.03547257
219	0xbd4942a9	-0.049135838
220	0x3ce371f3	0.027764296
221	0x3e1591e8	0.1460644
222	0x3ddbea15	0.10738007
223	0x3c4da01c	0.01255038
224	0x3e23d547	0.15999328
225	0x3d039002	0.03211976
226	0x3e04e562	0.12978128
227	0x3e47d6e2	0.19515565
228	0xbd78ad58	-0.06071219
229	0xbd9a1c47	-0.07524925
230	0x3d9acca6	0.07558565
231	0x3d51d1e0	0.051225543
232	0xbd10654f	-0.035252865
233	0xbd318250	-0.043337166
234	0x3df165ad	0.11786971
235	0xbe35b1fe	-0.1774368
236	0x3df9fb2c	0.1220611
237	0x3d04a2a6	0.032381676
238	0x3db7417c	0.08948037
239	0x3dc64e9d	0.09682963
240	0xbd61965e	-0.055075042
241	0x3e4e83be	0.20167443
242	0xbe21209e	-0.15735099
243	0x3da6066d	0.08106694
244	0xbe2aed9c	-0.16692203
245	0xbdd18b2f	-0.10231625
246	0x3dea3824	0.11436489
247	0xbdfa6545	-0.12226347
248	0xbc3863e0	-0.011254281
249	0xbd87218e	-0.06598197
250	0xbe5337ce	-0.20626757
251	0x3def0485	0.11670784
252	0xbbe88164	-0.0070955027
253	0xbd915d7d	-0.070979096
254	0xbe62cdbb	-0.22148792
255	0xbda0523d	-0.07828186

bias f4 [12]
0	0xbca6edcb	-0.02037706
1	0x3c7797d1	0.015111879
2	0xbc16bc62	-0.009200187
3	0xbc4c7021	-0.0124779055
4	0x3d33f833	0.043937873
5	0x385673b1	5.1129322e-05
6	0x3cb9da9f	0.022687254
7	0x3a14a72b	0.0005670662
8	0x3c6943db	0.014237369
9	0x3ca28d87	0.019842876
10	0xbbc7a794	-0.006092975
11	0xbc9e0ca4	-0.019293137

weight f4 [12]
0	0x3f56ca39	0.8390232
1	0x3e8c3060	0.27380657
2	0x3f476398	0.77886343
3	0x3f8123e5	1.0089079
4	0x3f5e59d9	0.86855847
5	0x3f2a7570	0.66585445
6	0x3e88d477	0.26724598
7	0x3ed6dd66	0.4196579
8	0x3e927fff	0.28613278
9	0x3e7b98bf	0.24569987
10	0x3eb1f254	0.34755194
11	0x3f5fe450	0.8745775
